assets/modelo_ventanas.tflite (tflite, 108616 bytes, 7 tensors)

sequential/embedding/embedding_lookup f4 [150, 64]
000000 4e 2f a9 3c 36 12 11 bd 8a ff 3b bd 76 85 17 bd
       0.02065244 -0.035417758 -0.045897998 -0.036992513
000010 f1 4e 04 3d 2d 13 da bc 32 41 bd 3c 89 b5 07 3d
       0.032301847 -0.026620472 0.023102377 0.03313211
000020 0d ec 0a bd 98 cf 98 bb 80 20 5e bc 57 07 34 bd
       -0.03391652 -0.004663419 -0.013557553 -0.043952312
000030 cc 07 94 bc da ec d0 bc 19 3b 36 3d c7 a5 be bc
       -0.018070124 -0.025503565 0.044489954 -0.023272408
000040 cc 32 0b bc 30 35 55 3b 77 f8 1e 3d c9 15 29 3d
       -0.008495998 0.0032532923 0.038811173 0.04128054
000050 5a 68 9a bc b3 d0 12 3d 14 94 99 bc b0 13 a8 3b
       -0.018848587 0.035843562 -0.018747367 0.0051293
000060 1d 15 16 bd 74 f5 6e 3c cc 8c 26 bc fd 1c 1d bd
       -0.03664123 0.014584888 -0.0101654045 -0.038357724
000070 80 8e a0 b9 47 75 47 bd a2 d7 c0 3c ad d1 47 3d
       -0.0003062375 -0.04869583 0.023540322 0.048783947
000080 02 b1 d0 3c 58 ce 24 3c 2e 0b c4 3c 64 bc 6f 3c
       0.025475029 0.010058962 0.023931112 0.014632318
000090 00 07 4c 3b e7 74 bd bc d1 85 47 3d 36 5c 10 bd
       0.0031132102 -0.023127032 0.0487116 -0.03524419
0000a0 a7 8e bd bc ca 0b 1a bd 0d 24 44 bd 83 83 0a 3d
       -0.023139311 -0.0376089 -0.047885943 0.033816826
0000b0 80 bb 9b 3b 30 78 36 bb a8 0b 63 bc 60 e3 e2 bc
       0.0047525764 -0.0027842633 -0.01385776 -0.027696311
0000c0 33 87 e5 bc 70 39 25 bd a0 e1 76 3b a8 9b 7a bc
       -0.02801857 -0.04033798 0.0037671104 -0.0152959
0000d0 3a f4 eb 3c ad 08 13 bd 80 b0 93 bb 07 43 24 3d
       0.02880298 -0.035896946 -0.0045071244 0.040102985
0000e0 3d 99 34 bd 12 59 a7 3c 03 05 31 3d 13 01 9a bc
       -0.044091452 0.020428214 0.04321767 -0.01879934
0000f0 99 6a 4a 3d b0 5f 9c 3b 3d 1a 16 3d e1 8d 2c 3d
       0.049418066 0.004772149 0.036646117 0.042127494
000100 80 f6 35 3a e3 e7 39 bd e0 51 1a bd 66 37 a3 3c
       0.00069413334 -0.04538716 -0.03767574 0.019923877
000110 2d 7c 42 3d 21 05 1f 3d 3d 9e 31 bd 80 2e f8 b9
       0.047481705 0.03882325 -0.0433638 -0.0004733689
000120 8e 70 ba 3c ca 19 3c bd d0 85 19 bd 7a bf e8 bc
       0.022758748 -0.045923032 -0.03748113 -0.028411616
000130 24 90 7c 3c 8c 10 53 3c 5a fd 3f bd c9 d3 30 3d
       0.015415225 0.012882363 -0.046872474 0.043170724
000140 a0 3f e4 ba 80 97 e2 bb 97 01 33 bd 59 ff 38 3d
       -0.0017413981 -0.006915033 -0.043702688 0.045165394
000150 a6 fc 0f bd 80 88 e3 bb cc f0 4e 3c 21 b7 45 3d
       -0.035153054 -0.0069437623 0.012630653 0.04827035
000160 a6 ba ac 3c ca 80 31 bd 8c 38 7a 3c ba d3 1a bd
       0.021085095 -0.043335713 0.015272271 -0.037799574
000170 7a 2c b6 3c 3a 46 a2 3c 91 0c 2e 3d 80 bd d6 bb
       0.022238005 0.019808877 0.042492453 -0.006553352
000180 4d 02 1e bd 54 3e 07 bd d0 4c a9 3b 40 a9 b7 ba
       -0.038576413 -0.033018425 0.0051666275 -0.0014012232
000190 0a 76 0d bd 4d 90 06 3d 80 e6 ce 39 06 ce c5 3c
       -0.0345364 0.03285246 0.00039463118 0.024146091
0001a0 06 ed 81 3c 00 43 d3 b9 e0 74 b8 bc 46 62 bc 3c
       0.015860092 -0.00040294975 -0.022516668 0.02299608
0001b0 aa 9a 4c bd e6 7c f7 3c 7d dc 29 3d 34 9a 7d 3c
       -0.049952187 0.030210923 0.04147004 0.015478659
0001c0 27 38 d6 bc 3a d9 af bc c6 e2 fa 3c 80 61 8a bc
       -0.026149822 -0.021465886 0.030625712 -0.016892195
0001d0 00 63 32 3c 28 d9 2e 3c ca 98 31 bd 2a 9d 29 bd
       0.010887861 0.010671891 -0.0433586 -0.04140965
0001e0 b0 f0 ae bb 34 84 77 3c cc b0 34 bc 7d 34 15 bd
       -0.005338751 0.015107203 -0.01102848 -0.03642701
0001f0 4c a4 20 bc c4 66 0b bd fa 13 2d bd ae 2c c7 3c
       -0.009804796 -0.03403355 -0.04225538 0.024313297
000200 47 19 b9 3d e7 03 e5 bd c1 d2 fb 3d cc 6f f3 bd
       0.090380244 -0.11182385 0.122960575 -0.11886558
000210 69 67 f3 3c 8e 86 05 be c2 24 c3 bd 15 31 13 bd
       0.029712396 -0.1303961 -0.09528495 -0.03593548
000220 db 49 39 3d 6a d7 29 3e 87 19 9b bd 56 f4 07 3e
       0.04523645 0.1658608 -0.07573228 0.132768
000230 39 7b d5 bd be 73 d3 bd c8 3e e2 3d 27 2f 0a 3e
       -0.104238935 -0.103248104 0.11047131 0.1349455
000240 5c 7d ca bb a5 b7 9c bd ca eb 08 bd 26 a1 c8 bd
       -0.006179495 -0.07652215 -0.03342799 -0.097963616
000250 b4 73 40 3d 9e 2c 82 bd a1 24 d4 3d 52 db 95 3d
       0.046985343 -0.06356166 0.10358549 0.07317223
000260 47 a8 df bd 54 1d f1 bd 93 b9 07 bd 8e 53 ce 3d
       -0.10920768 -0.11773172 -0.03313596 0.100745305
000270 c2 c3 60 bd 1e 7c 0b 3e e5 df 8d bc 46 94 61 3d
       -0.05487419 0.13621566 -0.017318675 0.055073045
000280 41 06 e6 bd 03 5b a8 bd 47 8f 1f be 05 51 81 bc
       -0.112316616 -0.08220484 -0.15582 -0.015785703
000290 3e 7b 7b bd d3 4e 13 3e 6b 85 a9 bd 3e d1 83 bd
       -0.06139683 0.14385538 -0.082774006 -0.06436394
0002a0 94 5f b7 bd d1 85 f7 bc 56 41 06 3e 60 ca d7 3d
       -0.08953777 -0.030215176 0.13110861 0.10536647
0002b0 ab 9c a6 bd 45 2b cb bd 08 7c e8 bd 41 43 9b 3c
       -0.08135351 -0.099203624 -0.11351782 0.018952968
0002c0 f9 17 f3 bc e7 c9 a9 3d 83 17 f3 bd 55 8a 9c 3c
       -0.029674517 0.08290463 -0.11869719 0.01910893
0002d0 95 4e b5 bd dc 01 35 3d a0 fc 49 bc 96 c5 d5 3d
       -0.08852879 0.044191226 -0.012328297 0.10438077
0002e0 c4 ba f9 3d 28 22 be bd 8c e7 cd 3d a8 86 dc bd
       0.12193826 -0.092838585 0.1005393 -0.10767871
0002f0 55 2e 1d bd 87 3f de 3d 69 8e b4 3d cf ba 30 bd
       -0.038374264 0.10851961 0.08816225 -0.043146905
000300 f7 c6 0d be 39 87 9d bb f3 1e ff bc 1d 1d 1c 3e
       -0.1384543 -0.0048073796 -0.031142687 0.15245481
000310 45 22 10 3e 2d 1f 20 3e 9f b7 10 be f7 3d 1d be
       0.14075573 0.15636893 -0.14132546 -0.15355669
000320 b9 2d ec 3d e4 a7 97 3d 48 47 02 3e bd 44 9c bd
       0.115321584 0.074050695 0.12722504 -0.07630298
000330 14 ec 2a be 35 5f 02 be 81 65 eb 3d 18 d8 3c bd
       -0.16691619 -0.12731631 0.1149397 -0.04610452
000340 1c 3d 86 bd 9f 54 c0 bd 7e 5a 35 be 18 27 dd bd
       -0.065546244 -0.0939114 -0.17710301 -0.10798472
000350 38 e8 87 bd d0 6d 1a be 1e 97 8b 3d 34 0a 1e be
       -0.06636089 -0.15080953 0.06815933 -0.1543358
000360 34 eb 23 be e8 53 8d 3d 72 bb 01 bd 2f 08 8a 3d
       -0.16007692 0.069007695 -0.031672902 0.06739842
000370 ba 94 ca 3d 98 9c 21 be ad 6c 0f be 51 d2 9e bd
       0.098916486 -0.15782392 -0.140063 -0.077549584
000380 97 ab 07 be 60 8c 25 3e 41 a0 07 bd 12 ca 13 3d
       -0.1324905 0.1616683 -0.033111814 0.03608138
000390 0d 9b d4 bd 89 9f 43 bd 63 31 2c 3e a3 e7 e4 3d
       -0.10381136 -0.047759566 0.16815715 0.11176994
0003a0 98 78 1a be c2 36 2b be d2 c1 ff bb df c7 0d 3d
       -0.15085065 -0.16720107 -0.0078050876 0.03461444
0003b0 7b 1b 03 3e e5 ed 94 bd fd 9e 1c 3e 09 91 dc bd
       0.12803452 -0.07271937 0.15295024 -0.10769851
0003c0 76 60 55 3d db 41 c0 bd 26 4e 2c 3e cf 1e 12 be
       0.052093945 -0.09387561 0.16826686 -0.14269565
0003d0 2d 09 f1 bd cc 5f 72 bd 9f e5 d5 3d 13 c5 d0 3d
       -0.11769328 -0.05917339 0.104441874 0.10193839
0003e0 79 37 1f 3e 53 3f ac 3d 41 d8 d6 3c ce 03 71 bd
       0.15548505 0.08410516 0.026226165 -0.05884152
0003f0 b0 ae e7 3d 84 0f 47 bd cf f4 da bd d3 58 02 3e
       0.11312616 -0.04859878 -0.10691225 0.12729196

sequential/dense/BiasAdd/ReadVariableOp f4 [64]
000000 89 5d 7d 3d bb 12 b7 3d 81 7f df 3c 43 83 9a 3d
       0.06185678 0.089391194 0.027282478 0.075445674
000010 8d bd e7 3d 74 83 96 3d bc f0 aa 3d 77 94 82 3d
       0.11315451 0.073492914 0.08346698 0.06375974
000020 90 51 89 3d ad e1 9d 3d fc 20 af 3d e7 74 68 3d
       0.0670501 0.0770906 0.08551213 0.05675211
000030 5f 2b 8f 3d b9 74 a4 3d 15 73 82 3d f2 51 1b 3d
       0.06990694 0.080300756 0.063696064 0.037919946
000040 28 40 a5 3d 9a f3 89 3d cb ef c3 3d bb df 99 3d
       0.080688775 0.067359164 0.09567221 0.07513376
000050 a9 2c 88 3d f1 40 a5 3d 3a e5 81 3d cb 70 3d 3d
       0.06649143 0.08069027 0.063425496 0.046250146
000060 35 93 97 3d d2 e6 87 3d 86 00 ba 3d a7 76 d6 3d
       0.074011244 0.06635822 0.09082131 0.1047185
000070 23 5c dd 3d 90 f9 a3 3d 33 8d 8e 3d 79 f9 70 3d
       0.10808589 0.08006585 0.06960525 0.058831666
000080 1a 24 9c 3d d8 ca 40 3d c4 c2 ab 3d 5f b0 a8 3d
       0.07624073 0.047068447 0.08386758 0.08236765
000090 5a e7 8c 3d 98 50 8d 3d e2 30 9b 3d af c8 94 3d
       0.06880064 0.06900138 0.07577683 0.0726484
0000a0 b3 a1 95 3d e9 d9 ca 3d 50 22 f3 3b fb 40 d3 3d
       0.07306232 0.09904844 0.007419862 0.103151284
0000b0 5a c8 35 bc 10 91 96 3d 85 22 8d 3d 28 0c 7a 3d
       -0.011095131 0.07351887 0.0689135 0.06104675
0000c0 db 97 1b 3e ae 27 0f 3d 71 c6 94 3d ac b2 4c 3d
       0.15194647 0.03494995 0.07264412 0.049975082
0000d0 0b 38 75 3d 03 cd a7 3d f6 64 b2 3d 24 b0 b1 3d
       0.0598679 0.081934 0.08710663 0.08676174
0000e0 b0 86 b2 3c 73 c7 6f 3d 4c a8 b0 3d 4a a9 fa 3d
       0.02179274 0.05853982 0.0862585 0.122393206
0000f0 8e 5e ab 3d 21 d4 a0 3d a9 19 b1 3d fa 94 ad 3d
       0.08367644 0.078529604 0.086474724 0.08475681

sequential/dense_2/BiasAdd/ReadVariableOp f4 [5]
000000 34 e4 a5 3c c7 51 01 3d 58 2d b0 bc 9d 22 a0 bc
       0.020250417 0.03157213 -0.021505997 -0.019547755
000010 2a 38 b7 bc
       -0.022365648

sequential/dense_1/BiasAdd/ReadVariableOp f4 [64]
000000 8b 27 4d 3d ee 85 87 3d 77 49 2b 3d 36 fb 2d 3d
       0.05008654 0.06617342 0.04181811 0.0424759
000010 22 7a 85 3c 00 d6 6f 3d 16 ea 60 3c 2d 06 96 3c
       0.016293589 0.058553696 0.013727685 0.018313492
000020 9c 2e 4b 3d 02 52 19 3e b0 0e 78 3d e7 43 5c 3d
       0.049604997 0.1497269 0.060560882 0.053775694
000030 45 6e ec 3c 76 68 25 3d 51 26 b7 3c d5 d2 4f 3d
       0.028861174 0.040382825 0.022357138 0.050738174
000040 9d 3e 29 3d 5b 1c 07 3d 74 4e 91 3c 3a 02 58 3d
       0.04131948 0.032986026 0.017737605 0.0527365
000050 37 fe e8 3c 90 ed 42 3d 53 8d 34 3d 55 19 18 3d
       0.028441532 0.04758984 0.04408009 0.037133534
000060 77 48 cd 3a 26 66 61 3d 7b bb 62 3d fd c7 ff 3c
       0.0015661855 0.055029057 0.055354577 0.031223292
000070 d2 bf 1d 3d 60 54 97 3d 60 1f 45 3d a7 8e ae 3d
       0.038513012 0.0738914 0.048125625 0.085233025
000080 2e 5b 1f 3d 81 65 f8 3d fd 95 e8 3c 23 09 1c 3d
       0.038905315 0.12128735 0.028391832 0.03809465
000090 f4 79 af bc 7a 4d 53 3d 8e c2 1b 3d 10 02 85 3d
       -0.021420456 0.05158756 0.03802734 0.06494534
0000a0 5f b2 25 3d 46 a1 2f 3d 13 43 ae bc b6 e8 49 3d
       0.04045331 0.04287841 -0.021272218 0.049294196
0000b0 cf 00 61 3c 65 42 47 3d 5b 75 cf 3c 35 a4 a9 3c
       0.013733103 0.048647303 0.025324514 0.020708183
0000c0 f4 6c 20 3d 43 29 8d 3d 98 f3 2d 3d ca 23 c4 38
       0.039166406 0.06892636 0.042468637 9.3526745e-05
0000d0 7e bd 4d 3d eb 3a 8d 3c 01 68 24 3d 04 95 3b 3d
       0.050229542 0.017240008 0.04013825 0.04579641
0000e0 94 df 01 3d 6f a1 19 3b 38 b2 b9 3c 9f e6 31 3d
       0.03170736 0.002344217 0.02266799 0.043432828
0000f0 b1 2e 1e 3d 6b d1 5b 3d 40 e8 3d 3d 3e 71 2a 3d
       0.038618747 0.053666513 0.04636407 0.041611902

sequential/dense/MatMul f4 [64, 192]
000000 3c eb 51 be f8 2f cd 3d 14 f5 9a be 41 ed 8d 3e
       -0.20499891 0.10018915 -0.30265105 0.27720073
000010 5f 56 eb 3d 78 a2 6e 3e c5 da 2f bd a1 fd 95 be
       0.11491083 0.23304164 -0.042933244 -0.29295066
000020 dc 78 b0 3e 53 9e c5 bc a7 df 90 3d 4d 7e f9 bd
       0.34467208 -0.024123346 0.07073908 -0.12182293
000030 1e 04 b5 be 2c 79 09 be b4 8b 04 bc 55 8b 89 be
       -0.35354704 -0.1342513 -0.008089948 -0.26864114
000040 fc 14 a6 3d 1a 5c c2 be 00 3d af bd 14 05 93 bd
       0.08109471 -0.37960893 -0.08556557 -0.07178703
000050 b6 8a c2 be f0 be 2a be a7 9d 01 3e 5d 3c 71 be
       -0.37996453 -0.166744 0.12657796 -0.23558183
000060 8b 54 ab be cd 1b 0a 3e 07 9e 66 bb 9a 55 d6 bc
       -0.3346294 0.13487168 -0.0035189406 -0.026163865
000070 02 c7 b1 bd e9 f2 c7 bd 51 c3 15 be ec 3b 40 be
       -0.08680536 -0.09763128 -0.14625289 -0.18772858
000080 dc bf a3 be ab c8 a4 3e b1 f7 41 3e cd 19 41 be
       -0.31982315 0.32184348 0.18942143 -0.18857498
000090 71 81 8c be 55 ea 67 be 30 83 80 3e 74 f9 5e 3e
       -0.27442506 -0.22647984 0.25100088 0.21774846
0000a0 75 16 41 be 35 6f ab be dc 0f 40 bd ee 47 01 3e
       -0.18856223 -0.33483282 -0.046890125 0.12625095
0000b0 5e 21 c4 3e 53 16 c3 3c e8 a9 cd 3e 20 b3 9a 3d
       0.38306707 0.023814356 0.4016869 0.07553697
0000c0 33 ca db bd 5a ba 18 bd bb 87 78 3e 93 90 27 bd
       -0.10731926 -0.037287094 0.24270527 -0.04090936
0000d0 39 d1 41 be 5e e8 8a bd 08 d5 33 bd d2 4f 04 bd
       -0.18927468 -0.06782602 -0.043904334 -0.032302685
0000e0 cf 71 ac 3d fd a7 77 3e 01 28 87 3e 8e f1 e2 bc
       0.08420145 0.24185176 0.26397708 -0.027703073
0000f0 6c 2d d3 3a ab 7e 7b be ba 74 4c be e9 76 75 3e
       0.0016111559 -0.24560039 -0.19966403 0.23971142
000100 ab fb f5 bc df 23 c3 3d 31 17 f5 bd 16 38 4c 3e
       -0.030027231 0.09528326 -0.11967314 0.1994327
000110 4d f7 22 3e 4a 15 a0 3e 33 2a c9 3d 2a 74 82 bd
       0.1591465 0.31266242 0.09822502 -0.06369813
000120 0b b5 16 3e c9 fb 0a 3d 0f ec 3b 3d 86 8c ce bd
       0.147175 0.033931527 0.04587942 -0.100853965
000130 d9 e6 e0 bd ae 6a 5b 3e 29 71 c6 3c e3 6e fe bd
       -0.10981531 0.21427414 0.02422388 -0.12423494
000140 f4 0b 5d 3e 75 c1 fb bd d0 4f 7f 3e 9a 99 dc bb
       0.21586591 -0.122927584 0.2493279 -0.006732178
000150 a7 fe 84 be f9 5a 90 3e 41 ea eb bd f0 f3 67 3d
       -0.25975534 0.28194407 -0.1151929 0.05662912
000160 cf 9f 8c bc 12 30 2b 3d 39 ea b6 3d d7 7c 03 bd
       -0.017166046 0.04179389 0.08931393 -0.03210148
000170 54 bf e9 bd 8c 16 12 3e 90 09 ed 3c 46 73 2f be
       -0.11413446 0.14266413 0.028935224 -0.17133817
000180 db 1d 12 be c7 98 9e bc 83 9f 44 bd 4b 4e c4 bd
       -0.14269201 -0.01935996 -0.048003685 -0.09585246
000190 3c 1e ab 3c fe 70 93 bb c0 06 56 3d 52 bc 96 3d
       0.02088844 -0.0044995537 0.05225253 0.07360138
0001a0 5a 6c 1e bd b1 7b 56 3c d9 75 3d bd 3e 2b a8 bd
       -0.03867755 0.013091014 -0.046254966 -0.08211373
0001b0 95 dc 01 3d 17 0e 84 3d 63 0a 0e 3e 7d 4f 76 bb
       0.031704504 0.06448 0.1387115 -0.0037584
0001c0 17 ed a6 bc ed 57 c2 3d 98 12 d9 3d 58 9e 6a 3e
       -0.020376725 0.09489427 0.105992496 0.22911966
0001d0 16 3a 92 be 94 80 e0 3d b5 d8 d8 bc 49 73 85 3d
       -0.2855994 0.10962024 -0.026470521 0.065161295
0001e0 b1 da 1a be f5 0b 15 3e 0c 2c bc 3e 7d c2 1e be
       -0.15122487 0.14555342 0.36752355 -0.15503879
0001f0 5e c8 4b be 4e 31 0f be 89 c2 80 bd 6d ab 70 bd
       -0.19900653 -0.13983652 -0.06287105 -0.058757234
000200 18 59 6f 3e 11 01 eb 3c e1 09 a2 3d 64 14 9b 3c
       0.2337383 0.028687032 0.079120405 0.018930621
000210 21 3b ae 3d 5d dc c0 bd 23 ac c2 bb 17 72 11 be
       0.08507372 -0.09417031 -0.0059409305 -0.14203678
000220 51 3b 76 3e c6 ef 25 bb 19 92 77 3c 60 de b3 3c
       0.24046065 -0.0025319918 0.015110516 0.021956623
000230 c0 d8 56 be f9 48 60 3d 08 71 bf 3d b9 d4 95 bc
       -0.20981121 0.054757092 0.09347731 -0.01828991
000240 38 d9 0f bd 3b ff 89 bb 9e 52 49 3e 5c 42 a3 bd
       -0.035119265 -0.004211334 0.19660422 -0.079716414
000250 6c 53 ec 3d c2 bf 49 3d 6d d0 41 3d f3 78 c7 3d
       0.11539349 0.04925514 0.04731791 0.09739866
000260 0a 83 50 bc e3 03 23 bc 1c 50 2b 3d d7 e6 4d 3d
       -0.012726555 -0.009949657 0.041824445 0.050268974
000270 9d 7a a2 bb 9f 8c 9f 3c d4 b8 8e 3c 17 15 22 3d
       -0.0049584643 0.019476233 0.017422117 0.039570894
000280 be b9 5f be e7 52 b4 3d 11 9b 80 be 3a 28 34 3e
       -0.21848199 0.08804875 -0.25118306 0.1759347
000290 20 ea 3c be 00 b8 10 3e da 3e 84 bd a8 dc 05 be
       -0.18448687 0.1413269 -0.064573005 -0.13072455
0002a0 16 ec 8b be af f4 7a 3a 03 41 5e 3e 25 10 00 bd
       -0.27328557 0.0009573204 0.21704488 -0.031265397
0002b0 61 a5 17 be 91 46 8e bd 42 a3 3d 3c ca 62 00 3e
       -0.14809181 -0.06947053 0.011574568 0.12537685
0002c0 f8 4f 52 bc f8 e6 72 3c 7a 82 32 be b0 3d 82 3d
       -0.012836449 0.014825575 -0.17432585 0.06359422
0002d0 8f 50 45 bd 44 85 c7 bd 5b b3 f3 bd c0 e2 df 3c
       -0.04817253 -0.09742215 -0.11899444 0.027329803
0002e0 cd d2 5e 3e 82 ac 1f be d7 0c 52 3e 05 35 85 3c
       0.21760102 -0.1559315 0.2051271 0.016260633
0002f0 08 25 6b bd c0 c8 59 bd 36 0a 46 3e 34 ae 7d bd
       -0.057408363 -0.053169966 0.19339833 -0.06193371
000300 d7 1f bf bd 36 38 0a be 84 7d 6d 3e fe 0b b6 3b
       -0.09332245 -0.13498005 0.23192412 0.005555629
000310 e9 2d bc 3d 61 aa 4f 3e b8 a0 5f be ea 82 4e be
       0.09188444 0.20279838 -0.21838653 -0.20167127
000320 96 b4 0a 3e 1c 5e 4f 3e 79 f1 7f 3e 8f dd 20 3e
       0.1354545 0.20250744 0.24994458 0.15709518
000330 98 c0 18 be a1 64 2e bc 6e 16 89 3e bf 1d bd bc
       -0.14917219 -0.010644109 0.26774925 -0.023085473
000340 25 87 87 be f4 94 2c be 0f 60 5b be 61 f4 05 be
       -0.26470295 -0.16853696 -0.21423362 -0.13081504
000350 1a 2d 38 be d4 61 05 bd 2f 51 54 3d b0 7e 11 be
       -0.17985955 -0.032564 0.051835235 -0.14208484
000360 14 14 23 bd f2 d2 8c 3c 96 13 76 3e bd a7 0b 3d
       -0.03981407 0.01719043 0.24030909 0.034095515
000370 6c 46 8f 3e 93 d6 5b be 62 4c a6 bd 0e 54 fa 3d
       0.27983415 -0.21468572 -0.081200376 0.122230634
000380 9d 24 22 3e fa 06 0f 3e 51 b3 5e 3c d0 b8 06 be
       0.1583428 0.13967505 0.013592557 -0.13156438
000390 62 05 8e 3d 8c 3d 25 be 4f f1 84 3e b8 67 95 3e
       0.069346204 -0.1613676 0.25965354 0.29180694
0003a0 17 67 03 be 84 29 22 be b9 28 0e be c9 cd f5 bc
       -0.12832294 -0.1583615 -0.13882722 -0.030005353
0003b0 ba 6a af 3d 64 ee 46 bc c1 ff 57 3d 19 e5 0e bd
       0.08565278 -0.012141798 0.05273414 -0.034886453
0003c0 d8 d7 6b bd 79 40 66 bd a8 b6 78 3e 04 5f 84 be
       -0.05757889 -0.05621383 0.24288428 -0.2585374
0003d0 2e 4c 8d bd ff 56 0a 3d 31 ae 91 bd 91 19 cf bd
       -0.06899296 0.033774372 -0.071133025 -0.10112298
0003e0 d6 d2 45 3e 3d a8 20 3e 93 be 29 3e e1 19 a3 bd
       0.19318709 0.15689178 0.16576605 -0.079639204
0003f0 9c d7 ce 3d fc c4 18 be 24 31 6e be 7c 32 41 3c
       0.10099718 -0.14918894 -0.23260933 0.011791822

sequential/dense_1/MatMul f4 [64, 64]
000000 c0 5f cc 3d 96 c3 a3 3e 57 76 5b 3e 74 24 80 3e
       0.099792 0.31985158 0.21431862 0.25027812
000010 ca e3 09 bd 0f c7 32 3e c5 1d 0e 3e 0e d0 34 3e
       -0.033664502 0.17458747 0.13878544 0.17657492
000020 d2 9b 3f be 89 d5 c9 bd 63 85 37 bd 49 38 5c 3e
       -0.18711784 -0.09855182 -0.044804942 0.21505846
000030 e4 07 8e be ed 0d 12 bc 98 e5 20 be a2 d2 51 be
       -0.27740395 -0.008914453 -0.15712583 -0.20490506
000040 d5 0e 4d be 4d 3f 08 be e2 5f 57 3e a5 90 8d 3e
       -0.20025189 -0.13305397 0.2103267 0.27649418
000050 da 79 07 be c4 6c 8d 3e fe 9c e4 3c 87 b3 45 be
       -0.13230076 0.27622044 0.027906891 -0.19306765
000060 48 19 83 3e 9c 7a 38 3d 14 81 9c bd b9 98 f6 3c
       0.25605226 0.045038804 -0.07641807 0.03010212
000070 48 0a 8b be 8f 59 79 3e cc 86 b4 bd 7d cd ad 3e
       -0.2715628 0.2435057 -0.08814773 0.33945838
000080 e4 7c 11 ba cb f8 59 3e f8 0a 0d be 3d c2 b0 3e
       -0.0005549921 0.21286313 -0.13773715 0.34523192
000090 e7 46 5c be a5 52 1e be 92 36 86 3e e5 d3 8c be
       -0.21511422 -0.15461214 0.2621351 -0.27505413
0000a0 05 56 4c bb 61 d2 4d 3e dd d8 3b 3e fe 89 3c 3e
       -0.0031179201 0.20099784 0.18344446 0.18412015
0000b0 97 40 29 3e fa ff 1b be df a9 79 3d 72 b4 55 be
       0.16528545 -0.15234366 0.060953017 -0.20869616
0000c0 c1 16 db 3c bd 89 76 3e 04 84 38 3d f3 6a 87 3d
       0.026744248 0.2407598 0.045047775 0.06612196
0000d0 99 db b5 3e d9 09 91 be 82 c0 fa 3d 03 ac 94 be
       0.35519102 -0.28327826 0.12243749 -0.29037485
0000e0 09 fb 65 3e 61 08 11 be fe a5 55 3e 81 ec 25 be
       0.22459044 -0.14163353 0.20864102 -0.162035
0000f0 90 6c 98 3e b4 2b cd 3c 6b e2 17 3e 4b 2d 42 3e
       0.29770327 0.025045253 0.14832465 0.1896259
000100 08 0e b7 3e 96 9b 9e 3d 1e 56 1a be d0 39 82 3e
       0.35752892 0.077445194 -0.15071914 0.25434732
000110 02 bb 9e 3e f9 cf 50 bd 34 00 1b bd 33 c6 f6 bd
       0.3100205 -0.05097959 -0.03784199 -0.12049522
000120 21 54 8d bc 14 b4 68 3e 37 be ab 3b 56 ef 8e bc
       -0.01725203 0.22724944 0.0052411812 -0.017448109
000130 b5 2c 10 3c 8c aa 66 bd 32 0a 49 be 62 a9 93 bd
       0.0087997215 -0.05631499 -0.19632795 -0.072100416
000140 f0 83 0a 3e 7c e6 91 bd 07 9e a6 bd 12 06 9b 3e
       0.13526893 -0.071240395 -0.0813561 0.3027807
000150 1f 56 94 3d 2d 5a 93 3d 29 ca dd 3d 2e b0 46 be
       0.07242989 0.07194934 0.108295746 -0.19403145
000160 83 dc 77 3d b9 80 7f 3c df 64 03 3e f1 9f b0 bd
       0.06051303 0.015594655 0.12831448 -0.086242564
000170 68 e2 54 3c 3b 52 6c 3e 74 d6 7f 3e ef 8c 37 3d
       0.012993433 0.23078243 0.24984151 0.04481214
000180 d7 72 18 3e f4 a5 16 3d 0c df 7a be a8 5b 80 3e
       0.14887558 0.03677936 -0.24499148 0.25069928
000190 33 2e 86 be e6 34 7c be ba 77 0e 3e a9 30 e6 bd
       -0.26207122 -0.24629554 0.1391286 -0.1123975
0001a0 d7 e5 f1 3d c5 67 88 3e 00 c7 59 be d2 0f 08 be
       0.118114166 0.2664167 -0.21267319 -0.13287285
0001b0 5d bc 2d 3d 90 28 1e be fe 4b 23 be 72 f3 a0 bc
       0.042415965 -0.15445161 -0.15946957 -0.019647334
0001c0 11 76 c7 3d db 98 d3 3e ee ff ac 3e d9 d4 80 3e
       0.09739316 0.41327557 0.3378901 0.2516239
0001d0 8d db 37 3e 62 f8 85 3d 55 67 4d 3e e2 8e a4 be
       0.17954846 0.06541516 0.2005895 -0.3214026
0001e0 41 25 52 be 2a 50 d1 bd 7e be 0b 3e 7c de 22 bd
       -0.20522024 -0.10220368 0.13646886 -0.03976296
0001f0 0e 40 4b 3e af 3f 59 be e8 18 8c 3d 84 e8 00 3e
       0.19848654 -0.212157 0.06840688 0.12588698
000200 ed 35 5a be b4 a2 27 3e 37 99 b8 3e 94 19 04 be
       -0.21309634 0.1637066 0.36054394 -0.12900382
000210 4d 10 3d 3d bf 45 c1 3e da ec d4 3c 1e 4d 65 be
       0.046158124 0.37748525 0.025991846 -0.22392699
000220 8e 22 d4 3c 1f 66 c5 bc 14 f2 3e 3e f5 46 0a bd
       0.025895383 -0.024096547 0.18647033 -0.033759076
000230 21 c8 5e be 8f cc 7c be 59 a2 e6 3c 40 57 eb 3d
       -0.2175603 -0.24687408 0.028153585 0.11491251
000240 ef a5 5f be 64 e1 76 be 09 11 23 3e 95 40 14 3e
       -0.21840642 -0.24109417 0.15924467 0.14477761
000250 b2 4e a2 be dd f9 8c be 24 e8 22 3d 24 c9 b8 bc
       -0.31700665 -0.2753438 0.039772168 -0.022556849
000260 59 2d 1a be b1 f6 62 bd 86 d6 a0 3e b7 6f 9a 3e
       -0.15056361 -0.055411045 0.31413668 0.30163357
000270 6b 2d 49 3e 4c 47 95 3e a3 38 c7 3d b9 73 de 3e
       0.19646232 0.29155958 0.097275995 0.43447664
000280 44 ae 00 3e 19 8e 21 bd f0 92 3c bd 26 08 3a 3e
       0.12566477 -0.039442156 -0.046038568 0.18167171
000290 52 21 8b be f3 30 bf bd ea 12 81 3d 61 e8 81 be
       -0.2717386 -0.09335508 0.06302436 -0.25372604
0002a0 10 89 4c bd 11 77 47 be 8a f1 8c 3e fb b8 91 3e
       -0.0499354 -0.19479014 0.2752803 0.2846144
0002b0 e2 87 52 3d 15 a8 ff bd 61 77 fb 3b 2c 2d a2 be
       0.05139912 -0.12483231 0.007674143 -0.31675088
0002c0 a7 2d 9e 3d 2d ed 17 3c 57 ba 07 be 88 21 fc 3d
       0.07723551 0.009272856 -0.13254677 0.12311083
0002d0 59 de e8 3d a8 ba 7b 3d d3 c1 26 bd a8 00 da bd
       0.113705344 0.061457306 -0.04071219 -0.106446564
0002e0 8b 25 3b 3e af 73 a6 bb 8a e3 8b 3e d9 86 51 be
       0.1827604 -0.0050797085 0.27322036 -0.20461597
0002f0 b1 13 58 3e 03 24 98 be 79 5d 92 3c ef 0b dc ba
       0.21101262 -0.29714975 0.017866837 -0.0016788224
000300 ce 53 76 3d 85 95 53 be 9c fb 69 bd f2 b4 00 be
       0.060138516 -0.20662506 -0.05712472 -0.12569025
000310 cf e6 7f 3e 1f 5c b7 3e a7 e2 2b 3e df dc ca bd
       0.2499039 0.3581247 0.1678568 -0.09905409
000320 ef 49 a8 be d6 70 b4 3e 1b 08 9b bd f4 9c 99 bd
       -0.32868907 0.35242337 -0.07569905 -0.075006396
000330 de 2d 7e be 14 60 82 bc f0 8a 8c bd 1b 66 7b be
       -0.24822184 -0.015914954 -0.06862438 -0.24550669
000340 ba 61 be bd 66 55 cf 3d 0a 45 9c 3e 45 34 4a 3e
       -0.092959836 0.1012371 0.30521423 0.19746502
000350 d1 90 13 be a3 0b 58 be 4d a9 cd 3e d2 37 77 be
       -0.14410712 -0.21098189 0.4016823 -0.24142388
000360 39 f5 81 be 97 6f 2f be 87 ac e5 bc 8b fc 97 3e
       -0.25382403 -0.17132412 -0.028036369 0.29684862
000370 66 3e 12 3e 01 70 5e 3e e1 84 91 3d d1 b5 3e be
       0.14281616 0.21722414 0.07105423 -0.18624045
000380 cb bc a7 3d 00 b9 54 3e f7 0e f7 bd 38 81 3e 3c
       0.08190306 0.20773697 -0.12063401 0.011627488
000390 c5 4d 0a be e8 cf 1d bd 8b 19 b9 bd 43 7f 41 3e
       -0.13506229 -0.038528353 -0.09038075 0.18896203
0003a0 4f bc 55 be d5 e5 72 3e f8 b2 e1 bb de 25 13 bd
       -0.20872615 0.23720486 -0.00688779 -0.035924785
0003b0 89 ae 27 3e 97 08 df 3d ec 18 81 be 6d 13 95 bd
       0.16375174 0.1089031 -0.25214326 -0.07279096
0003c0 a4 6b a6 3e 7a 45 8c 3d a3 0c 92 be 44 d3 09 3e
       0.32503998 0.06849189 -0.28525266 0.13459498
0003d0 1b 0d 43 bd 95 53 b1 bd ac eb 32 3c 3c ac 95 3e
       -0.04761992 -0.0865852 0.010920446 0.29232967
0003e0 e9 ab a6 3d bb d1 8d be 22 65 3a 3e 64 6b 97 3e
       0.08138258 -0.27699074 0.18202642 0.2957412
0003f0 26 df 1c 3e 22 47 d3 bd 45 a4 8e bd 54 2d 21 bd
       0.153195 -0.10316302 -0.06964926 -0.03934987

sequential/dense_2/MatMul f4 [5, 64]
000000 01 c2 df be f4 81 e8 be 1c 09 2f be 4b f4 d1 be
       -0.437027 -0.45411646 -0.17093319 -0.41006693
000010 00 6f f4 be e9 7e 92 3e 4d 80 62 3c 88 67 c1 be
       -0.47740936 0.2861245 0.013824535 -0.377743
000020 5a f1 05 3e d4 00 84 bd 21 62 c4 bd d6 49 bd 3e
       0.1308035 -0.064454705 -0.09589029 0.36970395
000030 ac fa 97 be c3 0a 7b 3e 77 e2 0a 3e 92 80 a2 3e
       -0.29683435 0.24515824 0.13562952 0.31738716
000040 cb f6 86 be 49 af d6 bd 2f 19 04 bf d7 1e 5c 3e
       -0.26360163 -0.10482652 -0.5160093 0.2149614
000050 33 a1 c6 3e cf 9c cd 3e 85 b7 9d 3e fd 5d 5d 3e
       0.3879486 0.40158698 0.30804077 0.21617885
000060 a5 b0 e5 be 37 26 8c be ec 95 2e be 54 6c d1 be
       -0.44861332 -0.27372906 -0.17049378 -0.4090296
000070 c4 82 98 3e be 96 8a 3e b1 3b a7 3e 38 fd ee be
       0.29787266 0.27068132 0.32662728 -0.46677566
000080 6a 2f 91 3e 79 c7 ae be 23 bd 8d 3e 02 05 a5 3e
       0.28356487 -0.3413656 0.27683362 0.32230383
000090 9a 63 09 3d c8 62 aa be e0 e3 07 bf f3 90 dc 3d
       0.033542253 -0.3327849 -0.53082085 0.10769834
0000a0 fc 28 27 be 64 d1 b3 3e a3 51 17 be e9 40 6c 3e
       -0.16324228 0.3512069 -0.14777236 0.23071636
0000b0 55 fd 28 be 71 12 cb be 31 1a 3a be 77 b5 c1 3e
       -0.16502889 -0.39662507 -0.18174054 0.3783376
0000c0 7b 1e e4 bd e7 3d 4b be c7 6a 94 3e d4 19 d9 be
       -0.11138626 -0.19847833 0.28987715 -0.42402518
0000d0 de 5f ec be 03 b1 b5 be 59 ff b1 3e 21 f5 67 3e
       -0.4616689 -0.35486612 0.34765127 0.22652103
0000e0 68 5d 57 3e 8d 50 cf be de a3 87 3e ee 05 c1 3c
       0.21031725 -0.40491143 0.26492208 0.023562398
0000f0 9a 93 f4 3d c8 6d b1 3e 3d 85 9b 3d 9f 4b 59 3e
       0.11942215 0.3465407 0.075937726 0.21220253
000100 d9 48 3d 3e ff 5c 36 3e 87 09 95 be c3 b1 0b bf
       0.1848482 0.17808913 -0.2910883 -0.5456812
000110 f2 a6 fe 3c f4 9f e3 bc d4 ef 9c bd 94 37 32 3e
       0.031085465 -0.027786233 -0.07662931 0.17404014
000120 d7 58 b9 3e 83 b0 54 be 81 f7 a7 3e d1 ba d2 be
       0.36200592 -0.20770459 0.32806018 -0.41158155
000130 49 1c ea 3d f3 a2 39 be 42 1f 8e 3e c5 93 98 3e
       0.11431176 -0.18128566 0.27758223 0.2980024
000140 50 4f 92 be ad 2b d2 3e 49 3e 5b 3d cd 35 c8 be
       -0.28576136 0.41048947 0.053526197 -0.39103547
000150 86 05 50 be 0a 16 c1 be 2f 44 b1 bd c2 91 10 3e
       -0.20314607 -0.37712127 -0.08655583 0.14118102
000160 fa 47 f1 be 28 eb d5 3e e8 b2 93 be 9c 13 23 3e
       -0.47125226 0.41780972 -0.28847432 0.15925449
000170 28 30 85 3e 99 77 d4 be aa bf cd 3d 8f d3 c6 be
       0.26013303 -0.41497496 0.10046323 -0.3883328
000180 d7 86 d3 be 98 63 88 be a0 6b b0 be 65 e0 0e be
       -0.41313812 -0.26638484 -0.3445711 -0.13952787
000190 ee c9 c5 3b dc 30 82 be 88 20 49 3e fc 52 ef be
       0.006036035 -0.25427902 0.19641316 -0.46743
0001a0 4f f1 b1 be cf 7e 6b 3d 63 64 70 be cc c6 33 be
       -0.34754416 0.05749398 -0.23475794 -0.17556304
0001b0 0c d0 ae bb 77 78 5d 3e 80 91 d5 be 18 f1 51 be
       -0.0053348597 0.21627985 -0.4171257 -0.20502126
0001c0 d4 33 c1 3e ca dc 3b be f5 32 64 be 25 79 ee bd
       0.37734854 -0.18345943 -0.22285064 -0.116442
0001d0 59 7d 41 3e c6 27 88 3e 7b e5 23 3d 33 bf 5b 3e
       0.18895473 0.26592845 0.04001377 0.21459655
0001e0 5d 4c 70 3d a3 25 a3 be 81 97 96 3e c8 9f c2 3e
       0.058666576 -0.31864652 0.29412463 0.38012528
0001f0 82 ea 87 bd 70 05 80 3e 72 8c 7e 3e 21 9c 55 3e
       -0.06636526 0.25004148 0.24858263 0.2086034
000200 ba 08 3b 3e 24 1f e0 3d 34 68 81 3e 2a 58 87 3e
       0.18265048 0.109434396 0.25274813 0.2643445
000210 97 d7 c1 3c 71 ce b4 3e 30 ee a9 be 9d 86 0e 3e
       0.023662372 0.35313752 -0.33189535 0.13918538
000220 13 46 8d 3e 6c a1 b3 be e7 99 81 be e6 ae 83 be
       0.27592525 -0.35084093 -0.2531273 -0.25719374
000230 45 e6 ff be 58 ae be be 37 e8 ab be c9 d1 a9 be
       -0.4998037 -0.3724239 -0.33575603 -0.33167866
000240 58 f0 8e 3e af 69 d0 bd 6f 19 99 3c eb b0 d2 3d
       0.27917743 -0.101764075 0.018688885 0.10287651
000250 1b 11 23 3e 71 ad 2f 3d 3d a1 91 3e c3 9c 8c be
       0.15924494 0.042890016 0.28443328 -0.2746335
000260 6a d1 91 3e e6 e8 92 be f2 a5 c8 3e 3d e3 7e 3d
       0.28480083 -0.28693312 0.39189106 0.06222843
000270 63 fa 5f be cd 1e fb 3d 3d 0f a0 be f6 ee d1 be
       -0.21872859 0.12261734 -0.31261626 -0.41002625
000280 12 c0 d0 3c a5 7c b1 be 1c a5 a2 3e 66 98 8d 3e
       0.025482211 -0.3466541 0.31766593 0.27655333
000290 21 58 93 3d bb 71 50 3e 67 9d ac be e0 10 ba 3d
       0.07194544 0.20355885 -0.33713838 0.0908525
0002a0 4e 41 27 be 90 1a 4b 3e fd 23 a2 3d d6 0d a3 bc
       -0.16333506 0.19834352 0.079170205 -0.019904058
0002b0 1f f0 d2 be 32 99 a2 be 57 29 be 3e 1d 04 b9 3e
       -0.41198823 -0.31757504 0.37140915 0.3613595
0002c0 d0 a3 34 be cc 88 ab 3e f1 e0 6b be 9c a9 b5 3e
       -0.17640615 0.33502805 -0.23035027 0.35480964
0002d0 d1 ea 20 3e 1d 11 15 be 01 5a 8c be 2e 88 6e 3e
       0.15714575 -0.1455731 -0.27412418 0.23294136
0002e0 10 4c e0 3d 43 f7 e3 3c 4b 4c da be 0c 1c 2b 3e
       0.10952008 0.027827865 -0.42636332 0.16709918
0002f0 b6 6e 14 bf a7 16 a6 be 8f 4a 11 3e 97 ba 5f 3e
       -0.5798143 -0.32439157 0.14188598 0.21848522
000300 89 4d 60 3e b7 4d 56 be e4 b7 b3 3e 52 49 e1 be
       0.21904577 -0.20928083 0.35101235 -0.4400125
000310 fd 3a b3 3c 7d 64 f9 be b8 7a 01 3d 13 0e 8a 3e
       0.021878714 -0.4870948 0.031611174 0.26963863
000320 9b 15 df be 57 37 a4 3e 3f 0a 8b 3e f0 89 ce be
       -0.4357117 0.3207347 0.27156255 -0.40339613
000330 d0 9c b2 3e 7f 8e b0 3c 35 ef d1 be 9b 4f 4e be
       0.34885263 0.021552322 -0.41002813 -0.20147555
000340 56 8f 5a 3e cf 4b 25 be 88 ed b5 3d 9e fd ac be
       0.21343741 -0.161422 0.08883196 -0.33787245
000350 8e da b5 3e 7a 88 0d be 82 b4 ae be 75 66 a2 be
       0.35518306 -0.13821593 -0.34122092 -0.31718794
000360 66 39 a7 3e e8 1d 33 3e 03 97 fa bd 23 2e 36 3e
       0.3266098 0.17491877 -0.122358344 0.17791037
000370 8b ab 8b be ed 2e 98 3e 04 27 ee be 7c 67 19 3e
       -0.27279314 0.29723302 -0.46514142 0.14980882
000380 e2 57 60 be 10 20 65 3e cb d2 67 be 93 1b 8d be
       -0.21908525 0.22375512 -0.22639005 -0.275601
000390 2e 64 93 be 34 ef c9 be 21 88 e5 3d 30 f5 bb be
       -0.2878737 -0.3944031 0.11207605 -0.367105
0003a0 bf 1b bc 3e 95 eb 94 be f5 0f 60 3e be 1e cd 3e
       0.3673992 -0.29085985 0.21881087 0.40062517
0003b0 aa 4f fb be 23 02 cf be 7e 0f cd 3e 7e 89 39 bd
       -0.49084216 -0.40431318 0.40050882 -0.04529714
0003c0 53 1f 66 be 5f b6 85 3e 6c 4d cc bd 37 1b d4 be
       -0.22472887 0.261157 -0.099757046 -0.41427013
0003d0 b3 1d 81 3e bb 2f b8 3e ba cf d5 be 68 b1 18 be
       0.2521797 0.35973915 -0.41760045 -0.14911425
0003e0 f5 e9 58 be 2a d6 e9 3d 57 78 9c 3d f1 21 89 be
       -0.21182998 0.11417802 0.076401405 -0.26783708
0003f0 a6 9f 39 be 2c b1 b1 be 61 a3 93 be d6 8e 1a be
       -0.18127307 -0.34705484 -0.28835586 -0.1509355
