assets/modelo_intents.tflite (tflite, 758096 bytes, 7 tensors)

sequential/embedding/embedding_lookup f4 [500, 64]
0	0x3cd0dfa8	0.025497273
1	0x3c5b513c	0.013386067
2	0xba749abe	-0.000933092
3	0x3d5e01d7	0.054200973
4	0xbd86f40d	-0.06589518
5	0xbbfbdac8	-0.007685993
6	0xbd0aef03	-0.033919346
7	0x3d336326	0.043795727
8	0xbc2fad08	-0.010722406
9	0xbd20e8db	-0.03928457
10	0x3d1f05f8	0.03882405
11	0x3d848f1f	0.06472611
12	0xbca00e01	-0.019537928
13	0x3d54d413	0.051960062
14	0xbce059e2	-0.02738661
15	0x3d99695e	0.074908
16	0x3c199c08	0.00937558
17	0x3b1bd282	0.0023776595
18	0xbbc736cc	-0.0060795303
19	0x3cbefcc5	0.02331389
20	0x3c796fbf	0.015224396
21	0x3b1630ce	0.0022917273
22	0x3d831deb	0.06402191
23	0x3c40ecb1	0.011775182
24	0x3d1d22aa	0.038363136
25	0x3cbe04be	0.02319562
26	0xbce7a3f4	-0.028276421
27	0xbb073406	-0.0020630374
28	0xbd0af4c7	-0.033924844
29	0x3c56e420	0.013115913
30	0xbd25ecf4	-0.04050918
31	0x3cbe75a5	0.023249457
32	0x3c37e6a8	0.011224426
33	0xbd469ae5	-0.048487563
34	0xbd2ea73c	-0.042639956
35	0xbcfc1d45	-0.030775676
36	0x3d9a95bb	0.0754809
37	0x3d05a2f7	0.03262612
38	0xbd0cc1f5	-0.03436466
39	0x3cae30dc	0.021263532
40	0x3c7b6d80	0.015345931
41	0xbd06ce23	-0.03291143
42	0x3cc0cdde	0.023535665
43	0x3c9fbe94	0.019500054
44	0xbc804ac1	-0.015660645
45	0x3c56b930	0.013105676
46	0x3d2f944f	0.042866047
47	0x3ccedfc1	0.025253179
48	0xbd114d91	-0.035474364
49	0x3d545a0c	0.051843688
50	0xbd44ba08	-0.048028976
51	0xbd0ca5d7	-0.034337845
52	0xbc11b78a	-0.008893857
53	0xbd62d2b0	-0.05537671
54	0xbd3f58bb	-0.04671548
55	0x3bd14d87	0.006387416
56	0xbcd7fd17	-0.0263658
57	0xbd1ec93d	-0.038766135
58	0x3d0cb7fc	0.03435515
59	0x3ce32ce8	0.027731374
60	0xbd2337ed	-0.039848257
61	0x3d866c65	0.06563643
62	0xbd2f569d	-0.04280721
63	0x3d1c9937	0.038232055
64	0xbc31bf58	-0.010848843
65	0xbd2d562d	-0.04231851
66	0xbcf345ad	-0.02969631
67	0xbbe24618	-0.0069053285
68	0x3d1c8523	0.038212907
69	0x3c4f36cc	0.012647342
70	0xbc37f7d8	-0.011228524
71	0x398cf500	0.0002688542
72	0x3d2b5967	0.041833308
73	0xbb4cd860	-0.00312569
74	0x3cdf0a2e	0.027226534
75	0xbd38eb83	-0.045146476
76	0x3d26a183	0.040681373
77	0xbc0c2b34	-0.008555222
78	0x3cdd8e1a	0.027045298
79	0x3ca923ee	0.020647015
80	0xbc374700	-0.011186361
81	0x3d02bbbd	0.031917322
82	0xbd01d62d	-0.031698395
83	0x3d3f12a7	0.046648648
84	0x3d382741	0.04495931
85	0x3ca464f2	0.020067666
86	0xbc80f346	-0.015741002
87	0xbd1cd9fd	-0.038293827
88	0xbb985380	-0.004648626
89	0xbc9f8520	-0.019472659
90	0x3ca3aa22	0.019978587
91	0xbce98a7a	-0.028508414
92	0xbcc3913a	-0.02387296
93	0x3d47ccc9	0.048779283
94	0xbc0bd3a8	-0.0085343495
95	0x3d1708f7	0.036873784
96	0xb9fb1b00	-0.00047894567
97	0x3b94c168	0.0045396574
98	0x3cd80912	0.026371513
99	0x3d4a8f4d	0.04945307
100	0xbc49fc00	-0.012328148
101	0xbd1ebce6	-0.038754366
102	0xbd0b684a	-0.034035005
103	0xbac9aac0	-0.001538597
104	0xbbca8ad0	-0.0061810985
105	0x3c6f37e4	0.014600728
106	0x3cb69c82	0.022291426
107	0xbd042f64	-0.032271758
108	0xba67b400	-0.0008838773
109	0x3d48c2a3	0.049013745
110	0x3c543ea4	0.012954388
111	0xbcd9f440	-0.026605725
112	0x3ce63cb2	0.028105114
113	0x3d2c9947	0.042138364
114	0x3cedd5f2	0.029032681
115	0x3c7ced24	0.015437398
116	0x3caeb806	0.021327984
117	0x39ae3d00	0.00033233315
118	0x3a0d7740	0.0005396493
119	0xbd0b084d	-0.033943463
120	0x3d43f65d	0.047842372
121	0x3d2acebd	0.041701067
122	0x3cfb4c4e	0.030676033
123	0x3c8fa202	0.017533306
124	0xbc280a4c	-0.010256361
125	0x3d3dddd3	0.046354126
126	0xbcead1da	-0.028664518
127	0xbd3b555a	-0.045735694
128	0x3e467fa9	0.19384636
129	0x3b9a5973	0.00471037
130	0xbdf89989	-0.121386595
131	0x3e069dbe	0.13146111
132	0xbe0c7bcc	-0.137191
133	0x3ce9654f	0.02849069
134	0xbe251a93	-0.16123419
135	0x3d40e8fa	0.047097184
136	0xbe31d21e	-0.1736531
137	0x3dc44a95	0.09584538
138	0x3cfdcba7	0.030980898
139	0xbe11fd26	-0.14256725
140	0xbcf33799	-0.029689597
141	0xbe142174	-0.14465886
142	0x3ce958e8	0.028484777
143	0xbc438cb0	-0.011935398
144	0xbe35c2bd	-0.17750068
145	0x3e802125	0.25025287
146	0xbe5e19c7	-0.21689521
147	0x3dd6ea04	0.10493854
148	0x3e1468fc	0.14493173
149	0x3e5c8594	0.21535331
150	0x3daed617	0.08536928
151	0xbe0f1e28	-0.13976347
152	0x3db36c31	0.0876087
153	0x3df38d40	0.11892176
154	0x3d741637	0.0595915
155	0x3d88fa33	0.06688347
156	0x3e09b7d4	0.13449031
157	0x3de8ecce	0.11373292
158	0x3dd8a006	0.10577397
159	0x3e102ac8	0.1407882
160	0xbd2e711d	-0.042588342
161	0xbcbfe6d3	-0.023425495
162	0x3d968494	0.07349506
163	0x3d0a2800	0.033729553
164	0x3e0cf8a6	0.13766727
165	0xbe2e2629	-0.17006744
166	0xbcdfe183	-0.027329212
167	0x3e2907e8	0.16506922
168	0x3e69758c	0.22798747
169	0x3e2975ed	0.16548891
170	0x3ccff4da	0.025385309
171	0xbbee9918	-0.007281434
172	0x3dd92c0b	0.10604104
173	0xbe32d47d	-0.1746387
174	0xbd8d1f14	-0.06890693
175	0x3c012c28	0.007884063
176	0x3d8b42eb	0.06799873
177	0x3d44a0eb	0.048005026
178	0x3e29afe6	0.16571006
179	0x3d65c317	0.056094255
180	0xbe8fbd82	-0.2807427
181	0xbc926dcf	-0.017874626
182	0xbda94993	-0.08265986
183	0xbcaa51dc	-0.020790987
184	0x3e4bb628	0.19893706
185	0xbddb4c0e	-0.10707866
186	0xbe4f7f06	-0.202633
187	0xbe055e44	-0.1302424
188	0xbdd6d3cf	-0.10489618
189	0xbc634f5d	-0.013873902
190	0xbdc7f55b	-0.09763595
191	0xbd563f7e	-0.052306645
192	0xbdf77668	-0.12083131
193	0xbca0b392	-0.019616876
194	0x3d79f055	0.061020214
195	0xbcbb4d80	-0.022864103
196	0x3d1e5945	0.038659353
197	0xbc97dc91	-0.018537791
198	0x3de4b8f0	0.111680865
199	0xbceaa371	-0.028642388
200	0xbd058c5e	-0.032604568
201	0x3cb299e8	0.021801904
202	0xbdd72b0b	-0.10506257
203	0xbc536d0a	-0.012904415
204	0x3d95cf73	0.073149584
205	0x3d273c2a	0.04082886
206	0x3d14070f	0.036139544
207	0xbde736a9	-0.112897225
208	0xbdc9f004	-0.098602325
209	0x3c3bbbf3	0.011458385
210	0x3d5ff5f9	0.054677937
211	0xbcf25f90	-0.029586583
212	0xbde6c039	-0.11267132
213	0x3b56399c	0.0032688146
214	0xbd8a70fd	-0.06759832
215	0x3db10aee	0.08644663
216	0xbc95fdba	-0.018309463
217	0xbb52d6bb	-0.0032171446
218	0x3d3bc2ca	0.045840062
219	0x3da6ffa5	0.08154229
220	0xbde979e8	-0.11400205
221	0xbda65c97	-0.08123129
222	0x3dc177e6	0.09446697
223	0x3d3a9a45	0.04555728
224	0xbdcc2c13	-0.09969344
225	0xbca1dc12	-0.019758258
226	0x3b9d0530	0.004791878
227	0x3d37bc13	0.044857096
228	0xbd52afe4	-0.051437274
229	0xbc9c14ef	-0.01905295
230	0x3e056bfe	0.13029477
231	0x3b89908b	0.004198139
232	0x3d8f4db7	0.06997245
233	0x3d2bd612	0.0419522
234	0xbb931555	-0.004488627
235	0x3d5be517	0.053685274
236	0x3bccfe21	0.0062558805
237	0x3df87e63	0.12133481
238	0xbdce2354	-0.10065332
239	0xbd3d3ba8	-0.04619947
240	0x3d5b4e9e	0.053541772
241	0xbc286381	-0.01027763
242	0xbd2a44a6	-0.041569375
243	0xbd68c45d	-0.05682789
244	0xbd92032a	-0.0712951
245	0xbd3d039d	-0.046146024
246	0x3d283d97	0.04107436
247	0xbd1291aa	-0.035783447
248	0x3d81df91	0.0634147
249	0x3cb1cc2b	0.0217038
250	0xbd6ef7d4	-0.058341816
251	0xbd5a4c81	-0.053295616
252	0xbccd3edf	-0.025054393
253	0xbd18e2fb	-0.03732584
254	0x3d4ba69c	0.049719438
255	0xbdf5da64	-0.12004545

sequential/dense/BiasAdd/ReadVariableOp f4 [128]
0	0x3c8fc7bb	0.017551294
1	0x3d251cec	0.040310785
2	0x3ce0b48b	0.02742984
3	0x3ccb907f	0.024849175
4	0x3cf9f81d	0.030513817
5	0x3cb5f8bb	0.02221333
6	0x3c467463	0.01211271
7	0xbc4da0fa	-0.012550587
8	0x3cb8c8cb	0.022556683
9	0x3c6aabd3	0.014323193
10	0x3cec63af	0.028856127
11	0x3c6e2ef7	0.0145375645
12	0x3c5212cb	0.012821863
13	0x3c234aa1	0.009966523
14	0x3cf0f45e	0.029413398
15	0x3ba3a5ce	0.0049941307
16	0x3cac1791	0.021007331
17	0x3c76066b	0.015016179
18	0x3ca9e084	0.02073694
19	0x3c20be26	0.00981096
20	0x3cacd0cf	0.021095661
21	0x3c8aa403	0.01692391
22	0x3d0dfee9	0.03466693
23	0x3cbe8591	0.023257049
24	0x3c3dc9b9	0.011583739
25	0x3cf51e4b	0.029921671
26	0x3ca34f51	0.019935282
27	0x3c932253	0.017960703
28	0x3cde28cd	0.027119065
29	0x3ccb341a	0.024805117
30	0x3c9fed9e	0.019522484
31	0x3cdb489d	0.026768023
32	0x3ced4b4f	0.028966574
33	0xbba78076	-0.0051117493
34	0x3c8a1678	0.016856417
35	0x3bed410e	0.007240421
36	0x3cf516d9	0.029918121
37	0x3cbebbec	0.023282968
38	0xbc3fe6d9	-0.011712753
39	0x3c243240	0.010021746
40	0x3cad10bf	0.02112615
41	0x3bf8d2fe	0.0075935116
42	0xbc291bb1	-0.010321544
43	0x3c429882	0.011877181
44	0x3c422351	0.01184924
45	0xbbb09ec9	-0.0053900224
46	0xbbe86052	-0.0070915604
47	0x3ce60bea	0.028081853
48	0x3cf80995	0.030278007
49	0x3c98ee7a	0.018668402
50	0x3ca07730	0.019588083
51	0x3c380708	0.011232145
52	0xbc2ab17a	-0.01041829
53	0x3c878efe	0.016547676
54	0x3c99155a	0.018686939
55	0x3ca15a8f	0.019696502
56	0x3d0c1f1e	0.034209363
57	0x3d0a98a5	0.03383698
58	0x3c54300b	0.012950907
59	0x3c8ba599	0.017046737
60	0x3ca7ebc2	0.02049816
61	0x3cb4085d	0.021976644
62	0x3ba889dd	0.0051433877
63	0x3c70baf7	0.014693013
64	0x3ca31b12	0.019910369
65	0x3c5cc486	0.013474589
66	0x3ce02fa1	0.027366461
67	0x3c5429c0	0.012949407
68	0x3cb440ce	0.022003558
69	0xbc45a409	-0.012063035
70	0xbc572679	-0.013131731
71	0x3cac5bb8	0.021039829
72	0x3c31f735	0.010862161
73	0xb8ded5ea	-0.000106256295
74	0xbc34aa2e	-0.011026902
75	0xbc18a51d	-0.00931671
76	0x3c246fec	0.01003645
77	0xbc3200fd	-0.010864493
78	0xbc3efc4f	-0.011656835
79	0x3cdca8ad	0.0269359
80	0x3caae871	0.02086279
81	0x3c01097e	0.007875798
82	0x3cc0b6d0	0.023524672
83	0x3d28a33e	0.041171305
84	0x3c4d9e8c	0.012550008
85	0x3c80a4ec	0.01570364
86	0x3cd47451	0.02593437
87	0xbbb02a9c	-0.005376173
88	0x3c4a286c	0.012338739
89	0x3c799b43	0.015234771
90	0x3cb32414	0.02186779
91	0x3cdd822d	0.027039612
92	0x3cc73235	0.024315933
93	0xbc37f865	-0.011228655
94	0x3c8fd9db	0.017559936
95	0x3cebe21f	0.028794346
96	0x3c94910e	0.018135574
97	0x3d0ccc68	0.034374624
98	0x3c040bad	0.008059424
99	0x3cc9a4e0	0.024614751
100	0x3ca3f1d1	0.020012768
101	0x3cbc30d3	0.0229725
102	0xbc460fd6	-0.0120887365
103	0x3c29d373	0.010365355
104	0xbc5a0e65	-0.013309096
105	0xb9aa0231	-0.0003242656
106	0x3c53c4cb	0.012925337
107	0x3b50e469	0.0031874424
108	0x3cb1dd1b	0.021711877
109	0x3cced38e	0.025247362
110	0x3c1885a2	0.009309204
111	0x3c6445a5	0.01393262
112	0xbc2317f4	-0.009954441
113	0x3c9ba9e0	0.019001901
114	0x3c9bfafa	0.019040573
115	0xbc06e314	-0.008232851
116	0x3c8e949a	0.017404843
117	0x3cc49079	0.023994671
118	0x3cb3f471	0.021967145
119	0x3cadc1db	0.021210602
120	0x3c9c33d2	0.019067679
121	0x3b76dc5e	0.003766797
122	0x3c7ae349	0.015312978
123	0x3c93384c	0.01797118
124	0x3cceccd9	0.025244163
125	0x3c718ddf	0.014743297
126	0xbb526e3e	-0.0032109166
127	0xbc3904d0	-0.011292651

sequential/dense_2/BiasAdd/ReadVariableOp f4 [7]
0	0xbc6ca824	-0.014444385
1	0xbcc04e3a	-0.023474801
2	0x3c6a849f	0.014313846
3	0xbb6a24da	-0.0035727532
4	0xbcd74634	-0.026278593
5	0x3c963f1e	0.018340643
6	0xbb53ce25	-0.0032318917

sequential/dense_1/BiasAdd/ReadVariableOp f4 [128]
0	0x3b8fd3d5	0.004389266
1	0xbbb7bee9	-0.005607475
2	0xbc2f330d	-0.010693324
3	0x3c2ec531	0.010667131
4	0x3cd64375	0.026155213
5	0x393f6b59	0.0001825517
6	0xbc179559	-0.009251916
7	0xbc8595c5	-0.016306767
8	0x3bde95ef	0.006792776
9	0x3ce42f20	0.027854502
10	0x3b6fcb0d	0.0036589534
11	0xbbf7c6b8	-0.007561531
12	0x3c6c31e7	0.0144161945
13	0x3d0bd860	0.0341419
14	0x3ca08be2	0.019597951
15	0x3aef9294	0.0018277937
16	0x3a55837a	0.0008144897
17	0x3c8dac4c	0.017294072
18	0x3ba12a9e	0.0049184104
19	0x3bddc6a9	0.006768067
20	0x3bcce4a5	0.0062528425
21	0xbc59e5b2	-0.013299393
22	0x3c09d5d0	0.008412793
23	0x3b736fc0	0.0037145466
24	0xbc32f242	-0.010922017
25	0xbb1c0bdd	-0.0023810782
26	0x3c8761d4	0.01652614
27	0x3a5a0e8c	0.00083182077
28	0x3b2f6983	0.002676577
29	0x3c4f7401	0.012661935
30	0x3c04948e	0.008092059
31	0x3addaa5a	0.0016911731
32	0xbc1e3595	-0.00965633
33	0x3c83376d	0.01601764
34	0xbb5054f7	-0.0031788924
35	0x3cbab460	0.022791088
36	0x3be8ab6a	0.0071005123
37	0xbc2b234a	-0.010445425
38	0xbc702244	-0.014656607
39	0x3b37d7d7	0.0028052235
40	0x3c764aeb	0.01503251
41	0x3c12e88f	0.008966579
42	0x3c866e4d	0.016410017
43	0x3cce1b64	0.025159545
44	0x3c95586b	0.018230638
45	0x3a4edf26	0.0007891528
46	0x3c9ae56f	0.01890823
47	0x3c65ab08	0.014017828
48	0xbc1ecaca	-0.009691903
49	0xbc4ed476	-0.012623897
50	0x3a63efef	0.00086951157
51	0xbbcc3510	-0.0062319115
52	0x3cdd19ed	0.026989901
53	0x3b447e4b	0.0029982503
54	0x3c484460	0.012223333
55	0x3ca444b1	0.020052286
56	0x3d4dce32	0.05024547
57	0x3b9a340d	0.004705912
58	0x3bf66139	0.007518914
59	0x3caddca8	0.021223381
60	0x3d03c26e	0.032167844
61	0x3c400a29	0.011721172
62	0xbc3344e7	-0.010941721
63	0x3c9cec27	0.019155575
64	0x3d006041	0.031341795
65	0x3d06d4bd	0.032917727
66	0x3d0899a9	0.033349667
67	0x3c0525bb	0.008126671
68	0x3c33beba	0.010970766
69	0xbb14d6dc	-0.0022711074
70	0x3c8a59a3	0.016888445
71	0x3c9107cd	0.017703915
72	0x3bf24d7b	0.0073944903
73	0xbbd3ac90	-0.00645978
74	0xbc353a13	-0.011061209
75	0x3bd3e84a	0.0064669
76	0x3c4911d1	0.012272314
77	0x3b103a50	0.0022007413
78	0x3c158d1a	0.0091278795
79	0x3c7ccd83	0.015429857
80	0x3b96ed1d	0.004605903
81	0x3ba8f3a0	0.0051559955
82	0xbc7e434d	-0.015518975
83	0x3c531036	0.012882283
84	0x3b5ccdf6	0.0033692098
85	0x3c3df0d0	0.011593059
86	0x3c586bf3	0.013209331
87	0x3ca18a09	0.01971914
88	0xbccbf46f	-0.024896828
89	0x3b53bffe	0.0032310481
90	0x3bd98fe2	0.0066394666
91	0xbc21ebdb	-0.0098828925
92	0x3c125cc4	0.00893325
93	0xbb1a4168	-0.002353752
94	0xbc1b3a89	-0.009474405
95	0x3c17721a	0.0092435125
96	0xbbe21693	-0.0068996637
97	0x3c181ea2	0.009284647
98	0x3cb0a2a3	0.021561926
99	0x3ca51c75	0.020155171
100	0x00000000	0.0
101	0xbbea87c5	-0.0071572983
102	0xbc4afa32	-0.012388753
103	0x3c490306	0.012268787
104	0xbc0e42b8	-0.008682899
105	0x3bd23d9e	0.0064160367
106	0x3c85674b	0.016284605
107	0x3bed688e	0.00724513
108	0xbb583919	-0.0032993017
109	0x3c0061db	0.007835831
110	0x3c3f6e4e	0.0116840135
111	0x3b901a4f	0.0043976675
112	0x3a33e995	0.00068631145
113	0xbc2387de	-0.009981124
114	0x3c6ae13a	0.014335925
115	0x3bd8da49	0.0066178185
116	0x3a944889	0.0011313121
117	0xbc2fb5f5	-0.010724534
118	0x3c9d9dc5	0.01924027
119	0x3c4107ce	0.011781646
120	0x3d27c02e	0.04095476
121	0x3cea4dd7	0.02860157
122	0x3be9a5d4	0.007130364
123	0x3d22ceb6	0.039747916
124	0x3c31a3ce	0.010842277
125	0x3b71dc9d	0.0036905177
126	0xbb1c953b	-0.002389266
127	0xbbcc9f33	-0.006244564

sequential/dense/MatMul f4 [128, 1088]
0	0xbdf5cb7e	-0.12001704
1	0x3c121133	0.008915233
2	0x3d34f7e4	0.04418172
3	0xbc9b9eeb	-0.018996676
4	0xbbc6a154	-0.0060617123
5	0xbe0d84ea	-0.13820234
6	0x3c635445	0.013875072
7	0x3c6a639a	0.014305973
8	0xbcb6e5f0	-0.02232644
9	0x3cafee83	0.021476036
10	0xbda39699	-0.079877086
11	0xbdd8f443	-0.10593464
12	0x3ce59ed3	0.028029835
13	0x3d8834ba	0.06650682
14	0xbd57e36e	-0.05270713
15	0x3e01524f	0.12629054
16	0x3db8f90c	0.09031877
17	0xbdb147aa	-0.08656247
18	0xbd58c1f0	-0.05291933
19	0xbd33faf6	-0.043940507
20	0xbb8b8ebf	-0.00425896
21	0xbdac2fea	-0.084075764
22	0x3b69a2d7	0.0035650039
23	0x3cd4b253	0.025963938
24	0x3d213d4d	0.0393651
25	0xbd97b237	-0.07407039
26	0xbd6cf9ba	-0.057855345
27	0x3dbc5a58	0.09196919
28	0xbcb00d10	-0.021490604
29	0x3ca756d3	0.020427143
30	0x3d185662	0.037191756
31	0xbd9fd219	-0.07803745
32	0x3d7cd4a3	0.061726224
33	0xbdaf1d43	-0.08550503
34	0xbd56b514	-0.052418783
35	0x3bc9bc15	0.0061564543
36	0xbdecbee3	-0.11559846
37	0xbd058c32	-0.032604404
38	0xbd377c60	-0.044796348
39	0xbe2159cc	-0.15756911
40	0xbd0b172b	-0.03395764
41	0xbd334734	-0.043769076
42	0x3d49b9a2	0.0492493
43	0xbcf9134e	-0.030404713
44	0xbd85774f	-0.06516897
45	0xbc15ed38	-0.009150796
46	0x3c91a139	0.017777072
47	0xbd1939d6	-0.037408672
48	0xbd618eca	-0.055067815
49	0xbc6df440	-0.014523566
50	0xbcee78dc	-0.029110365
51	0xbaffb7b9	-0.001950971
52	0x3c7b4908	0.015337236
53	0xbd8ad5fe	-0.06779097
54	0xbcf5dbec	-0.030012093
55	0x3d24711b	0.04014693
56	0xbcc0df02	-0.023543838
57	0x3d865df8	0.06560892
58	0x3e2bbe97	0.16771923
59	0xbdcf3a57	-0.10118549
60	0x3dcd50ac	0.100251526
61	0x3c581cd8	0.013190471
62	0xbc5b214b	-0.013374637
63	0x3d44210a	0.04788307
64	0xbe1be489	-0.15223898
65	0x3d4e7cd6	0.05041202
66	0x3d545d71	0.051846925
67	0xbd3af3a2	-0.045642503
68	0xbca1ef8e	-0.019767549
69	0xbddda3e4	-0.10822275
70	0x3d138bc5	0.036021966
71	0x3d8c6d54	0.0685679
72	0x3bab66c3	0.005230756
73	0xbd8832b2	-0.06650294
74	0x3c2415a1	0.010014922
75	0x3c74a941	0.014932931
76	0xbcf063df	-0.029344497
77	0x3d6095fc	0.054830536
78	0x3ccbf9b3	0.02489934
79	0x3da23961	0.079211004
80	0x3d065b66	0.032802008
81	0xbdf5f303	-0.120092414
82	0x3d4036f5	0.04692741
83	0xbd203098	-0.039108843
84	0xbca95296	-0.020669263
85	0x3ca317b6	0.019908767
86	0xbdb12ef9	-0.086515374
87	0x3e136d36	0.1439713
88	0xbd48f2eb	-0.04905979
89	0xbdc1b1f4	-0.0945777
90	0xbba2f195	-0.0049726465
91	0xbd2bbcac	-0.04192798
92	0xbd23efa5	-0.040023465
93	0x3c95e370	0.018296927
94	0xbe28ed3f	-0.16496752
95	0xbd965f43	-0.073423885
96	0xbd8a3d32	-0.06749953
97	0xbd5496fb	-0.0519018
98	0xbdd882f4	-0.10571852
99	0xbbfda100	-0.00774014
100	0xbd70df4a	-0.058806695
101	0x3d0c67f4	0.034278825
102	0x3d6d561a	0.05794344
103	0xbc126fce	-0.008937789
104	0xbe36345b	-0.1779341
105	0xbd461e68	-0.04836884
106	0xbd89cd94	-0.06728664
107	0x3d956603	0.07294848
108	0xbd8f8a27	-0.07008772
109	0x3cf5891d	0.029972607
110	0x3da465e5	0.08027247
111	0xbc4c2201	-0.012459279
112	0x3de2e1c5	0.11078218
113	0x3d2bc14e	0.041932397
114	0xbda0055f	-0.078135245
115	0x3ba43cbc	0.005012123
116	0x3d6fa2ce	0.058504872
117	0xbccea37f	-0.025224445
118	0x3c880a74	0.016606547
119	0x3daba603	0.083812736
120	0xbd881979	-0.066454835
121	0x3dfde4ed	0.1239718
122	0x3de14933	0.1100029
123	0x3970f2f0	0.00022978685
124	0xbda78203	-0.08179095
125	0x3d24bd77	0.04021975
126	0x3cc48c72	0.02399275
127	0x3dc24be1	0.09487129
128	0xbdb0690e	-0.086137876
129	0xbd05fb93	-0.032710623
130	0x3dc66d80	0.09688854
131	0xbdbde043	-0.0927129
132	0xbc835028	-0.016029432
133	0xbda434c1	-0.080178745
134	0x3dbcbebf	0.092160694
135	0xbd0acf7e	-0.033889286
136	0x3d21d7b0	0.039512336
137	0x3d9c7eba	0.07641359
138	0xbca12fb2	-0.019676063
139	0x3d729d3c	0.05923198
140	0x3d8851a8	0.066562
141	0x3dd9c53d	0.10633323
142	0x3db7cdac	0.08974776
143	0xbba8c333	-0.0051502227
144	0x3c837b45	0.01604999
145	0xbd1ea629	-0.03873268
146	0x3ccd6c51	0.025076063
147	0xbcbb6939	-0.022877323
148	0xbbffee70	-0.0078104064
149	0x3c420d6f	0.011844023
150	0xbd8fb2fc	-0.070165604
151	0x3dd7d052	0.10537781
152	0xbd4d138a	-0.050067462
153	0xbd194e73	-0.03742833
154	0x3c06bee9	0.0082242275
155	0x3d3d53ae	0.04622238
156	0xbd266317	-0.040621843
157	0x3d87ae50	0.06625044
158	0xbd7b1e3c	-0.06130813
159	0xbbee8fe5	-0.007280337
160	0xbd32ad19	-0.04362211
161	0xbc83f6d0	-0.0161089
162	0xbda7f4a1	-0.08200956
163	0xbca84496	-0.020540517
164	0xbd6dcdf0	-0.058057725
165	0x3c28cfe5	0.010303472
166	0x3b22e3b8	0.002485497
167	0x3d843e71	0.06457222
168	0xbc1d8b94	-0.009615798
169	0x3cef68b0	0.029224724
170	0xba4e3692	-0.0007866408
171	0xbcd412d1	-0.025887879
172	0x3ddc212c	0.107485145
173	0x3dce47c0	0.10072279
174	0xbd4cc597	-0.049993124
175	0x3d4d177e	0.050071232
176	0xbda01c8d	-0.07817946
177	0x3d1b6008	0.03793338
178	0xbd778d8d	-0.060437728
179	0x3d40e9bb	0.047097903
180	0xbd090030	-0.033447444
181	0x3cbdb1b7	0.02315603
182	0x3d66040f	0.056156214
183	0xbba105ff	-0.004914045
184	0x3d18e3d5	0.037326653
185	0xbceffc69	-0.029295163
186	0xbd09a649	-0.033605848
187	0xbd86f5f9	-0.06589884
188	0xbdaa97df	-0.08329748
189	0xbda2fe1c	-0.07958624
190	0x3cbff7d6	0.023433607
191	0xbd62c4bf	-0.055363413
192	0x3b3ac924	0.0028501237
193	0xbcafe071	-0.021469327
194	0xbd5e8321	-0.054324273
195	0x3c9ed8e6	0.019390535
196	0x3d0c550d	0.0342608
197	0xbd988bdc	-0.07448551
198	0x3ccf9dc9	0.025343793
199	0xbd8e2760	-0.06941104
200	0x3c2aacbf	0.010417162
201	0x3d0b2d65	0.03397884
202	0x3b31d128	0.0027132723
203	0x3bc0fbb3	0.00588938
204	0x3cdf87d7	0.027286453
205	0x3d6cba16	0.057794653
206	0x3d229ef6	0.03970238
207	0x3db7e85c	0.08979866
208	0x3d3ffea1	0.046873692
209	0xbbad8d20	-0.0052963644
210	0x3d27dfd9	0.040984962
211	0x3d32bd61	0.043637637
212	0x3d28bd18	0.04119596
213	0xbb042a21	-0.0020166712
214	0xbcdc777f	-0.026912449
215	0xbc47c594	-0.012193102
216	0x3cf8ac78	0.030355677
217	0x3ca66df0	0.020316094
218	0x3ce208d5	0.027592102
219	0x3ca4201e	0.020034846
220	0xbcb5da48	-0.022198811
221	0xbd9be09f	-0.076112024
222	0xbd5b4764	-0.05353488
223	0xbd9743fe	-0.07386015
224	0x3d7b8a2c	0.061411068
225	0x3c0942ca	0.00837774
226	0xbce55a4b	-0.027997157
227	0x3cd6028f	0.026124267
228	0x3d559002	0.05213929
229	0xbbdbaaff	-0.006703734
230	0xbd0828d1	-0.03324205
231	0x3d81879e	0.06324695
232	0xbb245ff5	-0.002508161
233	0x3d51ba55	0.05120309
234	0xbd6f801e	-0.05847179
235	0x3d254f67	0.040358927
236	0x3c853a61	0.016263189
237	0x3dbcfb8a	0.09227665
238	0xbd872e2f	-0.06600606
239	0xbd50777f	-0.05089521
240	0x3d837e93	0.064206265
241	0xbd1497a9	-0.036277447
242	0xbdba926f	-0.09109961
243	0xbdb12aa1	-0.08650709
244	0x3d3c83d9	0.046024177
245	0x3c4612db	0.012089456
246	0x3ccdf4ec	0.025141202
247	0xbbd7f50f	-0.0065904926
248	0xbd35ecb3	-0.044415187
249	0x3c9a60c5	0.018844971
250	0x3d315b84	0.043300167
251	0x3d6716c5	0.0564182
252	0xbd4e8e61	-0.05042875
253	0x3ca09b53	0.019605314
254	0x3d57a113	0.052643847
255	0x3d1c12ce	0.03810387

sequential/dense_1/MatMul f4 [128, 128]
0	0x3dc9a3a3	0.09845664
1	0xbbae6829	-0.0053224755
2	0xbc17ea22	-0.00927213
3	0x3e47246b	0.19447486
4	0x3e3f0da8	0.18657553
5	0x3d87da74	0.066334635
6	0x3e1b0980	0.15140343
7	0x3d05f31c	0.03270255
8	0x3e3ff497	0.18745647
9	0xbd8aa29e	-0.06769298
10	0x3e349474	0.17634755
11	0x3dca897b	0.098895036
12	0x3e04c001	0.12963869
13	0x3e2ba3f8	0.16761768
14	0x3db405a8	0.08790141
15	0x3d69e95f	0.057107326
16	0x3e0d8097	0.13818584
17	0xbdfe333e	-0.124121174
18	0x3e10ab5a	0.14127865
19	0xbdc0a634	-0.09406701
20	0xbd2ed932	-0.042687602
21	0x3da86d37	0.08223956
22	0x3db3f6a2	0.08787276
23	0xbcbe01d4	-0.023194231
24	0x3d1f7561	0.0389303
25	0x3d9164a0	0.07099271
26	0x3d1e450c	0.038640067
27	0xbe25637f	-0.16151236
28	0x3db32722	0.08747698
29	0x3e03944c	0.1284954
30	0x3c4e575f	0.012594073
31	0x3e52c9b4	0.20584756
32	0xbb5f1ef1	-0.0034045542
33	0x3df898db	0.1213853
34	0xbc1ba42a	-0.009499589
35	0xbe6254be	-0.22102639
36	0xbdf345c6	-0.118785426
37	0x3dce3565	0.10068778
38	0x3e244c19	0.16044654
39	0x3d0172f7	0.03160378
40	0x3d367fed	0.044555593
41	0x3de91339	0.113806196
42	0xbd97a7d9	-0.07405061
43	0x3c08852f	0.008332535
44	0x3d9e67e8	0.07734662
45	0xbd75c592	-0.06000287
46	0xbb1ecd76	-0.002423135
47	0x3db1dbf7	0.08684533
48	0x3dc7bc26	0.09752683
49	0xbdd2b6b7	-0.10288756
50	0x3d9e2251	0.07721389
51	0xbcf32f67	-0.02968569
52	0x3c47b4f4	0.012189139
53	0xbd565ad0	-0.0523327
54	0x3d8e0cac	0.06936011
55	0x3d24534d	0.040118504
56	0xbdc34790	-0.09535134
57	0xbd333a78	-0.043756932
58	0xbd3f6af7	-0.04673287
59	0xbd1940b2	-0.037415214
60	0x3e1a2a4b	0.15055196
61	0xbdbcc8e7	-0.092180066
62	0xbdf5a655	-0.11994616
63	0x3baf9634	0.005358482
64	0xbd800cae	-0.062524185
65	0x3daa3c7c	0.08312318
66	0xbda920f4	-0.082582384
67	0xbdf25e50	-0.11834395
68	0x3d4822f3	0.048861455
69	0xbd6ecbf5	-0.058299977
70	0xbdbcd7be	-0.09220837
71	0x3b95702f	0.0045604925
72	0xbd0c8c24	-0.034313336
73	0x3dca10aa	0.0986646
74	0xbbf888bc	-0.0075846594
75	0xbdb7a8af	-0.08967721
76	0x3c7d67c4	0.015466634
77	0x3c7a1d39	0.015265756
78	0x3c9ee422	0.019395892
79	0x3e252c24	0.1613012
80	0xba8591ee	-0.0010190585
81	0xbe26c539	-0.16286172
82	0xbe03b6ec	-0.12862748
83	0x3e0cee95	0.13762887
84	0x3da4981b	0.08036824
85	0xbe4f8474	-0.2026537
86	0x3cdce8fa	0.02696656
87	0x3db59028	0.08865386
88	0x3d0e27e5	0.034706015
89	0xbe27e708	-0.16396725
90	0x3c09dc56	0.008414349
91	0xbcefd7e8	-0.029277757
92	0xbd0c08be	-0.034188025
93	0xbe0ea024	-0.13928276
94	0xbe0120da	-0.12610188
95	0xbd9bf71d	-0.076154925
96	0x3e42f216	0.19037661
97	0x3e047ae3	0.12937503
98	0xbd87563a	-0.06608243
99	0xbdb1f393	-0.08689036
100	0x3e090dd4	0.13384181
101	0x3cb87c08	0.02252008
102	0xbdea952d	-0.11454234
103	0xbe10a2db	-0.14124624
104	0xbde15aab	-0.11003622
105	0xbde56a4d	-0.11201916
106	0x3ddd03ef	0.10791766
107	0x3c3c5708	0.011495359
108	0xbc45cc84	-0.012072686
109	0x3d375516	0.04475888
110	0xbdfe59e5	-0.1241949
111	0xbe2f601f	-0.17126511
112	0xbc29c0a7	-0.010360873
113	0x3d04fa44	0.032465234
114	0xbc012545	-0.007882421
115	0xbdba6270	-0.09100807
116	0xbd5169fb	-0.05112646
117	0x3d2b6639	0.041845534
118	0xbc1720c3	-0.00922412
119	0x3e4e254e	0.20131418
120	0x3da1510c	0.078767866
121	0xbe1b0a7f	-0.15140723
122	0xbc2236f7	-0.0099008
123	0x3dd580da	0.10424967
124	0x3e05fbc6	0.13084325
125	0x3e197c58	0.1498884
126	0x3d9f6951	0.077837594
127	0xbd38d6e8	-0.045126826
128	0x3d018f9c	0.031631097
129	0xbd7b0eca	-0.0612934
130	0x3dc24ee8	0.094877064
131	0xbd79c44f	-0.06097823
132	0xbd334a9e	-0.043772332
133	0x3dd52fe8	0.10409528
134	0xbc706ce8	-0.014674403
135	0x3de2569e	0.11051677
136	0x3e016070	0.12634444
137	0xbc19f769	-0.009397366
138	0x3dea0889	0.11427409
139	0xbda80613	-0.082042836
140	0xbe235d18	-0.15953481
141	0x3cb8af98	0.022544667
142	0xbd601cc3	-0.05471493
143	0xbd2cd133	-0.042191695
144	0x3d87fa53	0.066395424
145	0xbe0e2ed4	-0.13885051
146	0xbd25bb90	-0.040462077
147	0xbc31183d	-0.0108090015
148	0x3d64373c	0.055716738
149	0x3c0e5c40	0.008688986
150	0xbe0226d5	-0.12710126
151	0x3d371b67	0.044703867
152	0xbdcdc9d4	-0.10048261
153	0xbdff9ca5	-0.124810494
154	0xbd58f13c	-0.052964434
155	0xbda49a78	-0.08037275
156	0xbd9df833	-0.07713356
157	0xbe108fab	-0.14117305
158	0xbdae4aaf	-0.085103385
159	0xbddec698	-0.108777225
160	0xbd0f8a5e	-0.035044067
161	0xbcaf0b70	-0.021367759
162	0x3bb5a2dc	0.005543096
163	0x3c487dc8	0.01223702
164	0xbc2e02c0	-0.010620773
165	0xbc985257	-0.01859395
166	0x3d17a237	0.037019935
167	0x3dc8e682	0.09809591
168	0x3d3b2b9c	0.045695886
169	0xbdebcf06	-0.11514096
170	0xbdb5b29b	-0.08871957
171	0xbdd8b6bf	-0.10581731
172	0xbd2e328f	-0.042528685
173	0xbe10e0dd	-0.14148279
174	0xbd29a6de	-0.041418903
175	0x3d19312c	0.03740041
176	0x3d69a597	0.057042684
177	0xbd4b81c8	-0.049684316
178	0x3cc5981c	0.024120383
179	0x3dcea269	0.10089571
180	0xbdf07899	-0.11741752
181	0xbda38854	-0.07984987
182	0xbdf71b7f	-0.12065791
183	0x3c1d3fb0	0.009597704
184	0x3db4f0d8	0.08835
185	0x3df781dd	0.12085316
186	0xbe184182	-0.14868739
187	0x3ca912a2	0.020638768
188	0x3da02ffd	0.07821653
189	0x3c0268c6	0.00795955
190	0x3d5af117	0.053452577
191	0x3d8770e8	0.06613332
192	0xbd0681e6	-0.032838725
193	0x3d4bdbd8	0.049770206
194	0xbd698ff8	-0.057022065
195	0xbc19dda2	-0.00939122
196	0x3e0bab2c	0.13639516
197	0xbd5110a0	-0.051041245
198	0x3d69be1f	0.05706608
199	0xbca21388	-0.019784704
200	0x3e0c9624	0.13729149
201	0x3e0c6c0d	0.13713093
202	0x3e071645	0.13192089
203	0x3d8e8c1a	0.06960316
204	0xbe04a27e	-0.12952611
205	0xbdd49f16	-0.10381906
206	0xbd75e050	-0.060028374
207	0x3db56e28	0.08858901
208	0xbd842448	-0.064522326
209	0xbc884647	-0.016635073
210	0xbd82111f	-0.06350922
211	0xbe1af5a5	-0.15132768
212	0x3deb0f36	0.11477511
213	0xbb242d91	-0.0025051574
214	0x3d056456	0.03256639
215	0x3ad65700	0.0016352832
216	0x3dcd35d5	0.10020033
217	0x3ce03f1d	0.027373845
218	0xbd8efaee	-0.06981455
219	0xbdbe0cbb	-0.09279772
220	0xbe129ccf	-0.1431763
221	0x3dd94d81	0.10610486
222	0x3d88ef2f	0.06686246
223	0xbd030880	-0.031990528
224	0xbdcdfa9e	-0.10057567
225	0xbd037c5b	-0.032101016
226	0x3db5f75d	0.088850714
227	0xbe1b950b	-0.15193574
228	0xbcd45a76	-0.025922041
229	0xbdb07e57	-0.086178474
230	0xbe1aa136	-0.1510056
231	0xbc81bcc2	-0.015837077
232	0x3d66a197	0.056306448
233	0x3de841de	0.11340688
234	0xbe18deb6	-0.14928707
235	0x3db44c17	0.088035755
236	0xbda8cd81	-0.08242322
237	0xbd95f14b	-0.073214136
238	0xbe21ed2c	-0.1581313
239	0xbe0cff59	-0.13769282
240	0x3e09c28f	0.13453124
241	0xbd71e912	-0.059060164
242	0xbcb7cf18	-0.022437617
243	0x3d817e84	0.06322959
244	0xbda952c4	-0.082677394
245	0x3de2da6d	0.11076818
246	0xbd882489	-0.066475935
247	0x3d1ce124	0.03830065
248	0x3c8a3e2c	0.016875349
249	0x3d85241e	0.065010294
250	0xbe1f73f2	-0.15571573
251	0x3d2335d3	0.039846253
252	0xbdeb3269	-0.11484224
253	0xbe22512d	-0.15851279
254	0xbdf33399	-0.11875076
255	0x3d88cc56	0.06679599

sequential/dense_2/MatMul f4 [7, 128]
0	0x3e29129d	0.16511007
1	0xbe1786ae	-0.1479747
2	0xbdda962b	-0.106731735
3	0xbc19baee	-0.009382946
4	0xbe85dd48	-0.26145387
5	0x3de82b06	0.11336331
6	0x3dc590d4	0.096467644
7	0xbdf90ca2	-0.12160613
8	0xbe0acd1f	-0.1355481
9	0xbe1fe0c5	-0.15613087
10	0x3e1f0335	0.15528567
11	0x3d59a0ad	0.053131748
12	0x3e6351c5	0.22199161
13	0xbe6cd88f	-0.23129486
14	0x3af1d09e	0.0018449014
15	0x3b2aeca5	0.0026080993
16	0xbe749d71	-0.23888184
17	0xbe507412	-0.20356777
18	0x3e192067	0.14953767
19	0x3dd56eb0	0.104215026
20	0x3ae7d0e7	0.0017686159
21	0xbd67379b	-0.056449514
22	0xbe60f797	-0.21969448
23	0xbd86e64d	-0.06586895
24	0x3e3ce0cd	0.1844513
25	0xbe57898e	-0.21048567
26	0xbd126c65	-0.035747904
27	0x3e10cd4b	0.14140813
28	0xbdaf0f73	-0.085478686
29	0x3d01c7f7	0.031684842
30	0x3e251522	0.16121343
31	0xbe4a2faa	-0.19744745
32	0xbe5424dd	-0.20717187
33	0x3e45e9b4	0.19327432
34	0x3dde9752	0.10868706
35	0x3d2a90a4	0.041641846
36	0xbdd09437	-0.1018452
37	0x3d575b0a	0.052577056
38	0x3b9b61ab	0.0047418675
39	0x3e132beb	0.14372222
40	0x3c84e0b0	0.01622042
41	0xbe480782	-0.19534114
42	0x3e110a1f	0.14164017
43	0x3e2e1fe4	0.17004353
44	0x3e0ba739	0.13638009
45	0x3e212a01	0.1573868
46	0xbe4429ba	-0.19156542
47	0x3e832779	0.25616053
48	0xbe454580	-0.19264793
49	0xbdb33e1a	-0.08752079
50	0x3e218dcd	0.15776749
51	0x3e516010	0.20446801
52	0xbe7e66e4	-0.24843937
53	0xbd186b61	-0.03721178
54	0x3e1f102c	0.15533513
55	0xbe046052	-0.12927368
56	0xbe9c5058	-0.30530047
57	0x3e74db6d	0.2391183
58	0xbe4ac3ff	-0.19801329
59	0xbe49fa86	-0.19724473
60	0xbd993114	-0.07480064
61	0x3daabb51	0.08336509
62	0xbc2e8910	-0.010652795
63	0x3e39ab19	0.18131675
64	0xbecd251c	-0.40067375
65	0xbdce7697	-0.10081213
66	0x3e3c5d9e	0.18395087
67	0x3e59fc43	0.21287636
68	0x3ce922a0	0.028458893
69	0x3d94a3ce	0.07257806
70	0xbe85ea23	-0.26155195
71	0x3dadf278	0.08493513
72	0xbe638909	-0.22220244
73	0xbd192973	-0.037393045
74	0x3c9ff8af	0.019527761
75	0xbe28593e	-0.16440293
76	0x3cccd746	0.025004994
77	0xbe090675	-0.1338137
78	0xbdb2cea8	-0.08730823
79	0xbe9ae4ce	-0.3025269
80	0xbe085848	-0.13314927
81	0x3d8b5edb	0.068052016
82	0xbe1991ae	-0.14996979
83	0xbc8a9820	-0.016918242
84	0x3d5716b7	0.052511897
85	0x3e543f38	0.20727241
86	0x3bb0df1f	0.005397692
87	0xbe4bfa19	-0.19919623
88	0x3d424fd0	0.047439396
89	0x3e22043d	0.1582193
90	0xbd7309aa	-0.05933539
91	0xbe819490	-0.25308657
92	0xbe0d4c8d	-0.13798733
93	0xbe09e0bc	-0.13464636
94	0xbe8a036a	-0.2695573
95	0x3e1fec85	0.15617569
96	0xbe4e05b6	-0.20119366
97	0x3df7630d	0.12079439
98	0x3e25d4ac	0.16194409
99	0x3c2e34a5	0.010632669
100	0xbdaca9b6	-0.08430807
101	0xbd91beaa	-0.071164444
102	0xbe3ef5c8	-0.18648446
103	0x3cece71f	0.0289188
104	0xbe71c891	-0.23611666
105	0x3e816c46	0.2527792
106	0xbe5276ed	-0.20553179
107	0xbe1fb88f	-0.15597747
108	0xbc27844d	-0.010224414
109	0xbe58505e	-0.21124408
110	0x3d18f7e7	0.037345793
111	0x3e4aa1e5	0.1978832
112	0xbe09b172	-0.13446596
113	0xbe041ffa	-0.12902823
114	0x3e3c3554	0.18379718
115	0x3e7b2a27	0.24527799
116	0xbe1d2a94	-0.15348274
117	0xbe1c13da	-0.15241948
118	0x3e3a20c9	0.18176569
119	0xbe676db1	-0.22600438
120	0x3be8b255	0.007101337
121	0x3d86e55b	0.06586715
122	0x3e6abc24	0.22923332
123	0x3d5e48aa	0.054268517
124	0xbcef6458	-0.029222652
125	0xbe54600c	-0.20739764
126	0xbe3ea4d3	-0.18617563
127	0xbe1eb2e1	-0.15497924
128	0xbe7e9a3a	-0.2486352
129	0x3e39a670	0.18129897
130	0x3e289687	0.16463672
131	0x3dc85e32	0.09783591
132	0xbe6c71c1	-0.23090269
133	0x3d87bc45	0.066277064
134	0x3e375e03	0.17906956
135	0xbd183171	-0.037156526
136	0xbd4e6c0a	-0.050396003
137	0xbe52c500	-0.20582962
138	0xbe45ef88	-0.19329655
139	0x3e0ec63d	0.1394281
140	0x3d926a17	0.07149141
141	0xbe1a10fb	-0.1504554
142	0xbc76464c	-0.0150314085
143	0x3e33b3df	0.17549084
144	0x3d2fe211	0.042940203
145	0x3ad60981	0.0016329737
146	0xbcb5e9b6	-0.022206169
147	0x3b836bfe	0.0040106764
148	0x3d15205e	0.03640782
149	0xbd01a638	-0.03165266
150	0xbe1a7f28	-0.15087569
151	0xbdc430f9	-0.09579653
152	0x3def21fc	0.11676404
153	0x3e7b04e0	0.24513578
154	0x3d30ca0c	0.043161437
155	0xbe7c43d3	-0.24635248
156	0x3e84a5cd	0.25907746
157	0xbc041ed4	-0.008063991
158	0x3e41b9ec	0.1891858
159	0x3e6e3125	0.23260935
160	0x3ba33c58	0.004981559
161	0xbe27e469	-0.16395725
162	0xbcc49805	-0.02399827
163	0xbe9a8d7d	-0.30186072
164	0x3dea87ac	0.114516586
165	0xbdcd7efc	-0.10033986
166	0x3ddbc926	0.107317254
167	0x3e13510c	0.14386386
168	0xbd5bcd3a	-0.053662516
169	0x3e5b3a93	0.21409063
170	0xbd81a23e	-0.06329773
171	0x3dec77c1	0.11546279
172	0xbe236f4a	-0.15960422
173	0xbd035329	-0.03206173
174	0xbe7eb1cb	-0.2487251
175	0x3e08cbc6	0.13358983
176	0xbe26b259	-0.16278972
177	0x3e46ffef	0.19433568
178	0xbe7ad165	-0.2449394
179	0xbe858b0e	-0.26082653
180	0xbdbe99d6	-0.093066856
181	0x3e53b2db	0.20673697
182	0xbe7db561	-0.24776222
183	0xbe9b6e82	-0.30357748
184	0xbe9f774f	-0.31145713
185	0xbe657331	-0.22407223
186	0x3e449f24	0.19201332
187	0xbea7fdcf	-0.32810828
188	0x3d568be2	0.052379496
189	0xbe6fd8b2	-0.23422506
190	0xbdcdd1aa	-0.10049756
191	0xbc9a9a95	-0.018872539
192	0x3cfed39a	0.031106759
193	0xbe94f151	-0.2909036
194	0x3d87984d	0.06620846
195	0x3e019442	0.12654212
196	0xbe2fc1ee	-0.17163822
197	0xbdaa4126	-0.08313207
198	0x3d8d2322	0.06891467
199	0x3d0a62d8	0.03378567
200	0x3e25854b	0.16164128
201	0x3d976cef	0.07393824
202	0x3e01d6eb	0.12679641
203	0xbe8a9382	-0.27065665
204	0xbeb9793a	-0.362253
205	0x3e98bccc	0.2983154
206	0xbdee01fb	-0.116214715
207	0x3c94a7e3	0.01814646
208	0x3e7a6457	0.24452339
209	0x3e44c220	0.19214678
210	0x3d5af74c	0.053458497
211	0x3d1a41ef	0.037660535
212	0xbe3b0a69	-0.1826569
213	0xbd4dd17f	-0.05024862
214	0x3d074655	0.03302606
215	0xbe83ceaa	-0.2574361
216	0x3e1623aa	0.14662042
217	0x3da0b205	0.078464545
218	0x3e2c58e3	0.16830783
219	0xbdebcd07	-0.11513715
220	0x3e207dbf	0.15672968
221	0xbec8ed00	-0.39243317
222	0x3e8727e8	0.26397634
223	0x3da8f378	0.08249563
224	0xbcacfa11	-0.021115335
225	0xbe00185d	-0.12509294
226	0xbe61042a	-0.21974245
227	0xbe6ab51d	-0.22920652
228	0x3e0aa331	0.13538815
229	0x3e0d89f0	0.1382215
230	0x3dd6fd04	0.10497478
231	0xbe3af9ee	-0.18259403
232	0x3e1961a3	0.14978652
233	0x3cdd8c80	0.027044535
234	0x3e172db6	0.14763531
235	0xbe1ee0f8	-0.15515506
236	0xbe070505	-0.13185509
237	0x3e0e47ce	0.13894579
238	0xbd1d6850	-0.03842956
239	0x3e092a36	0.13395008
240	0x3d43c35a	0.047793724
241	0x3d829720	0.06376481
242	0xbdb3d22e	-0.08780323
243	0x3d6a0a35	0.05713864
244	0x3de64b7d	0.11244867
245	0x3e1c629a	0.15271989
246	0xbdbe2df4	-0.092861086
247	0x3e732470	0.23744369
248	0xbe6055c8	-0.21907723
249	0xbe039497	-0.12849651
250	0x3d1079da	0.035272457
251	0x3e607e5e	0.21923205
252	0xbe128b17	-0.14310871
253	0x3e269421	0.16267444
254	0x3e6c3854	0.23068362
255	0x3d9920a2	0.07476927
