assets/modelo_intents.tflite (tflite, 758096 bytes, 7 tensors)

sequential/embedding/embedding_lookup f4 [500, 64]
000000 c0 94 98 bd 4d 15 89 bd ba 09 35 bd 4e b4 ef bc
       -0.07450247 -0.06693516 -0.04419873 -0.02926078
000010 6f b9 9d bc 14 b2 03 3c ab 16 7c bd 81 4d 37 bd
       -0.01925346 0.008038063 -0.061545055 -0.044751648
000020 69 31 81 bc 7f 98 f1 bc e5 54 d3 bc f2 8c 8d 3d
       -0.01577063 -0.029491661 -0.025797317 0.06911649
000030 9b 08 af bd ef 0a 7e bd c5 df a6 3c 1e b1 ba 3b
       -0.08546563 -0.062022146 0.020370374 0.0056973835
000040 ee 01 56 3d 2d 51 cd 3c 60 f4 1d bc 97 95 dc bd
       0.052247934 0.025063122 -0.009640783 -0.107707195
000050 34 17 85 bd 4a 05 3d bd 01 f9 b4 3d c6 28 5e bd
       -0.06498566 -0.046147622 0.08836556 -0.054238103
000060 7c a3 90 3d b1 54 51 3d a9 cc 3c 3d 0d 1f 95 3c
       0.07062432 0.05110616 0.046093617 0.018203283
000070 79 36 07 3d da 8c 52 bd 63 51 3a 3d 2a 61 39 bd
       0.033010934 -0.051403858 0.045487773 -0.04525868
000080 bb 23 e2 bc 94 41 8f bd bc 1b 02 bd cf c4 35 3d
       -0.027604928 -0.0699493 -0.03176473 0.044377144
000090 9f c0 70 3d 06 4e e6 3c 41 c2 15 bd 55 0d 3b bd
       0.058777448 0.028113376 -0.036562208 -0.04566701
0000a0 26 09 98 3b cb 86 3e bc 50 c5 81 bd 23 63 38 3d
       0.0046397625 -0.011628817 -0.063364625 0.04501642
0000b0 63 21 28 3d cc 95 b3 bd 62 47 be bc 80 7f 31 bc
       0.041047465 -0.08768806 -0.023227397 -0.010833621
0000c0 5b 38 23 bd f3 c0 f1 bc dc 51 09 3d 39 34 95 bc
       -0.039848667 -0.02951095 0.033525333 -0.018213378
0000d0 da 36 6c 3d 18 9f 25 bd ac 31 66 3d 40 88 8f bd
       0.057669498 -0.040434927 0.056199715 -0.070084095
0000e0 91 85 6c bd 0e e8 d6 bc 6b b7 6c 3d 0a d4 8a 3d
       -0.057744566 -0.0262337 0.05779211 0.067787245
0000f0 39 ab 8a bd d5 eb 9d bd 35 07 8d 3d 7f b1 a8 3d
       -0.067709394 -0.07710997 0.0688614 0.0823698
000100 73 8c cd bc a7 1d ff bc ae f1 d4 3c 77 49 1e 3d
       -0.025091385 -0.031142069 0.025994148 0.03864428
000110 5a 69 e7 3c 67 47 2f bd f4 cb 18 3c 4c 70 47 bc
       0.028248478 -0.042792704 0.00932597 -0.01217277
000120 8d 2c bb bc 1a 61 d7 3c fd b6 28 bd 40 02 36 bd
       -0.022848392 0.026291419 -0.041190136 -0.04443574
000130 12 cc a2 3c 50 35 39 bd 40 f9 86 3a 68 6e df 3b
       0.019872699 -0.04521686 0.0010297671 0.0068185814
000140 30 04 24 bb 58 f6 2d bc 00 74 35 3c 20 b8 0f bd
       -0.002502691 -0.010617815 0.01107502 -0.035087705
000150 70 75 3e bd 47 b7 b9 bc f4 b2 14 bc ae eb e8 3c
       -0.046498716 -0.022670401 -0.009075869 0.028432693
000160 b4 70 1e bc 68 ea 59 bc a1 06 01 3d 30 77 c9 bb
       -0.009670425 -0.013300516 0.031500462 -0.0061482415
000170 43 50 3f 3d a7 3a 45 3d 7d b9 07 3d 58 fd 42 3c
       0.046707403 0.04815164 0.03313588 0.011901222
000180 33 bb 18 bd ed 2c 3b bd 60 bb e5 bc b0 c0 27 bd
       -0.037287902 -0.04569714 -0.028043449 -0.040955245
000190 76 ca 09 bd 9d 7b 2e bd 00 a4 f8 3a 80 bc a0 3b
       -0.033640347 -0.042598356 0.0018969774 0.0049052835
0001a0 9c ff 68 3c 8c e7 44 bc 80 88 44 bc 13 d9 31 3d
       0.014221098 -0.012018096 -0.011995435 0.04341991
0001b0 dd ce 22 3d 80 cd e9 bb c3 73 0e 3d 1a e6 1f bd
       0.03974806 -0.007135093 0.034778368 -0.0390378
0001c0 e0 78 a2 bc d0 64 51 3b 80 b2 8f bc 28 8f 49 bc
       -0.019833028 0.0031950958 -0.01754117 -0.0123021975
0001d0 da 25 dc 3c 28 32 66 bc 80 9e fa 39 0e f1 95 3c
       0.026873518 -0.014050044 0.00047801808 0.01830342
0001e0 06 44 f5 3c 86 9b 82 3c fa b1 f3 bc 0c 2a 74 3c
       0.029939663 0.0159433 -0.029747952 0.014902603
0001f0 b0 f0 fa 3b 61 86 2a 3d a7 e9 08 3d 57 01 2b 3d
       0.0076580867 0.04163206 0.033425953 0.041749325
000200 bf b3 4d 3e 24 43 2e 3e e8 16 a2 3d 25 a4 97 bd
       0.20088099 0.170178 0.07914525 -0.07404355
000210 f0 eb 25 3e 81 64 18 3e 80 52 53 bd 30 f8 df 3d
       0.16203284 0.14882089 -0.05159235 0.1093601
000220 66 75 04 be 94 4d 1f be 9a d2 1d be 3b 77 2e 3e
       -0.12935409 -0.15556937 -0.1541237 0.1703767
000230 2f 52 14 be 34 ca 1c 3e 49 b5 55 3e 93 c6 30 be
       -0.14484476 0.1531151 0.20869936 -0.1726325
000240 32 8d c9 bd 65 44 01 be ab 05 b5 bd bb a4 47 3d
       -0.09841384 -0.12623747 -0.08838972 0.048741084
000250 d1 0f ea 3c 96 27 0e 3e 3c 0d 36 be fe 40 80 bd
       0.028571995 0.13882288 -0.17778486 -0.06262396
000260 fd 0b 20 be c4 d6 0f be f2 57 f3 3d 45 fa 2b be
       -0.15629573 -0.1404677 0.118820086 -0.16794689
000270 93 3e 07 3e aa c5 e6 3d 7c c2 d3 bd 07 74 19 be
       0.13207464 0.1126817 -0.10339829 -0.14985667
000280 6c f2 80 3d 95 ae 3d 3e 8c 2b ce 3c 6f fd 1d 3d
       0.06296238 0.18523629 0.02516725 0.03857177
000290 0f 63 ee bd bc 9f 22 3a a1 93 e1 3d 7a ec 39 3e
       -0.11639988 0.0006203612 0.11014486 0.18156615
0002a0 9e 85 f5 3d 42 11 86 3d 02 7a 44 bd cf 6a dd 3c
       0.11988376 0.065462604 -0.04796792 0.02702847
0002b0 79 d0 16 3c 7c 65 59 3e 62 ff 0c 3e b6 30 0b bd
       0.009204977 0.2123012 0.13769296 -0.033982
0002c0 85 23 44 3e db e7 2c bd 2f 15 61 3d 56 1a 8f bd
       0.19154175 -0.042213302 0.054951843 -0.06987445
0002d0 f3 d6 4b be 39 9f 51 3e a9 de b7 bc 71 84 24 be
       -0.19906215 0.20470895 -0.02244504 -0.16066147
0002e0 2b 01 b3 bd ff 5d 0f be c0 20 8b 3d 40 0e 1e 3e
       -0.08740457 -0.140007 0.06793356 0.15435123
0002f0 80 19 f6 3d 7d e4 e3 bd af d1 23 3d ad 2d 00 3e
       0.120165825 -0.11127565 0.03999489 0.12517424
000300 05 4f c4 3c 9b 89 5d bd 9b 8f 34 3d e1 6c 79 3b
       0.02396346 -0.05408631 0.044082265 0.0038059282
000310 47 7e 2e bd bc ba 8b bd 56 28 b8 bd 2f 85 44 ba
       -0.042600896 -0.06822726 -0.089920685 -0.00074966525
000320 7a 8b b6 bd 55 e3 1e bd c7 43 00 3d c9 36 93 3d
       -0.08913322 -0.03879102 0.031314638 0.07188184
000330 0c 43 c3 bd 2c ca 4d 3d 2f 5a 59 bd e6 4d c2 3d
       -0.095342726 0.050241634 -0.05306452 0.09487514
000340 b9 1f b1 bc ca 52 d6 3d f4 ca 83 3d 69 2b 8c bd
       -0.021621572 0.104650095 0.064351946 -0.06844217
000350 0a d7 a3 bd a9 94 75 3c 05 9d f8 3c 98 77 b2 3d
       -0.08 0.014989057 0.03034831 0.08714217
000360 d7 07 15 bd 76 8d b8 3d bc 93 70 bd 86 1a 22 bd
       -0.03638443 0.090113565 -0.05873464 -0.039576076
000370 33 16 09 3d c2 4e 66 bb ca e9 43 3d 8f 01 77 bc
       0.033468436 -0.0035142158 0.04783038 -0.015076055
000380 c2 42 a8 3d 2f 40 a3 3c 05 40 04 3d a3 99 4c 3b
       0.08215858 0.019928066 0.032287616 0.0031219504
000390 05 7f 09 be ea 99 12 3e ac 2e 31 bc 88 64 9b bd
       -0.1342736 0.14316526 -0.01081435 -0.07587534
0003a0 c2 1f 43 3c 30 fc f5 3d e6 8b ef 3d 38 bb a9 3d
       0.011909427 0.120109916 0.116966054 0.08287662
0003b0 a5 1a 49 bd ce ff 76 bd c6 c6 de 3b b6 73 05 3e
       -0.049097676 -0.060302548 0.006798598 0.13032421
0003c0 86 26 84 bd 49 60 b2 3c 35 b5 6f bd f3 44 c4 bd
       -0.0645266 0.021774428 -0.058522422 -0.095834635
0003d0 29 b9 d9 3c fc d3 e8 bd 17 4c 4d 3d 4d f7 47 bd
       0.026577549 -0.11368558 0.050121393 -0.04881983
0003e0 32 f7 4a 3d 6b 77 88 bd ba c6 46 bc d2 43 85 bd
       0.04955215 -0.06663402 -0.012132341 -0.06507076
0003f0 cf e8 70 3c 87 83 09 3d 79 4f d5 bc 74 04 1f bd
       0.014703943 0.0335727 -0.026038872 -0.038822606

sequential/dense/BiasAdd/ReadVariableOp f4 [128]
000000 04 ef 25 bc 2b 3a 07 bc a0 6e e5 3b 87 af 17 bc
       -0.010127787 -0.008253614 0.007001713 -0.009258158
000010 49 d5 c8 3c c6 eb 27 3c 5e 8e c6 bb c7 15 8f 3c
       0.024515765 0.010249084 -0.006059452 0.017466439
000020 18 70 00 3c 75 37 b2 3c 53 c4 55 bc 84 93 f6 3c
       0.007839225 0.02175496 -0.013047296 0.030099638
000030 5a ec 03 3d 81 e0 8f 3c 73 47 83 3c fb d8 f9 bb
       0.032207824 0.017563106 0.01602528 -0.007624743
000040 d8 f9 46 3c 6c e4 2a bc 11 da 12 bc 4a b9 23 bc
       0.012144528 -0.010430437 -0.008963124 -0.009992907
000050 c5 4a 07 3d 6b 32 91 3c f9 65 69 3c 35 76 ec 3c
       0.03303029 0.017724236 0.014245504 0.02886496
000060 17 ec 77 3c c2 8c f3 3c 5c 75 66 3c 41 d3 b2 bb
       0.015131972 0.029730204 0.014066067 -0.0054573123
000070 5f 3e 62 3c 8d f5 c1 3c f5 48 0a 3c 3f 6a db 3c
       0.013808816 0.023676658 0.008440246 0.02678406
000080 e7 25 4a 3c 21 ce 62 3c c4 19 20 3c 0a 4b 08 3d
       0.012338138 0.01384309 0.009771768 0.033274688
000090 2c 8b 7c 3c dd e4 05 3c d9 d9 ee 3c d4 e6 d3 bb
       0.015414041 0.008172241 0.029156612 -0.006466726
0000a0 d8 65 35 bc 51 c8 1e 3c ba a1 7d 3c 30 f3 c3 3c
       -0.011071645 0.009691314 0.015480453 0.023919672
0000b0 2c 56 99 3c fc 47 79 3c ec 00 8f 3c f2 75 a5 bb
       0.018717848 0.015214916 0.017456494 -0.0050494606
0000c0 af 28 d7 3c 70 76 16 3c 87 ad b3 3c f1 aa 3d bc
       0.026264517 0.009183511 0.02193333 -0.0115764
0000d0 c4 fa 95 3c b7 79 e3 3c 86 96 f1 3c 8f dd 0c 3d
       0.01830805 0.027768 0.02949072 0.034390982
0000e0 c7 38 b2 3c c7 03 43 bc 1c 4b 9d 3c b2 ea 69 3c
       0.02175559 -0.011902756 0.019200854 0.014277147
0000f0 3e f2 1a 3c 05 bc f8 bb 3b ed 51 3c 80 b4 93 3c
       0.009457169 -0.007590773 0.012812908 0.018030405
000100 94 27 1c bc a3 54 ee 3c 6e 0a 3e bc 0b 9a e5 3a
       -0.009530921 0.029093092 -0.011599166 0.0017517222
000110 f3 ae 95 3c 2f 7b 8b 3c 90 4f e4 3c 47 c9 03 bc
       0.018271899 0.017026512 0.02786997 -0.008043594
000120 c7 5e 01 bc 0f 32 b8 3c 89 2f 2b bc 49 47 3e 3c
       -0.007896132 0.022484807 -0.010448345 0.011613675
000130 71 fd 23 bc 9d 47 be 3c ce 71 f4 3c d4 4c 97 3c
       -0.010009156 0.023227507 0.029839423 0.018469252
000140 f8 e0 16 3c cd c8 0c 3d fb 6a d2 3c 47 4f b0 3c
       0.00920891 0.034371186 0.025685778 0.021522177
000150 b1 a0 08 3c cf 23 b2 bb 86 dd 8e 3c 24 1b 0a ba
       0.008339093 -0.0054363976 0.017439615 -0.00052683265
000160 22 d5 1a 3c 4a 9f 26 3c 47 62 25 3c 50 ec dd 3c
       0.009450229 0.010169813 0.010094232 0.027090222
000170 ee c8 d7 bb c4 40 78 3c 49 51 d9 bb 5f ce a3 3c
       -0.006585232 0.01515216 -0.0066320044 0.019995866
000180 73 28 a4 3c bc 02 39 3c a9 5a c0 3c 7b 64 02 3d
       0.020038819 0.011292156 0.02348073 0.031834107
000190 ab 26 43 bc b0 7d fd 3c 3a d5 a8 3c e8 5e dc 3c
       -0.011911075 0.030943722 0.020609487 0.026900724
0001a0 25 54 b4 3c d9 f2 d6 3c 3d 50 af 3c ae 0d ab 3c
       0.02201278 0.026238846 0.021400565 0.020880546
0001b0 09 bc 37 bc 97 f6 69 3c 31 0a 9c 3c 69 2d b5 3c
       -0.011214265 0.014279983 0.019047828 0.02211638
0001c0 9e 36 86 3c 7f 0c d7 3c 7b 29 cf 3c 0b 8b 90 3c
       0.016383465 0.026251076 0.025288334 0.017644426
0001d0 f7 73 83 3c b4 17 d4 3c bc dc 8c 3c 5f 8b ab 3c
       0.016046507 0.025890209 0.017195098 0.02094048
0001e0 f9 52 c8 3c e8 0b f9 3c 62 fd c1 3c 8f da 7d bc
       0.024453627 0.030401185 0.023680393 -0.015494003
0001f0 89 40 67 3c 57 91 a0 3c 17 42 84 3c 0e 7c fa bb
       0.0141145075 0.019600553 0.016144795 -0.007644183

sequential/dense_2/BiasAdd/ReadVariableOp f4 [7]
000000 13 5f b4 39 9f 14 eb 3a b7 1e 26 bc 85 6a 65 3c
       0.0003440311 0.0017935223 -0.010139159 0.014002447
000010 a4 b0 c5 bc 47 8c cb 3c a2 64 05 bd
       -0.02413208 0.024847163 -0.032566674

sequential/dense_1/BiasAdd/ReadVariableOp f4 [128]
000000 1a 93 35 bb 1f 44 88 bc 5f df 2b 3c 1c 05 ed 3c
       -0.0027706088 -0.016634045 0.010490268 0.0289331
000010 9d b8 8a 3c c2 51 87 3c 16 a2 98 3c 71 d0 c3 3c
       0.016933734 0.016518477 0.018631976 0.023903104
000020 6f 25 82 3c e1 61 f9 3b 3e 2c 9b bc 9c cc 16 3d
       0.01588699 0.007610545 -0.018941995 0.036816224
000030 c7 eb d9 3b 3d f2 ad 3c 0a bf d4 3c 02 16 3d bc
       0.0066504213 0.021233672 0.02597 -0.011540892
000040 84 71 f9 bb 60 a3 fe bb 1a 3c 57 3c 46 58 07 3d
       -0.007612409 -0.0077709407 0.013136888 0.03304317
000050 bb 6a d1 3c 00 fd eb 3b 17 43 b5 3c c5 9b 9a ba
       0.025563588 0.007201791 0.022126717 -0.001179569
000060 b3 9e 5f bc 18 5b 85 3c 7a 66 8f 3c 8f 60 0f bb
       -0.013648677 0.016278788 0.01750492 -0.0021877622
000070 19 c8 fd 3b 57 02 2c bc ad d7 e6 3c 8d 02 41 39
       0.0077448008 -0.010498605 0.028179014 0.00018406865
000080 39 7f 6f 3c 3b 56 a8 3c e9 d5 0b 3c 18 35 3a 3c
       0.014617735 0.02054893 0.008534887 0.011365198
000090 79 30 62 3c 0e 32 61 bc b3 93 2a bc 36 ce a6 3b
       0.013805502 -0.013744844 -0.010411191 0.0050905
0000a0 d4 d6 e1 3b e9 c6 08 3c 4b 33 5c 3c 1c 7e 01 3c
       0.0068920646 0.008348205 0.013439964 0.007903602
0000b0 c6 63 fa 3c 5f bb 75 3c d7 09 29 3c cb 59 03 bb
       0.030565154 0.014998286 0.010317287 -0.0020042534
0000c0 13 7c a7 bb fe aa db 3c 4f 6c aa bb 42 3d 82 3c
       -0.0051112263 0.026814934 -0.0052008997 0.01589835
0000d0 7c d1 46 bb 1a 9e bc 3c f4 98 57 bc 00 00 00 00
       -0.0030337265 0.023024607 -0.013159025 0.0
0000e0 8d 8f 21 3c f3 58 b2 3b 6b 32 e8 3b cc 99 ac 3c
       0.009860885 0.0054427325 0.0070860884 0.02106943
0000f0 ec 29 ac bb ff 3c 8c 3c 33 11 a1 3c 7d d6 49 3c
       -0.005254021 0.017118929 0.019661522 0.012319204
000100 01 5a 05 bc 07 07 55 3c 51 c0 91 3c 20 f4 b9 bb
       -0.008139134 0.013002164 0.017791899 -0.005674854
000110 41 11 93 3c 42 2b 79 3c 3d 9e 97 bb d8 55 af 3c
       0.017952563 0.015208067 -0.004627018 0.021403238
000120 d7 38 79 bc ba 33 6f 3c 42 e2 a8 3b f1 a8 a2 bb
       -0.015211306 0.014599735 0.005153925 -0.004963987
000130 0c ce 05 3c 46 98 5e 3c b2 87 73 3c ce cf 05 bc
       0.008166801 0.0135861095 0.014863895 -0.00816722
000140 be 3a 1c 3c c9 23 de bb 52 23 e7 3c 69 fb 50 3c
       0.00953549 -0.0067791683 0.028215084 0.012755253
000150 41 2c 01 3d 80 e6 64 3c db 93 a7 bb 53 1e 16 3c
       0.031536344 0.013970971 -0.0051140613 0.009162503
000160 d5 a7 c9 bb 1a 1b e6 bb ff 81 c4 bb 65 0c 1a bc
       -0.0061540403 -0.0070222737 -0.005996942 -0.009402369
000170 9e 4f a9 b9 99 b9 aa 3a 7e d5 02 3d f2 c5 36 3c
       -0.0003229351 0.0013025283 0.031941883 0.011155592
000180 30 e0 9b 3c 0f 7d 6e 3c 97 42 6d bb 65 8f 8d bc
       0.0190278 0.0145561835 -0.003620302 -0.01728029
000190 ec f0 68 3c 30 ec 12 3c 34 1c 9d ba a8 19 66 3c
       0.0142175965 0.008967444 -0.0011986555 0.014044203
0001a0 d2 0b 28 bc 64 f7 8d 3a 3f 51 27 3c 63 78 8a 3b
       -0.010256724 0.0010831174 0.010212242 0.004225777
0001b0 ff 18 3c 3c f0 a2 27 3c 9b 96 67 bb 16 d5 a0 3c
       0.011480569 0.010231718 -0.003533757 0.019632857
0001c0 22 0a 0d bc 11 44 ab bb 4b 57 9b 3c f0 08 39 3b
       -0.008608373 -0.00522662 0.018962523 0.0028234087
0001d0 58 ae 86 3c db 65 a3 3b c8 74 0b 3c c9 c9 94 3c
       0.016440555 0.0049865074 0.00851173 0.018162625
0001e0 8e 10 8a 3c 70 5d 5d 3c e8 e2 3c bc 8f 60 f3 bb
       0.016853597 0.013511047 -0.011528708 -0.007427282
0001f0 ed 84 8f 3b bf 3d 2c bc 03 c0 86 3c 34 19 6f bc
       0.0043798597 -0.010512768 0.01644898 -0.014593411

sequential/dense/MatMul f4 [128, 1088]
000000 90 48 4b bd 0d cb 79 ba 6c 8b b5 3c 3c 47 45 bd
       -0.049629748 -0.0009528853 0.022161208 -0.048163638
000010 f2 d0 8a bd 2f 98 62 bd 12 50 3d 3d bf 64 3f 3d
       -0.067781344 -0.055320915 0.04621894 0.04672694
000020 ad 4e 95 3d ff eb 7b 3b 87 10 1f 3d 63 bc 36 bd
       0.07290397 0.0038440225 0.03883412 -0.044613253
000030 2c 3e bc bc 8e 0c 67 3d 66 b4 cc 3c f8 1a ad bc
       -0.022978865 0.056408457 0.024988364 -0.021131024
000040 7d 7a 3d 3c 71 e1 25 3d e3 a3 b9 ba 1e 6c b3 3b
       0.011564848 0.0404982 -0.0014163222 0.005475535
000050 fd d1 59 bd 30 a1 8e bc 61 35 28 3c 8b 8e ae bc
       -0.053178776 -0.017410845 0.010266633 -0.021308204
000060 a5 fe 6c bd f1 6f 44 bd 4c 63 1e 3c 60 81 2e bd
       -0.057860035 -0.04795832 0.009667229 -0.04260385
000070 23 e1 1d 3d b9 a2 0d 3c 7b 8c 4c 3d cd 95 c2 bc
       0.038544785 0.008644753 0.04993866 -0.023753071
000080 b3 03 53 3d 66 b5 0c 3c fd 99 12 3d ab 27 8e 3c
       0.0515172 0.008588171 0.035791386 0.0173529
000090 e8 20 a5 bc 01 08 02 bb 20 21 3c bd 5d 83 58 3d
       -0.020157292 -0.0019841196 -0.045930028 0.052859653
0000a0 fa f8 1a 3d 19 2c 8e bd c2 89 35 bb 43 b2 43 bc
       0.0378351 -0.06942005 -0.0027700518 -0.011944356
0000b0 b1 74 0d bc 52 cc 65 bc 07 08 e4 bc 4f 15 fa bc
       -0.008633778 -0.014025765 -0.027835859 -0.030527739
0000c0 ca 35 8b 3d 8d c6 3f 3d 3c e8 6b 3d 4f cf 14 3d
       0.06797369 0.046820212 0.057594523 0.036330517
0000d0 88 6f 53 bd e8 ed 18 3d 65 03 18 bd 4b a7 48 3d
       -0.051620036 0.03733626 -0.037112612 0.048987668
0000e0 0a d2 f7 3c 8f 4d 02 bd 56 2a a5 bc dd 99 31 3c
       0.030251522 -0.031812247 -0.020161789 0.0108399065
0000f0 f9 a8 26 bd 01 81 17 bd 92 e7 23 3d 70 bf 06 3d
       -0.04068849 -0.036988262 0.040015765 0.032897413
000100 7d a4 98 3d 3f 76 03 3d 42 f2 0d bc d1 6b 93 bd
       0.07453249 0.03209519 -0.008663716 -0.07198299
000110 5d 05 61 3d ee 99 c3 3c fe a9 3c bd c6 12 39 bd
       0.054936755 0.02387711 -0.046060555 -0.04518392
000120 ae 8d 4e 3d d9 49 03 3d 4c a7 54 3d 62 d9 61 bd
       0.050428085 0.03205285 0.05191736 -0.055138953
000130 4b eb f2 bc 86 60 97 3d 00 49 26 bd 22 fd 68 bd
       -0.029653212 0.07391457 -0.040596962 -0.05688203
000140 66 36 77 3d 99 70 41 3d 82 e0 d4 3c 76 15 31 3c
       0.060354613 0.047226522 0.02598596 0.010808339
000150 14 a2 9d bb 1c d6 7e bd de 42 28 bd 9d df 0d bd
       -0.004810581 -0.06221591 -0.041079395 -0.034637082
000160 49 f9 93 bd 13 5e 76 3c 79 2f 1e bd bf 17 91 bb
       -0.07225282 0.0150370775 -0.038619492 -0.0044278796
000170 81 10 26 3d ea f9 31 bd 62 95 94 3d 58 1d 1f bd
       0.040543083 -0.043451227 0.07255055 -0.038846344
000180 19 24 9e 3c 2d 68 3a bc bc 7e 1c 3d f4 9d 59 bd
       0.019304322 -0.0113773765 0.0382068 -0.05312915
000190 70 83 bb bc f2 9d a7 bc 08 66 a3 3d ba 9c 75 3d
       -0.022889823 -0.020461056 0.07978445 0.05996392
0001a0 c6 b6 56 3c 08 08 80 3c 00 31 f1 bc d6 2b 9d 3b
       0.0131051 0.01562883 -0.02944231 0.0047964854
0001b0 5e e4 3d 3d 8f 24 51 3c f1 86 18 3d 65 dc 0d bd
       0.046360366 0.012765064 0.037238065 -0.034634013
0001c0 d1 56 1f 3c 11 e0 5a bc 86 1c 48 bd 77 88 a1 bd
       0.0097252885 -0.013359086 -0.048855327 -0.07887357
0001d0 79 36 63 bd 60 75 85 bd 63 37 98 3c c5 56 fb 3c
       -0.05547187 -0.06516528 0.018581098 0.030681023
0001e0 7d 01 97 ba 27 7d 1c 3d bf fd 07 bd 14 2d 30 bd
       -0.0011520829 0.038205292 -0.033200976 -0.04301174
0001f0 8f 29 00 bd 2b 9e 6e 3d 21 08 e3 3b 72 9f 8f bd
       -0.031289633 0.05825631 0.0069284593 -0.07012834
000200 f2 0e 08 3c 73 f6 4e 3c 69 65 98 bd b1 f0 4f bd
       0.0083043445 0.012632 -0.074412175 -0.05076665
000210 63 2a 21 3d 9f b0 47 bd 86 88 19 bd 31 47 07 bd
       0.039347064 -0.048752423 -0.037483715 -0.033026878
000220 70 fa 52 bc 79 1e 06 bd ef 42 db bc be 2f 7e 3d
       -0.012877092 -0.032743905 -0.026765315 0.06205725
000230 f5 e4 dd 3c 61 56 80 3d 70 e1 e1 bb 01 6e 52 bd
       0.027086714 0.062664755 -0.0068933293 -0.05137444
000240 8a fd 73 3c e3 29 b7 3c 12 7f 3c 3b 60 32 1d bb
       0.014891991 0.02235884 0.0028762263 -0.0023986325
000250 e5 82 48 bd 9e 49 26 bd cd 73 a1 bb a2 ff 50 3d
       -0.048952956 -0.04059755 -0.0049271346 0.05102504
000260 45 c6 74 3c 45 1f 00 3a 56 80 24 3c a7 9a 03 bd
       0.014939849 0.0004887472 0.010040363 -0.03212991
000270 80 25 2e 3d 3a 32 2f 3d fe b5 82 bd 95 d2 34 39
       0.04251623 0.04277251 -0.063823685 0.00017244586
000280 4c 84 4b bd e1 b9 a7 bc 0f 03 21 3d 1e 1f 79 bd
       -0.049686715 -0.020474376 0.039309558 -0.06082069
000290 be 8d 5d 3b 7a 34 e4 3c 9d 01 14 bd be 2f 5f 3d
       0.0033806409 0.027857054 -0.03613435 0.05448889
0002a0 2c fd 4e 3d 07 05 cc 3c 27 be 50 bd 78 9b 8a bd
       0.050534412 0.024904741 -0.050962593 -0.067679346
0002b0 e4 8a 16 3d 34 63 80 bd 9d 9f 4a bd 6b dd 25 3c
       0.03675355 -0.062689215 -0.049468625 0.010123591
0002c0 4e 55 8b bd e5 ff 69 3d 40 71 3d 3c e8 10 c7 3b
       -0.0680338 0.057128806 0.011562645 0.0060750134
0002d0 0e 65 50 bd b5 3e b4 3a 9a 66 dd bc bc 15 07 3d
       -0.050877623 0.0013751598 -0.027026463 0.032979712
0002e0 c0 9f 20 3d 7b a3 97 3b 60 95 1e bd 3b 47 15 3d
       0.03921485 0.0046276427 -0.038716674 0.036444884
0002f0 5e 87 2d 3d 8b 3e 6c bd be 13 86 3d 48 c7 3a bd
       0.042365424 -0.057676833 0.06546734 -0.045600206
000300 5e 20 ff ba 17 5f f0 3c dc 18 3c 3d 70 cf 7c 3d
       -0.0019464602 0.029342217 0.045922145 0.061721265
000310 92 50 2f bd 79 ab d5 bc d9 b1 61 bc 08 77 60 3d
       -0.042801447 -0.026082741 -0.013775312 0.054801017
000320 97 25 42 bd a4 31 ce 3c 54 bd 34 bd bd b4 67 bc
       -0.04739913 0.025170155 -0.04412587 -0.014142212
000330 ee c9 a0 bc c0 08 10 3c c4 b8 93 3c 43 8e ce 3b
       -0.019627538 0.008791149 0.018032439 0.00630358
000340 8d 35 c6 bc 7a 76 77 3d 1e 17 3a bb c4 c9 dc bb
       -0.024195457 0.060415722 -0.0028395127 -0.0067379195
000350 6c bb ea 3c c8 2a 2a 3c 9d f9 56 3d a0 71 63 bc
       0.028653823 0.010386176 0.052484144 -0.013882071
000360 15 7e c2 bc bb 24 29 3d 22 0d 39 bb 57 47 08 3d
       -0.023741761 0.041294795 -0.0028236588 0.03327116
000370 65 ea 3f bc 9c 7d 48 bd e2 d7 94 3d 11 c6 a4 3d
       -0.011713599 -0.048947915 0.07267739 0.08045591
000380 7c 15 b6 3c 26 d0 34 3d 8d 3c 2d 3c db 92 0a bd
       0.022227041 0.04414382 0.010573518 -0.03383146
000390 35 bc 9f 3b 1d 7d aa 3c ca 74 31 bd 06 85 1b 3d
       0.004874731 0.020811612 -0.04332427 0.037968658
0003a0 e1 79 14 3c 6a a2 5b 3c bc 19 1a bd a4 37 2d bd
       0.009062261 0.013405422 -0.0376222 -0.04228939
0003b0 9e 4b 99 bd 78 a7 2f bc 8b fe 15 3d 56 71 75 bd
       -0.07485126 -0.01072108 0.036619704 -0.05992254
0003c0 90 62 8e bc 55 bd 56 3b 62 23 f9 3c 2a 0b 4c bc
       -0.017380983 0.003276666 0.03041238 -0.012453834
0003d0 f2 86 3f bd 12 c8 47 3d 47 75 a8 3a 85 b7 6e bd
       -0.046759553 0.048774786 0.0012852334 -0.058280487
0003e0 f4 a3 c6 bc db 77 bc bc 2e 93 a1 bb cf 47 06 3d
       -0.0242481 -0.02300637 -0.0049308753 0.032783326
0003f0 b0 60 30 3d 95 4d 7c bc 32 1a e1 bc b0 28 7c 3d
       0.04306096 -0.015399356 -0.027478311 0.06156224

sequential/dense_1/MatMul f4 [128, 128]
000000 d4 c5 f8 3c 98 d1 16 be 94 04 14 3d 9a bd 66 bd
       0.03036777 -0.14728391 0.03613718 -0.056333162
000010 65 b9 23 3d 6e 61 1f 3d 9e c0 f6 3d 97 15 89 bc
       0.039971728 0.038911276 0.120484576 -0.016733928
000020 44 7b c9 bd ad f8 49 be 35 e7 d7 bd a1 6b f1 bd
       -0.09837964 -0.19723769 -0.10542146 -0.11788107
000030 ac 00 03 3e ca f5 d0 3d f5 b5 23 be 8e 7e 12 3e
       0.12793225 0.102031305 -0.1598738 0.1430609
000040 5d 8c 18 be 21 f1 43 3c 39 b3 9a bd 4f 1c f3 bd
       -0.14897294 0.011959345 -0.07553715 -0.11870634
000050 01 43 16 be 03 79 f1 3d 99 88 2c 3c 38 f6 d3 bd
       -0.14673997 0.11790659 0.010530614 -0.10349697
000060 27 2a d2 bd 13 ae e5 3d ca 39 c4 bd 59 8f 26 3d
       -0.10261946 0.11214843 -0.09581335 0.04066405
000070 b0 60 5f bd 1e 8d 18 3d b0 ae 00 3d c9 00 28 3e
       -0.054535568 0.037243955 0.031416595 0.1640655
000080 28 f5 c4 bd e2 dc fe bd 71 53 59 bd 32 61 f8 3b
       -0.09617072 -0.12444474 -0.05305809 0.007579946
000090 26 51 d5 bb f3 81 a8 3d 98 90 47 be 2a 57 a9 bd
       -0.006509918 0.08227911 -0.19488752 -0.08268578
0000a0 49 50 1d be 26 4f 33 be 14 f0 d0 bc ed b4 5f bd
       -0.15362658 -0.17510661 -0.025505103 -0.054615904
0000b0 7e 17 b0 bd dd d7 4e 3c 64 46 6a bd 86 e5 a9 3d
       -0.08598231 0.012624708 -0.057196036 0.08295731
0000c0 f5 c5 f7 3d 1e c1 b4 3d a4 50 73 3d 4f 82 75 3d
       0.12098304 0.08825897 0.059403077 0.059938725
0000d0 08 69 ac 3d 8f 61 81 be 81 aa d6 bd b5 de a9 bd
       0.084184706 -0.25269744 -0.1048174 -0.08294431
0000e0 3e df a5 bd b7 ed a7 3d 57 50 e9 39 62 e8 18 3d
       -0.08099221 0.081996374 0.0004450108 0.037330993
0000f0 1e de 75 3d c4 3c 26 bd fb f9 ed 3d 16 b1 01 3e
       0.06002628 -0.040585294 0.116199456 0.12665209
000100 5a f9 13 3e c9 ad 96 bd 50 aa 0f be 7d 17 41 3e
       0.14450589 -0.07357366 -0.14029813 0.18856616
000110 0f 5a e7 bd 57 ad b2 3d 83 cf 1e bc cc 06 6d bd
       -0.11296474 0.08724468 -0.009693029 -0.05786781
000120 13 3b 68 3d 88 aa e1 3d 1b ba b5 3d 61 a3 93 3d
       0.056696963 0.110188544 0.088733874 0.072088964
000130 4e bc 62 3d 1a aa 27 3e ea 77 2f be a4 36 91 bd
       0.055355363 0.16373482 -0.17135587 -0.070905
000140 d5 21 19 3d 00 96 c0 3d f1 a6 af 3d 45 af 0f 3e
       0.03738578 0.0940361 0.085767634 0.14031704
000150 ef 30 f8 3d ac 96 e9 3d 73 2c 80 3d 5d b2 ac 3d
       0.12118708 0.114056915 0.06258478 0.084324576
000160 9c de 01 3d ae e5 5e 3d 85 1d 17 3e a1 00 88 be
       0.031706437 0.05441826 0.14757355 -0.2656298
000170 de e3 c6 bd 9e 1d 54 be a6 8c 82 bd 57 9e 0f 3e
       -0.09711431 -0.20714423 -0.06374483 0.14025246
000180 35 8e 91 bd 76 e8 6d 3e 2f ee 30 be 29 6d 4b 3d
       -0.07107202 0.23233208 -0.1727836 0.04966465
000190 5f 9c 7c bd 2d 05 33 3e 31 4f f7 3d 31 e3 02 bd
       -0.061672565 0.17482443 0.120756514 -0.031954948
0001a0 5e 96 b6 bd 13 84 b7 bd d5 7d 72 bb 52 ce 27 3d
       -0.08915399 -0.08960738 -0.0037001271 0.040968247
0001b0 c0 54 a9 bc f4 a1 ad bd 23 52 ae bc 44 a9 27 be
       -0.020670295 -0.08478156 -0.0212794 -0.16373163
0001c0 40 2e e8 3c 6c 61 31 3e c1 e4 3a 3e d3 ab 86 3d
       0.028342366 0.1732232 0.18251325 0.065757416
0001d0 32 a2 4d 3d 6d eb 9f bd 5e b0 25 3e 4f 60 15 be
       0.05020351 -0.07808576 0.1618056 -0.1458752
0001e0 61 3d 9f bb dd 6f 13 3e 5f e3 dc bd 6d 09 b3 3d
       -0.004859612 0.14398141 -0.10785555 0.08742032
0001f0 02 9d 0d 3e fb 7e 58 bd ed f3 5a bd 5d 52 3d bd
       0.13829425 -0.052855473 -0.053455282 -0.046221126
000200 33 d1 ff bc 52 78 ef 3d b7 48 95 bd 8c 89 35 3d
       -0.031227684 0.11692871 -0.0728926 0.044320628
000210 50 83 03 bb 34 63 19 be 25 4e c0 3d 20 8c 94 bd
       -0.0020067282 -0.14979249 0.09389905 -0.07253289
000220 ab b8 99 ba 64 83 f5 3d f7 f9 0f be d8 d6 a6 bd
       -0.0011728009 0.119879514 -0.14060198 -0.08146447
000230 ea 52 ef 3d 97 e8 81 3d c7 bf 9e 3d 41 b1 47 bd
       0.116857365 0.06343191 0.077514224 -0.048753027
000240 a6 39 de bd d2 bb 5c bd 1a 64 dc bd db 03 1c be
       -0.10850839 -0.053890057 -0.1076128 -0.15235846
000250 9b 40 a8 3d 65 ba c0 3d 39 b7 86 3d 30 d4 53 3c
       0.082154475 0.09410552 0.06577916 0.012929007
000260 a7 b8 d1 bd 27 92 32 bd e4 e3 b9 bd 23 10 ea bd
       -0.10240298 -0.043596413 -0.0907667 -0.11428859
000270 9c 6c d4 3d b2 6e 51 3d ad 46 87 bd a9 5b 8e bd
       0.10372278 0.051130958 -0.06605277 -0.069510765
000280 20 00 b8 3c 85 12 55 3d 98 d2 97 3d 81 78 e8 3c
       0.022460997 0.052019615 0.074132144 0.028377773
000290 4d df ec bd 14 f1 c2 3c b1 bb 62 bd d3 bb cf 3d
       -0.11566029 0.023796596 -0.055354778 0.101432465
0002a0 d3 7f d7 3d 85 7d 98 bc b8 46 0d be 35 84 f0 3d
       0.105224274 -0.01861454 -0.13796508 0.117439665
0002b0 8a 3d fd 3d 6f 84 a6 3d ba 3c a1 bd e4 e0 e1 3d
       0.12365253 0.081307285 -0.07872911 0.110292226
0002c0 41 f2 f8 bc 19 7f 18 be ae 05 4e 3d 31 1d 60 bd
       -0.030388953 -0.14892234 0.050298385 -0.05471534
0002d0 29 14 07 be 8a 2c 2a bd b7 d9 25 3d 69 d7 c7 bd
       -0.13191284 -0.041546382 0.040490832 -0.09757883
0002e0 70 d7 25 3d e0 cf 4c bd b1 e3 c8 bb 3c 79 51 3d
       0.04048866 -0.050002933 -0.0061306586 0.05114101
0002f0 f0 74 89 bd 54 61 f6 bd a9 75 9e bd 34 cf 5c 3c
       -0.06711757 -0.120302826 -0.07737286 0.013477135
000300 92 9e 0b bd 7f ec 4b 3c 8f 61 a1 bc 36 33 11 3e
       -0.03408677 0.012446522 -0.01969984 0.14179692
000310 d4 7b 1d be 15 af 9e bd 74 45 f8 bd 5c 6b 90 3d
       -0.15379268 -0.07748238 -0.12122622 0.07051727
000320 a2 8f de bd e1 f4 24 3d 2d f7 00 be ad 6a e0 bd
       -0.108672395 0.040272597 -0.1259429 -0.10957847
000330 47 ac 8e bc de e8 b7 bd 41 a3 7a bd 20 6b 87 3d
       -0.017416133 -0.08979963 -0.061190847 0.06612229
000340 c4 e5 c6 bc 2e fd 02 be a6 ee a3 bd 5b 49 33 be
       -0.024279483 -0.12791893 -0.08004503 -0.17508452
000350 62 06 21 be 5a a5 12 be 09 b7 f3 bd 7b 90 ec 3d
       -0.15725091 -0.14320889 -0.119001456 0.11550995
000360 a9 53 c9 3d 20 bb 08 bc 84 3b f3 bd 85 c7 67 3c
       0.0983041 -0.008345395 -0.11876586 0.01414669
000370 aa c0 81 bd d2 3c e9 3d 5d 29 51 3d 02 be 09 bd
       -0.06335576 0.11388554 0.051064838 -0.03362847
000380 55 a2 c8 3d 19 18 c2 bd dc 5d 98 3d d8 52 d3 bb
       0.097965874 -0.094772525 0.07439777 -0.0064490847
000390 14 54 b4 3d 89 a7 d7 3c d7 c3 1f 3b 51 1f 93 bd
       0.08805099 0.026325004 0.0024378204 -0.071837075
0003a0 5e 5f c6 bd c0 40 d6 3d 4f 97 bb bd 47 ee 92 bd
       -0.096861586 0.10461569 -0.09159719 -0.07174354
0003b0 24 07 5d 3d 3b 23 83 bd a2 59 9e 3c ed e3 0e 3e
       0.053961888 -0.06403204 0.01932985 0.13954134
0003c0 5e 33 9d bd e3 ff fd 3c 3f db eb bb 01 63 08 3e
       -0.07675813 0.031005805 -0.007197767 0.13319017
0003d0 09 56 8f bd 02 f7 62 bd 74 e0 0c bd 3a b3 20 be
       -0.06998832 -0.055411346 -0.034393743 -0.1569337
0003e0 0a 30 22 3d 69 91 65 bd 31 7e d7 3c 3c f3 9f bd
       0.039596595 -0.056046877 0.02630529 -0.07810065
0003f0 52 f1 88 3c a2 76 ca 3d 1b a2 c3 3c 28 55 8a 3d
       0.016716633 0.09885909 0.023881009 0.067545235

sequential/dense_2/MatMul f4 [7, 128]
000000 09 67 67 be f2 49 89 bd e1 dd 7a be cd cb dc bd
       -0.22597899 -0.06703557 -0.24498703 -0.107810594
000010 28 3a cd bd b6 9e 36 3e 44 01 85 be cf 44 f7 3d
       -0.10020858 0.17833981 -0.25977528 0.12073671
000020 ad 39 fc 3d 83 5d f3 3c 13 38 35 be 7a f8 fb 3d
       0.12315688 0.029707676 -0.17697172 0.123032525
000030 a6 f5 85 3d c7 07 ec 3c 80 9a 41 3e 27 f1 3f be
       0.06540994 0.028812302 0.18906593 -0.18744336
000040 3e b9 08 be 5c 1d c5 bd a6 3d 2a 3e 9a 40 16 be
       -0.13351914 -0.096247405 0.1662508 -0.14673081
000050 50 d0 e8 3d ed 12 90 bd 7d 8c 8d 3e 00 61 61 bd
       0.113678575 -0.0703486 0.27646247 -0.055024147
000060 d7 d2 98 bd 5c eb cc 3a 78 f5 02 3e c1 d5 4c be
       -0.074620895 0.0015634107 0.12788951 -0.20003416
000070 92 bf 48 bd 2d f2 b9 3c 9f 48 80 3e 8b 59 02 3e
       -0.04901082 0.022698486 0.25055405 0.1272947
000080 bd d0 46 3e f4 e0 28 be 07 6b f9 3d be 18 1e 3d
       0.19415565 -0.16492063 0.12178617 0.038597815
000090 1f f3 97 3d 5b 0e 65 bd 5c 44 56 be d3 2d d2 3d
       0.074194185 -0.055921894 -0.20924515 0.102626465
0000a0 08 f4 0d 3e f0 94 40 bc 73 a8 05 3e 05 d7 7d be
       0.13862622 -0.0117542595 0.1305254 -0.24789055
0000b0 c2 63 03 3e c4 1e b6 3d ce 53 b5 bd 2f ff 68 be
       0.12831023 0.08892587 -0.08853875 -0.22753595
0000c0 73 00 c0 bd cf 3c 84 be e8 41 1a be 17 e9 86 bd
       -0.09375086 -0.25827643 -0.15064204 -0.06587427
0000d0 7f d7 49 3b 8c 4f 62 3e 0b 24 14 be b3 06 fb bd
       0.0030798612 0.22100657 -0.14466874 -0.12257137
0000e0 32 2f 25 3e ad 98 6d be f1 c7 82 be 8b 1b 66 bc
       0.16131285 -0.23202772 -0.25543168 -0.014044653
0000f0 bf c7 86 be 51 8a 78 be 6a e1 38 3e 6b eb 7d be
       -0.2632427 -0.24271514 0.18054739 -0.24796836
000100 16 91 4c be 81 ad 21 3e af 6c b4 3d 13 37 d2 bd
       -0.19977221 0.15788843 0.08809792 -0.10264411
000110 16 b2 90 3e 21 ee 08 3e ae d2 20 be 42 4a 9c be
       0.2826087 0.13372089 -0.15705368 -0.30525404
000120 60 91 2b be b4 ba 0a 3e ee 22 29 3e 82 d3 f6 bd
       -0.16754675 0.13547784 0.16517231 -0.12052061
000130 7d c4 88 be f2 d3 16 3e 27 6d 4e 3e 9e ba 83 be
       -0.2671241 0.14729288 0.20158826 -0.25728315
000140 6f b9 8e be 83 eb ce 3b 6f 81 95 bd 9f d3 33 be
       -0.2787585 0.0063146963 -0.07300078 -0.17561196
000150 ba d8 87 be 3d 64 bd bd 88 03 06 be 44 d8 02 be
       -0.26532537 -0.092476346 -0.13087285 -0.12777811
000160 49 82 d7 3c d5 96 21 be c1 db 7b 3d fe a2 33 be
       0.026307242 -0.15780194 0.06148887 -0.17542645
000170 71 d1 9b 3a f1 b6 87 be 63 fa 4c 3e 95 f3 e9 bd
       0.001188798 -0.2650676 0.2001739 -0.11423413
000180 ce 46 b2 bd 34 dd 29 3e 38 d8 8b be 26 6f 07 be
       -0.08704911 0.16588289 -0.273134 -0.13225994
000190 65 ac 3c 3e 94 ad 7d be f2 e8 3d be da ab 16 be
       0.18425138 -0.24773246 -0.18545893 -0.14713994
0001a0 ec 63 a6 bd 4a e2 35 3e 35 37 70 bd f6 ae 72 bd
       -0.08124527 0.17762104 -0.0586464 -0.059248887
0001b0 4d e5 0e be 16 33 45 be 87 e3 cc 3d 26 5c 97 3d
       -0.13954659 -0.19257769 0.10004335 0.07390623
0001c0 be dc f3 bd be 52 1a be 4d a4 8a 3e b8 a2 4e be
       -0.119073376 -0.15070626 0.27078477 -0.2017926
0001d0 b5 5f 90 3e fd 42 eb bb a6 c5 07 3e 68 f8 6b bd
       0.2819802 -0.0071796165 0.1325899 -0.057609946
0001e0 e5 cd 61 3c a0 53 6a 3e 24 59 2b be f2 e2 9e bd
       0.013781999 0.22883463 -0.16733223 -0.0775813
0001f0 c5 d2 5f 3e f3 af 48 be e2 ca 84 be 58 48 19 3d
       0.21857746 -0.1959837 -0.25936037 0.037422508
000200 48 78 56 3e df a2 a6 3d 33 38 0c bc c9 71 05 bd
       0.20944321 0.08136534 -0.008558321 -0.032579217
000210 82 1c 3b 3e 08 a2 34 bd b5 10 20 be 08 c3 36 3e
       0.18272594 -0.044099838 -0.15631373 0.17847836
000220 17 ee b4 3d 13 f2 a2 bd 0b 99 a3 3d 66 e3 80 bc
       0.088344745 -0.07956328 0.07988175 -0.015733432
000230 45 4a 0a 3e c5 d6 1c be d7 eb e0 bd cd 5d 0f 3d
       0.13504894 -0.15316303 -0.10982483 0.035001565
000240 80 99 9b 3d 9f b3 dc bc 17 f5 1e be f5 13 43 bd
       0.07597637 -0.026941119 -0.15523182 -0.047626454
000250 5e 74 43 bd b0 ba 88 be 43 bf ab 3d 80 ad 37 3e
       -0.0477184 -0.2670493 0.0838609 0.17937279
000260 1e 87 cd bd bf 7a 93 be 48 9c 1a be 6b f4 dd 3d
       -0.10035537 -0.28804585 -0.15098679 0.10837635
000270 49 7b af 3d 5b 2b 39 3d 59 64 6d bd 0a e9 70 bd
       0.08568437 0.045207363 -0.057957027 -0.058815993
000280 bd 4e 43 be 0b 33 90 be a4 05 85 3e bb df 9d bd
       -0.19073005 -0.28163943 0.25980866 -0.07708689
000290 bf d0 8e 3d ce 99 1a be 91 44 5d 3e 67 5a e8 3c
       0.06973409 -0.15097734 0.21608187 0.02836342
0002a0 db 3a 31 bd 3d 5c 13 3e 89 e2 0c be c9 c1 6a be
       -0.04326902 0.14390655 -0.13758291 -0.22925486
0002b0 e1 b0 59 be 26 c1 b9 bd 71 77 8d bc 58 53 86 bc
       -0.2125888 -0.09070043 -0.017268868 -0.016397163
0002c0 76 07 80 bd 7d 27 0b be 5d f8 c9 bd 92 1c 86 3e
       -0.06251423 -0.13589282 -0.09861825 0.26193672
0002d0 24 b6 eb bd f2 f8 b9 3d 80 f6 b7 bd 8c 82 bc bd
       -0.1150935 0.09080686 -0.08982563 -0.09204587
0002e0 10 8c 6e be 83 11 65 3d 0a 06 2e bd b4 80 84 be
       -0.23295617 0.055924904 -0.042486228 -0.25879443
0002f0 8d 4c 97 3e 7e 2b 47 be 35 f1 5a 3e 8a 02 6f 3d
       0.2955059 -0.19450185 0.21381076 0.05835203
000300 33 09 50 be 00 5a 6a 3e d0 5b 80 be 1d ef f8 3d
       -0.20316009 0.22885895 -0.25070047 0.12154982
000310 7d d4 36 bd 4b e7 71 3e bc a5 c2 3d 55 63 b8 3d
       -0.04463624 0.23623388 0.095042676 0.09003321
000320 32 47 25 be aa 38 5d be c5 71 64 bd ce f5 11 be
       -0.1614044 -0.21603647 -0.05577256 -0.14253923
000330 6d f7 36 3d d4 b0 16 be e9 a2 3b be 41 4e 5d 3e
       0.044669557 -0.14715892 -0.18323864 0.21611883
000340 08 a9 0a 3c d0 e3 2f bc 07 81 36 be 44 30 9f be
       0.008463152 -0.010735467 -0.17822658 -0.3109151
000350 67 f0 89 3c f7 28 f4 bc 5d 4b a2 3d 48 3b 31 3e
       0.016838266 -0.02980469 0.07924531 0.1730777
000360 48 62 65 bd c4 74 4c 3e 0f 3f 1d 3e bb ac 1a bd
       -0.05600193 0.19966418 0.15356086 -0.037762385
000370 f4 0b 28 be b2 e4 8a 3d 62 9b 63 3e 6d 07 cb bd
       -0.1641081 0.067819014 0.22227243 -0.09913526
000380 f5 50 10 3e f0 ae 47 3e f4 d7 77 bd 79 00 4d 3e
       0.14093383 0.19500327 -0.060508683 0.20019712
000390 c5 18 24 be 8d f1 1e 3e 84 42 97 be ff 2f 90 bd
       -0.16025074 0.15521832 -0.29542935 -0.070404045
0003a0 24 c6 86 bd 96 9c 42 bd 03 49 8a be 30 c2 e2 3d
       -0.06580761 -0.047512613 -0.2700883 0.110721946
0003b0 8b b3 15 3e 65 9b d2 3d af bc c9 3d 3f c5 55 3d
       0.14619271 0.102835454 0.09850442 0.05219006
0003c0 bb 6c 7b 3d d0 7c 23 bd 1f 8a 10 be a7 12 1c bb
       0.06138299 -0.039913952 -0.14115189 -0.0023814829
0003d0 08 73 35 bc 8e c6 79 3d 88 2e 71 be cb 65 84 be
       -0.011074789 0.060980372 -0.23552907 -0.25858912
0003e0 5b bf 33 be d5 db 65 be 70 7e 34 3d 2d 4a 37 be
       -0.17553465 -0.2244714 0.044065893 -0.1789939
0003f0 af 5c ce 3d 33 3f 83 3d 06 91 7c bd cd 3c f1 3c
       0.10076272 0.06408539 -0.061661743 0.029447937
