assets/modelo_intents.tflite (tflite, 758612 bytes, 7 tensors)

sequential/embedding/embedding_lookup f4 [500, 64]
00000000: 60fb 633d 1c6a a3bd 3113 88bd d182 a9bc
00000010: 0e79 473d 5a48 373d edba f23c 6e40 243d
00000020: 535c 47bd d5f5 99bd 59c6 51bd 578d 5fbb
00000030: f594 2bbd f49a dcbc 59b9 8f3d d294 f3bc
00000040: 75fc 92bd 5449 f7bc df33 683d f82b 233d
00000050: a010 4fbd 847b 8dbd c826 523d 435e 263d
00000060: 7b2b 6e3c 2146 7cbd 1ddb 843d e2c1 a1bc
00000070: 2a2e 113d 3939 723d c414 183d 7ee3 fd3c
00000080: 204f f3bc 66d8 653d fa99 913d 1e3d 843d
00000090: 6e56 233d 890f 98bd a047 a4bd 2e46 b93c
000000a0: c082 413d dd8d 833d 0e5a c9bc 6353 5e3d
000000b0: 8917 d6bc 8a58 fcbc 87f7 26bd e5b4 d23c
000000c0: fedd 3b3d 3ba6 9f3d 853c 4e3d e4b2 2ebc
000000d0: 1715 363d 36b0 91bd 4e03 fbbc 59d1 873d
000000e0: 0e4b 5f3d ae34 18bd 593d 00bd d7a6 4d3d
000000f0: 7235 413d 4ccf 2e3d 9f8c b93d feda 993d
00000100: 68de c93b b0f1 a0bb ba7b a6bc e76b ccbc
00000110: ae13 dd3c b0bd d1bb 2842 79bc 180f 113c
00000120: 4091 923a 985d 813b 20dc 26bd 0ef0 8e3c
00000130: fdeb 133d 43fa 0fbd 86cc fb3c c3a5 103d
00000140: 263e b13c 57b9 31bd c0dc 503a a20b bc3c
00000150: 003e aeba 2d42 b7bc 9a9c eebc c7bf 1a3d
00000160: 9a3c bcbc e6d2 c03c fa4d 87bc 4131 293d
00000170: b2e8 de3c c30c 373d 161d 1cbd 40bf 63ba
00000180: 6efe c93c 4d32 233d b25c ec3c cec1 a13c
00000190: 8db4 e7bc 2272 e73c 721c cd3c d376 303d
000001a0: d4f7 96bc 1325 22bd 6613 85bc f249 d23c
000001b0: 733c 333d 1782 2e3d 0028 3c3b 6882 6dbc
000001c0: 74b5 12bc ad2e bdbc 3a23 3dbd 1825 2ebc
000001d0: a722 093d 1afc d53c 4c40 093c 00dc 493b
000001e0: 6cef 95bc 205f b5bc edb5 053d 2635 c03c
000001f0: da27 43bd 69e3 373d 9288 de3c e6bf bd3c
00000200: bb3d 843d 4b7f 163d be06 a33d 389a bb3d
00000210: ebf2 6ebd b77e 933d 366f b83d 3350 af3c
00000220: 5030 a0bd 830d b63b 7c03 e4bd f4d4 b33d
00000230: 4855 5bbd ff4a eabc 3259 233c 248e 76bc
00000240: a56c 5f3c 9ee0 be3d 16eb 43bd 7d1a b6bd
00000250: 7cc1 763d 43c4 1c3d 7de5 0439 2b46 23bc
00000260: c5b1 3dbd c2c5 4c3c d763 dabb b37a 093d
00000270: 1323 943d 4a9b ac3a dd73 9f3d 3c4a e43d
00000280: cee6 c73c 25e3 71bb 5bbc b1bd 5be2 f63d
00000290: 05a0 d6bd 263a 3ebd 8266 c1bd d861 1a3c
000002a0: 3bc3 743d 9928 693d 1364 5cbd 3f69 97bd
000002b0: ef2c 8a3d 2190 30bd f740 bbbd 0a65 c03d
000002c0: 6afa d0bd bb30 d4bc c4a6 13bd 619a 6ebd
000002d0: b18f 40bd 08e1 b4bd fa30 a23d 7e1a da3d
000002e0: 27f7 85bc f946 3c3d 2ae0 5cbd 2c3a b0bd
000002f0: 1732 b2bd da48 ad3d 03b5 d93c 9fb9 0f3d
00000300: f560 a73d 17da 82bd a581 73bc 8036 653d
00000310: 9336 933d 2ff2 9fbd b943 bc3c 19a6 eebd
00000320: 8729 283e 747f 4c3d ce39 0c3d c3e0 86bd
00000330: ab5a 00be a9ce 1c3e d593 243e d0ad e0bd
00000340: 3165 0b3e 950c be3d ceba 1f3e 4686 80bd
00000350: 4fab 37bd f583 51bc 5a4b ed3c 2397 ad3d
00000360: 68b6 113e b7ef fa3d c0bb 7dbd 5b9d 65bc
00000370: 5592 303e 6b18 4d3d 5dce 193d 2f38 a4bd
00000380: c50b 8cb9 66fa 103e 24f4 783d e313 ab3d
00000390: 1b9b bf3d 0e47 c9b9 33b9 5fbd 66f0 b6bc
000003a0: f84c 1bbd 91e6 c5bd 230b b3bc 1623 ecbd
000003b0: 274a f6bd 60f8 c9bd 8bf3 103c 4da9 023e
000003c0: 1f5f 1e3e 67ec cb3d b104 0fbe 1b18 bfbd
000003d0: f2bf 1f3e dd2f d63c 72cf 373d e576 02be
000003e0: 9c60 2e3e c1a9 2ebc 0760 7dbb fa44 1b3e
000003f0: 1b0c 1a3d ac92 193d e9f6 dbbb 46d2 96bd
0.05565965 -0.07979223 -0.066442855 -0.020692261 0.04869943 0.044746734 0.029630149 0.040100507
-0.04867203 -0.07517592 -0.05121455 -0.0034111345 -0.041890103 -0.026929356 0.07017774 -0.029734049
-0.071770586 -0.030186333 0.056690093 0.039836854 -0.050552964 -0.06908324 0.051306516 0.04061724
0.014536734 -0.061590318 0.06487105 -0.01974577 0.035444416 0.059136603 0.03712918 0.030992266
-0.029700816 0.056114577 0.07109447 0.0645697 0.039877348 -0.07424838 -0.08021474 0.022616472
0.047243834 0.06423543 -0.024579074 0.054278743 -0.02613427 -0.030803937 -0.040763404 0.025721023
0.045866005 0.07795378 0.050350685 -0.010662768 0.044453707 -0.07113688 -0.030641224 0.06631727
0.054514937 -0.037159614 -0.031308506 0.05020794 0.04717011 0.042678162 0.090600245 0.075124726
0.006160546 -0.004911624 -0.02032267 -0.024953796 0.026986923 -0.0064007863 -0.015213527 0.008853696
0.0011182204 0.003947925 -0.04073727 0.017448451 0.036113728 -0.035150778 0.030737173 0.035314333
0.02163608 -0.043389644 0.00079674646 0.022954766 -0.0013293624 -0.022370422 -0.029127408 0.03778055
-0.022978116 0.023538064 -0.016516674 0.041306738 0.027210567 0.044689905 -0.038113676 -0.0008687861
0.024657454 0.039842892 0.028852794 0.019745734 -0.028284336 0.028252665 0.025037978 0.04308207
-0.01842872 -0.039586138 -0.016244601 0.025670025 0.04375882 0.042604532 0.0028710365 -0.014496423
-0.008954395 -0.023093546 -0.046176173 -0.010628961 0.033480313 0.026121188 0.008377146 0.0030801296
-0.018302642 -0.022140086 0.0326442 0.023462843 -0.047645427 0.04489461 0.027164731 0.023162793
0.06457087 0.03674249 0.0796027 0.09160274 -0.058337133 0.07201903 0.09005587 0.021400547
-0.07821715 0.00555581 -0.11133477 0.08780852 -0.053548127 -0.028600214 0.009969996 -0.015048537
0.013636743 0.09320186 -0.047831617 -0.08891771 0.060243115 0.038273107 0.00012673992 -0.00996546
-0.046312112 0.012498321 -0.006664734 0.03356428 0.072332524 0.0013168838 0.07785771 0.111469716
0.024402048 -0.003690907 -0.08678504 0.12054893 -0.1047974 -0.046442173 -0.0944338 0.009422742
0.0597565 0.056923483 -0.053806376 -0.07393121 0.06746852 -0.043106202 -0.091432504 0.09394272
-0.10204013 -0.025902143 -0.036047712 -0.058252696 -0.047012035 -0.08831984 0.07919498 0.10649584
-0.016353203 0.045966122 -0.053924717 -0.086048454 -0.0870096 0.08461161 0.02657557 0.03508913
0.0817279 -0.063892536 -0.014862453 0.05596018 0.071881436 -0.07809865 0.022981511 -0.11652774
0.16422091 0.049926236 0.034234814 -0.06585839 -0.12534587 0.1531321 0.16072018 -0.10970652
0.1361282 0.092797436 0.15598604 -0.062756106 -0.044841107 -0.012787809 0.028966594 0.08476093
0.14229739 0.12252753 -0.06194663 -0.014014567 0.17243321 0.050072115 0.03755032 -0.08018529
-0.0002671165 0.1415802 0.060779706 0.083534025 0.09355756 -0.00038390647 -0.05461998 -0.022331428
-0.0379152 -0.09663118 -0.021855896 -0.115301296 -0.12025862 -0.09861827 0.008847128 0.12759896
0.15465973 0.099571995 -0.13966633 -0.0933077 0.15600565 0.02614587 0.04487557 -0.12740667
0.17029041 -0.01066059 -0.0038661973 0.15163031 0.0376092 0.037493393 -0.0067127836 -0.07364325

sequential/dense/BiasAdd/ReadVariableOp f4 [128]
00000000: 3a9b b03c 086a 8f3c f948 cd3c e5d8 a33c
00000010: 5e6c 46bc 6c48 603c 1d0b 0a3c e695 273c
00000020: c01d aa3c f3e1 f03c 6d48 8e3c 409e d33c
00000030: 5175 dc3b 5a8f 01bc 0ebe d53c f939 17bc
00000040: c669 3bbc 936c bb3c 1100 16bc 821b be3a
00000050: 5ef4 b23c 0bc2 513c 92c9 763c ad17 bb3b
00000060: 5fa3 1fbc 921a 20bc 7d01 a53c eaef 47bc
00000070: 01c8 fb3c b23f 13bc 683e 853c da88 443c
00000080: b961 573c 4949 d5bb c4ed c53c 7055 2fbc
00000090: 96a0 df3c f361 f93b 4067 b23c 0fee b33b
000000a0: 4e31 c63c eb5c c73c 7f0d b13c 9d96 a33c
000000b0: 7feb 503b 61ac 9c3c 452b 0dbc dedf 083c
000000c0: b490 933c 1960 9c3c e67b 963c e7b8 d63c
000000d0: 3543 9f3c d617 b23b abd0 df3c 3367 8f3c
000000e0: eb46 a83c 83ea 51bc aeb6 753c 30a6 893c
000000f0: 82e8 45bc 46ef b23c 4ad4 bb3c 5ebc a33c
00000100: 7811 3ebc c69d 5c3c 5ad6 a83c 79ee ff3c
00000110: 8cd6 a23c ee59 22bc bbeb c4bb db6e f63c
00000120: 00e0 d33c 1935 ebbb d463 8eb9 859e e63c
00000130: da95 44bc 9b95 9e3c fce9 2e3d 0a97 2a3c
00000140: 74f9 683c 9e6e 993c e3fa ff3c 86be f53c
00000150: 8b4e a63c 01a6 e33a 4998 d3bb 417f e03c
00000160: 4e5e 43bc 2ce2 f33c 4b7a b13c 78fd 4cbc
00000170: e44b cc3b d73b 6f3c fc47 233c ec3c f3bb
00000180: f416 fa3c c509 ab3a 9e23 64bb 6a3f c33c
00000190: 6236 e53c 3c76 ce3c ce00 3f3c 7334 a03c
000001a0: 6bbf 473b 8ee9 0ebc dc15 4abc 0544 41bb
000001b0: 17f8 953c 5bac fbbb 6265 32bc 637f 303c
000001c0: 7d37 38bc 57d2 f4bb 5b0f ca3c 4b47 203c
000001d0: 8014 11bc 0e1a 4f3c 6647 b33c b677 8e3c
000001e0: d631 ed3b 5821 213c 6ca4 773c b597 f23c
000001f0: 8769 c93c 06db 30bc d93d c43c 6baf 123d
0.021558393 0.017506614 0.02505921 0.020000884 -0.012110798 0.013689142 0.008425501 0.01022861
0.020766139 0.029404616 0.01736852 0.025832295 0.0067278524 -0.007907713 0.026091602 -0.00923013
-0.011438793 0.02287892 -0.009155289 0.0014504048 0.021845039 0.012802611 0.015062707 0.0057096095
-0.009743541 -0.00977196 0.020142311 -0.012203196 0.030735018 -0.008987354 0.01626511 0.011995519
0.0131458575 -0.0065089804 0.024161227 -0.010701522 0.027298253 0.0076105534 0.021777749 0.0054910253
0.024193432 0.024336299 0.02161288 0.019969279 0.0031878648 0.019125165 -0.008616273 0.008354155
0.018013336 0.019088792 0.018369626 0.026211215 0.019441226 0.0054349704 0.02732118 0.017505264
0.020541629 -0.01281226 0.0149971675 0.016802877 -0.01207936 0.02184261 0.022928376 0.019987281
-0.011600845 0.0134653505 0.020610023 0.031241642 0.019877695 -0.009909136 -0.0060095466 0.030082157
0.025863647 -0.0071779606 -0.00027158728 0.02815176 -0.011998618 0.019358447 0.042703614 0.010411987
0.0142196305 0.018729504 0.031247562 0.029998075 0.020301124 0.0017368199 -0.006457363 0.02740443
-0.011924339 0.029770933 0.02166476 -0.0125116035 0.006234633 0.014601669 0.009965893 -0.007423034
0.030528523 0.0013049176 -0.0034811269 0.02383395 0.027980033 0.025202863 0.011657907 0.01955626
0.0030479084 -0.008722676 -0.012334313 -0.0029490006 0.018306775 -0.0076804585 -0.010888429 0.010772559
-0.011243698 -0.0074713635 0.024665525 0.009782623 -0.008854985 0.012640489 0.021884631 0.017391067
0.007238607 0.00983461 0.015114885 0.029613355 0.024586452 -0.010794407 0.023955273 0.035811823

sequential/dense_2/BiasAdd/ReadVariableOp f4 [8]
00000000: 3177 18bb 38da 89bc 1411 3a3c 1acd ec3c
00000010: a0f0 82bb f93b bfb9 99da a2bc 113b 6abb
-0.0023264403 -0.016827688 0.011356611 0.028906394 -0.00399597 -0.00036475042 -0.019879626 -0.0035740773

sequential/dense_1/BiasAdd/ReadVariableOp f4 [128]
00000000: 00a1 723b 815f dc3c a696 79bc 8e06 1d3c
00000010: d897 a73c 5245 d63c 58a7 183c 605d 4ebc
00000020: 7089 973c 82ae e7bb c758 fb3b 2206 b13c
00000030: a835 7c3b 4447 333c ebdd f33c cf0e fc3c
00000040: 03b0 ab3c d094 1e3c 6a6d bb3b 7e98 95bb
00000050: bf27 c13c 6f9e c43b 39bd d43b 2506 063c
00000060: 3e35 313b 3512 4c3c 90dd e43b 03b1 863c
00000070: 1328 153b 6f54 dd3c 92d8 d83b 7e2e 063c
00000080: e086 963b e104 773c 940d 4e3c d7c2 b03c
00000090: 4a30 fabb a23d 283c e664 a53b 6959 e13c
000000a0: 7d8c d43c ea3e 2d3c 5387 ca3c 7101 053d
000000b0: 7a2e 243c 4529 123d 5e1c 01bc ce62 813c
000000c0: b47a ae3c 3c90 60ba 0d0b 5bbc 06a9 2dbc
000000d0: efd8 863c cbdf 863b 767f 9ebb 10be 083d
000000e0: d057 ad3c 2b5a 983c 412d 663c 89cd 523c
000000f0: 656e 4c3c f825 a9bb 61b1 ae3c ecd0 96bc
00000100: d44e e03c 54cf 173d c803 1c3c de3d 9539
00000110: 44bb c03c e6e9 323c e760 2cbc 2f11 5bbc
00000120: 1cc5 6f3b 2c5a 153c 0cc8 463c e22b a73c
00000130: 3c06 9f3a 4ede b13b 6190 b63c 48ab d93c
00000140: d1d7 b23c 9509 72bc 1c55 373c 3bab 203c
00000150: 1a58 403b a0fb 13bb c127 f33c 3236 943c
00000160: 646c a33c 4bb0 5bbc d97e 723b 8391 183d
00000170: 9a2a 953c f268 813c 4154 a63c 82be 6bbc
00000180: 1215 d63c e688 24bc cfc7 6a3c 7433 153c
00000190: 6279 9a3c dfcb c53b 8d7c 003d 9ddc 933c
000001a0: 072e 843c 103d 833c b1b8 de3c b5b2 b33c
000001b0: 3edd 223c 8616 1b3c ac8b 8a3c 2063 c63b
000001c0: 51c1 953c 2482 fc3b 590b df3b c06b 6a3c
000001d0: c4e6 a23c 1fa9 e63c 5057 c939 278b b63c
000001e0: ee86 cb3b bcc2 c4bb 7064 e33c 15fb 733a
000001f0: 157e 3cbc e51f 1c3c 2699 893c 84a6 763c
0.0037022233 0.026901009 -0.015233671 0.009584082 0.020458147 0.026156101 0.009317242 -0.0125955045
0.018498152 -0.0070703635 0.007670495 0.02160937 0.003848413 0.010942284 0.029768905 0.03076878
0.020957952 0.009679034 0.0057198303 -0.0045652976 0.023578523 0.006000332 0.0064922837 0.008180176
0.0027039791 0.012455513 0.00698442 0.016441828 0.0022759482 0.0270178 0.006617614 0.008189796
0.004593715 0.015076847 0.012576479 0.021577282 -0.007635151 0.010268601 0.0050474284 0.027508454
0.025945896 0.010574082 0.02472273 0.032472078 0.0100208465 0.03568389 -0.007880298 0.015794184
0.021298744 -0.00085664145 -0.013369334 -0.01059938 0.016460864 0.0041160337 -0.004836972 0.033384383
0.021160036 0.018597683 0.014048875 0.012866386 0.012477492 -0.005161997 0.021324815 -0.018410169
0.027381338 0.037062958 0.009522386 0.0002846559 0.023526795 0.010920024 -0.01052115 -0.013370796
0.0036585992 0.009115737 0.012132656 0.020406667 0.0012132595 0.005428112 0.022285642 0.026570931
0.021831425 -0.014772792 0.011189725 0.0098064495 0.0029349388 -0.00225804 0.029682042 0.018092249
0.019949146 -0.013408731 0.0037001877 0.037248146 0.01820879 0.015797112 0.020303847 -0.014388682
0.026133094 -0.010042405 0.014329865 0.009106506 0.018856708 0.006036266 0.03136878 0.018049533
0.016135229 0.016020328 0.027187677 0.0219358 0.009940444 0.009465819 0.016912304 0.006054297
0.018280657 0.0077059437 0.0068067727 0.014307916 0.019885428 0.028156815 0.0003840276 0.02228315
0.006211153 -0.0060046595 0.027757853 0.00093071285 -0.01150467 0.009529089 0.01679666 0.015054349

sequential/dense/MatMul f4 [128, 1088]
00000000: 527b 84bc d837 86bc 0a8b 1ebd 2b71 083e
00000010: 825a c9bc d58d 8b3d 4583 093e 3ad0 843d
00000020: 0633 4dbd 8a21 94bd 8716 de3d 9798 b83d
00000030: 79d6 94bd 0700 a43d 134b a43d a54e f5bd
00000040: f628 cd3c ee76 313c 3aca 89bd 5e33 9c3d
00000050: 7eed e93b 9e85 b83d 062a 713d 6537 86bd
00000060: 5ccb 8c3d fc40 94bc d39f b23c de32 543d
00000070: 05bd ab3d e158 8f3c 3061 bb3c 6f52 763d
00000080: 2dae fabd ad73 0d3e 85f5 983d 08ed 06bc
00000090: c34b 93b9 0e66 153d 6e0b 20be f4e3 e83d
000000a0: 37a0 9bbc 3b50 213e 7ce4 05be 4bc3 12be
000000b0: e78c 653d 7d06 863d f6f9 143d 359c 41bd
000000c0: d951 cd3d fa12 9c3d e009 00be 2646 d5bd
000000d0: 4793 853d 1b39 04be 40ba 293e e601 20be
000000e0: 0f05 88bc b05b a43d 1b7a 09be 733a dd3d
000000f0: ec78 413e b24a f7bd 02c0 1d3e 646e b73d
00000100: 4d26 ae3c 2023 97bd 7684 9dbd 4295 7a3d
00000110: 8b37 813c 8f7a 163e 6a47 cfbc e8b4 913d
00000120: eb99 d9bd fa00 3f3c ee80 80bd 2f04 c8bc
00000130: bb26 3abd 31a3 8b3d b8a3 03bd 8094 3e3d
00000140: 3cb9 a63d 5b7c 903d bd52 2f3d eaed abbd
00000150: 8822 143d 09dc f4bc bfbe e6bc a396 8cbd
00000160: f2a5 0e3e d439 4fbd 837a 8a3d 2dd1 62bd
00000170: cd7f 043d ee55 643e 8545 c23d 0965 193d
00000180: 85e8 8dbd 3352 c63d 0e0f 3e3b 5042 943c
00000190: 7932 f5bc d758 8fbd ccdb aebd 3556 04bd
000001a0: 91cb 33bc 6f0d cc3c c3ad 853c a714 693d
000001b0: 8df1 973d 4303 1e3e 9ff8 45bd 4348 dd3c
000001c0: dd2a acbc 6eeb 323e afcf 17bd 1e31 863c
000001d0: ca13 e33d 8c41 0bbe 14bb 2e3d 4bad 8c3d
000001e0: 5e45 b33d eaf9 9b3d cdcb 51be dd3a 1f3e
000001f0: 99ce c93d 71b1 01be 32c5 63bd 2eac e13b
00000200: 8dda 6ebd f0b6 12bd fed2 12bb 02af 943d
00000210: 1870 9c3d 4557 9e3c a38b c13c 82ed 043d
00000220: 1a95 873d 8ed6 b2bd 403c ea3c b0ac c7bc
00000230: e9db 0abd a7d9 9a3d 4724 db3d 6fc5 0abe
00000240: 7042 103e ea45 413d 29a0 b33d 2652 583d
00000250: 5cc2 24bd c38b b03d 7774 733d 0082 f23b
00000260: f754 103e 7486 7b3b c47a 8a3d eb2e ad3d
00000270: 7396 4a3c 0a51 bc3d 94a8 ef3c 5fba 29bc
00000280: 4d3b 333d 3689 133e 11b9 873d 4621 da3d
00000290: 0f20 153d 7225 a2bb c82c a2bd 88ac 733d
000002a0: 83c2 56bc 1422 57bc 2679 2a3c e28d 13be
000002b0: d535 6fbd 8ea5 6f3d c373 f7bb cd62 793c
000002c0: 7831 f63d 3485 c23d ed45 c0bd d216 83bd
000002d0: 1b1b c63d 3c5a a13c 3285 903d 173f 65bd
000002e0: 6b7a b73d c8f1 4a3d f5c7 94bc 1395 253e
000002f0: d43e 4d3c 7c91 0dbe d23e 92bd b836 ec3b
00000300: e980 933d 5025 a9bd 6075 76bb d897 ec3c
00000310: 04b2 d83d a501 11bd 6556 abbd 7e20 adbb
00000320: ecb5 bc3c 3f1b e1bc 08bd 383d d2d5 e4bd
00000330: e3ce 94bd 6d51 003d 0845 2b3c f721 53bd
00000340: d6cf 8a3d 17e3 9d3a 67e8 83bd 8c37 2dbd
00000350: a6a8 9bbd adda 10bd d888 273c fe50 913d
00000360: dca0 293e c170 39bb 3d8e 33bd a8dc 893d
00000370: cad9 363d 54f9 783c 8f3f 603d e365 0abd
00000380: 2b5c ecbc 8200 a73d 631d 283c 1336 d03d
00000390: 0a7b 5cbc 10d1 07be d944 e3bc 86d9 30bd
000003a0: 775f ff3c 5255 2e3d fff9 fbbd 9991 10bc
000003b0: 648e 8ebd 9dab 87bd a1a8 febd c86a 95bc
000003c0: 8579 8abd adcd a3ba 7671 10be 367c 813d
000003d0: fd69 f33c e675 5fbd 29e6 073e 0b1f 8cbc
000003e0: 29bf 0b3e 0d7b f8bd 65ea 92bd 56c1 c83d
000003f0: 33c4 073e d869 6b3c dafe d03c 932a fe3d
-0.016172085 -0.01638405 -0.038706817 0.1332442 -0.02457929 0.06814162 0.13428982 0.064850286
-0.050097488 -0.072329596 0.108441405 0.09013479 -0.0726747 0.08007818 0.08022132 -0.11977891
0.025043946 0.010831578 -0.06728025 0.07626985 0.007138907 0.090098605 0.058877967 -0.065535344
0.06874725 -0.018097393 0.021804726 0.051806323 0.08385662 0.017498435 0.022873491 0.06013721
-0.12240253 0.13813658 0.07468704 -0.008235224 -0.00028094472 0.03647428 -0.1562936 0.113716036
-0.018997295 0.15753262 -0.13075441 -0.14332311 0.056042578 0.06544206 0.036371194 -0.04726811
0.10025377 0.07620807 -0.12503767 -0.104137704 0.065222315 -0.12912409 0.16574955 -0.15625724
-0.016603975 0.080253005 -0.13425486 0.10802164 0.18893784 -0.12074794 0.15405276 0.08956602
0.021258498 -0.073797464 -0.076912805 0.0611775 0.015773555 0.1469519 -0.025302608 0.07114583
-0.10625061 0.011657948 -0.062745914 -0.024416057 -0.045447093 0.06818236 -0.032138556 0.04652834
0.081407994 0.07054969 0.042803515 -0.08394988 0.036165744 -0.029890077 -0.028167127 -0.06864669
0.1393049 -0.05059226 0.067616485 -0.055375267 0.032348443 0.22298405 0.09485916 0.03744987
-0.06929115 0.09683647 0.0029000673 0.018098027 -0.029931294 -0.06999367 -0.08538017 -0.032308776
-0.010973827 0.02490875 0.016318208 0.05690446 0.07419119 0.15430932 -0.048332807 0.027011996
-0.021016533 0.17472622 -0.037063297 0.016380843 0.11087759 -0.13599223 0.04265888 0.068689905
0.08753465 0.07616027 -0.204879 0.15549798 0.098538585 -0.12665345 -0.055607982 0.0068869805
-0.058313895 -0.035818994 -0.0022403593 0.072599426 0.07638568 0.019328723 0.023626154 0.032453068
0.06620236 -0.08732329 0.028593183 -0.024374336 -0.03390113 0.07561045 0.10700279 -0.13551877
0.14087844 0.047185816 0.087707825 0.052812718 -0.040224418 0.086204074 0.05943724 0.007400751
0.14094912 0.00383797 0.06761697 0.084562145 0.012364971 0.091951445 0.029255189 -0.010359376
0.043757726 0.1440781 0.066270955 0.10650878 0.036407527 -0.0049483115 -0.079186976 0.05949071
-0.013107899 -0.013130683 0.010404861 -0.14409593 -0.058400948 0.058507495 -0.0075516417 0.01522131
0.12021154 0.09498063 -0.09388337 -0.06400837 0.09673139 0.019696347 0.07056655 -0.05596837
0.08958896 0.049546987 -0.018161753 0.16170149 0.012527186 -0.13825029 -0.07140888 0.0072086714
0.07202322 -0.0825907 -0.0037606582 0.028880998 0.10580829 -0.03540196 -0.08366088 -0.0052834144
0.023035966 -0.027478812 0.04510215 -0.111735955 -0.07266023 0.031327654 0.01045347 -0.051546063
0.06777923 0.0012045827 -0.064408116 -0.0422893 -0.076005265 -0.035364795 0.010225497 0.07095526
0.16565269 -0.0028295966 -0.04383682 0.0673154 0.044641294 0.015196163 0.054748114 -0.033788573
-0.028852543 0.08154394 0.010260913 0.10166564 -0.013457069 -0.13263345 -0.02774279 -0.043176197
0.03117345 0.042561837 -0.12303542 -0.008823776 -0.069607526 -0.066245295 -0.12434507 -0.018239394
-0.06761459 -0.0012497209 -0.14105782 0.063225195 0.029713625 -0.054555796 0.13271393 -0.017104646
0.1364714 -0.12132845 -0.071736135 0.09802501 0.13258438 0.014368497 0.025512148 0.12410464

sequential/dense_1/MatMul f4 [128, 128]
00000000: edb8 203d a5f5 363d e316 19be 3c2d b73d
00000010: ff89 04be 75c9 4d3e 88c6 103e 5df2 2ebd
00000020: 29b6 d43d 1db6 103d 535b 39be 7af9 1c3e
00000030: 3e61 dc3d bdde b13d 2a12 cbbd 82eb 2fbc
00000040: b8d6 c53d afe9 cebd 1b2d 07be aaee 313d
00000050: 325e 3e3d 70cd ebbd 239c 4a3e 3883 f83d
00000060: 37ca 02be 7436 bd3d 3eda bd3d a3ea a0bc
00000070: e49e 13be f6ab 833d 9991 7f3d f013 493e
00000080: b56f 00be 6252 b13d e4b1 503e 58ca 3b3d
00000090: 7825 6cbc 398f 30be 976e 80bc 99ab e4bd
000000a0: d314 b73c 4837 433e fe6f b53b af10 f6bd
000000b0: 437d 8abd f91b 123e b798 c2bd 1cb2 1a3e
000000c0: 9c02 02be 3aff 113e 299d 2abe 8330 a23d
000000d0: 759a 1c3d 0835 26be c408 2abe bb68 e9bd
000000e0: 8c02 663c d3d3 b43d 80bd c73d 1171 1a3e
000000f0: deb3 a1bc 6336 95bd db0b 6bbd d935 b43d
00000100: dcb0 59bd 5f0a 48be 4ab1 6dbd 5eb5 7e3d
00000110: fb8b c4bd 862a 31bd 4421 be3d 27be 01bd
00000120: 96a6 003e 5bf1 09bd c5e5 d83d ebbd a73d
00000130: d526 35bd 2031 48bd 76af b73d 57e1 373d
00000140: c481 0e3e a376 43bd 027a c2bd a5c5 fabd
00000150: ebca a6bd 1336 543d cc02 c33d f6f1 2cbb
00000160: 891b 21be 8e83 373e b11e 48be 6eaf c63d
00000170: e4b7 163e bfd6 3a3e c716 2b3d 6f5b f83d
00000180: 15c9 053e db7d 233e 42b1 e83c e258 95bd
00000190: ae71 8abc c49a 173d f899 2fbe 1f4d 48be
000001a0: d035 55be 312f 2f3d 1a24 033e eb05 bf3c
000001b0: d08e c2bd ce17 b3bd 3927 a9bc c4e2 32be
000001c0: 1467 a1bd 7484 15bd 6cc0 37be d24f 0bbe
000001d0: 18f9 a83d 98b3 0dbe 89e4 a23d 4a61 4d3c
000001e0: b8ae 793d 8b99 caba e359 a73d 36e7 79bd
000001f0: 4c59 62bd 1438 96bd 7369 f43d 6c1e 00be
00000200: 5fa9 86be 4458 ffbc b8f5 eebd fb9d 1f3e
00000210: 6244 60bc 34c2 093e 7f58 ea3d 74c2 a7bd
00000220: 885d aabd cee2 303e da6c cebc 5505 2a3e
00000230: 0937 243b bc9e 0f3e 4b1f 91bd 54ec fa3d
00000240: f7b7 b3bd 547a 863d 3a04 053d cd5a 5f3d
00000250: d733 02be 3eb4 e13d 278c 65bc b58a bb3b
00000260: 41a9 11bd 58f6 a9ba 18e5 cd3d 3161 ce3d
00000270: cd1c e83c a1ad 013e 6b8b 803e a983 e6bc
00000280: 6155 8c3d c7cf a1ba 1d1e 0c3e 535c e1bd
00000290: e68e 8cbd 9fd2 7a3c c5b5 31be 5391 c7bd
000002a0: bcb4 b23c 606f 3b3e 5dab cfbc f79f a33d
000002b0: 024b 10be 842b b23d fe76 1cbd c1e7 dabd
000002c0: 2899 0fbc 46c0 e0bd 575d f33c 98f5 bc3d
000002d0: e5d3 1f3e b465 afbd b467 5cbb dbb8 9a3d
000002e0: 4fc0 383d 185e 0d3e 9328 153d 27ec 8e3d
000002f0: 0448 953d fc2b 4b3e 1db0 2cbd a284 5ebc
00000300: 359f a8bd 50d1 b8bd 91e8 cabd a53f 113e
00000310: 0f82 27be 53df 92bd 32a7 d1bd 2252 d93a
00000320: c6a7 5f3e df8e f2bb 2ebb da3d e29c cebd
00000330: 16af 8cbc c38e 20bd 137a 73bc 59f7 2abc
00000340: 5126 42bd d00a 853d 6291 083e c343 9f3c
00000350: c6a8 3bbe e51e 02bd f6ee 23be 775c a23d
00000360: 8994 683d 0898 4b3d acac c4bc 266d 7cbd
00000370: a895 5c3e a5e3 103e 0135 6b3e 2838 133e
00000380: 9ac4 6a3d 9a26 cebd 504f 933c 5000 4ebe
00000390: bb1b 8abd 08ba 43bc eca3 a8bd f366 4a3d
000003a0: 9907 4f3d 6a66 e93d a9f5 ec3d 697a c7bc
000003b0: 4264 e7bc 8d25 963c e7fc b03d 96ed a5bd
000003c0: 8839 4b3d 9870 e0bb 8c6c ee3c 2a97 dbbd
000003d0: 9d23 1ebe d856 643d 28fc 31be e5f1 bf3b
000003e0: f64d 753d 216d 413e 1e52 543e f6b7 893b
000003f0: 2a6d 9d3d bdd8 b2bd 5696 3e3d b1fe c63d
0.03923886 0.04466786 -0.14950137 0.08944175 -0.12943266 0.20096381 0.14138234 -0.042711604
0.10386307 0.035329927 -0.18101244 0.15329543 0.10760735 0.08685062 -0.09915574 -0.010737302
0.09660095 -0.10103165 -0.132008 0.0434405 0.04647655 -0.115137935 0.19786124 0.12134403
-0.12772451 0.09238902 0.09270142 -0.019643134 -0.1441608 0.06429283 0.062394712 0.19636512
-0.12542613 0.086582914 0.2038036 0.045847267 -0.01441323 -0.17242135 -0.015677733 -0.11165542
0.022348797 0.19064057 0.005537032 -0.12014901 -0.06762173 0.14268483 -0.09501784 0.15107006
-0.12696308 0.14257517 -0.16661514 0.07919409 0.03823324 -0.16231167 -0.16604906 -0.11396929
0.014038693 0.08829465 0.09752941 0.15082194 -0.019739088 -0.07285764 -0.057384353 0.08799333
-0.053147182 -0.19535206 -0.058030404 0.062184684 -0.09597012 -0.043253444 0.09283689 -0.031675484
0.12563547 -0.03367744 0.105907 0.08190521 -0.044226486 -0.048874974 0.089690134 0.044892635
0.13916689 -0.047720563 -0.094959274 -0.12244729 -0.08144172 0.05180938 0.09522018 -0.0026389337
-0.1573316 0.17921278 -0.19542958 0.09701429 0.14718586 0.18245982 0.04176977 0.121268146
0.13064988 0.15965979 0.028404836 -0.07292344 -0.01689991 0.03701283 -0.17148578 -0.1956067
-0.20821309 0.042769615 0.1280674 0.023318252 -0.094998956 -0.08744775 -0.020648586 -0.17469317
-0.07880989 -0.03650327 -0.17944497 -0.13604668 0.08250636 -0.13838041 0.07953746 0.012535403
0.06095764 -0.0015457136 0.081714414 -0.061011516 -0.05526094 -0.07334915 0.11934175 -0.12511605
-0.26301095 -0.031170018 -0.11667961 0.15587609 -0.013688179 0.13452989 0.114426605 -0.08191386
-0.08318621 0.17274019 -0.025198389 0.16603597 0.0025057218 0.14025396 -0.07086047 0.12252107
-0.08775323 0.06566301 0.032474734 0.054529954 -0.12715088 0.110207066 -0.014010466 0.0057233223
-0.035561804 -0.0012967093 0.10053462 0.100771315 0.028334046 0.1266389 0.25106367 -0.028138952
0.06852222 -0.0012345248 0.13683362 -0.110039376 -0.06863193 0.015309005 -0.17354496 -0.09744515
0.021814696 0.18304205 -0.025350267 0.07989495 -0.14091113 0.08699706 -0.038199417 -0.10688735
-0.008764543 -0.10974173 0.029707594 0.09226531 0.15608175 -0.0856432 -0.0033631148 0.0755479
0.045105275 0.13805425 0.036415648 0.06978636 0.072891265 0.19840997 -0.042160142 -0.013581427
-0.08233491 -0.09024298 -0.0990764 0.14184435 -0.16358207 -0.07171502 -0.10236968 0.0016580264
0.21841344 -0.0074022855 0.10680233 -0.10088517 -0.017173331 -0.03919865 -0.014860648 -0.010434949
-0.047399823 0.06496203 0.13336709 0.019441491 -0.183261 -0.031767745 -0.16009125 0.079277925
0.05678228 0.049705535 -0.024008118 -0.06162753 0.21541464 0.1414934 0.22969438 0.1437689
0.0573164 -0.100659564 0.017982155 -0.20117307 -0.067435704 -0.011946209 -0.082343906 0.049414586
0.050544355 0.11396487 0.115702935 -0.024350362 -0.028246049 0.018328452 0.08641987 -0.081019565
0.049615413 -0.0068493597 0.029104494 -0.10722192 -0.15443273 0.055746883 -0.17381346 0.0058576935
0.059888802 0.18889286 0.2073445 0.004202838 0.07686837 -0.08732746 0.04653009 0.09716547

sequential/dense_2/MatMul f4 [8, 128]
00000000: 913a 5abe 98ab 92bd 468b d5bd 2d53 213e
00000010: a496 3a3d 8d2b 0e3e 1611 6e3e bc88 b3bd
00000020: e464 3fbe 5b7f 8bbd a3f6 55be c181 2cbe
00000030: 526d c5bd 370c 3fbe e6e7 773e 9e36 933c
00000040: 6a26 4e3d a723 3b3e aa77 6cbe d816 46be
00000050: b152 513e 1c3d 153e ec1e 5ebe d903 6dbe
00000060: c796 08be a66f 52be 0212 5f3e f308 efbd
00000070: 4b2c 483e ad74 2ebe 4499 66be 1491 49be
00000080: 6701 423e 915d 453e ca20 6dbe 931d 09be
00000090: 5871 1dbe fb71 5fbe c13a 2e3d 2879 373e
000000a0: 3927 8cbd 1f12 003e ef7c 0fbe 70a0 663e
000000b0: c043 393d def2 8abe 23b3 0bbd e200 333d
000000c0: d619 803e c93a e9bc 5458 623d 4cdc 48be
000000d0: 0705 df3d 500b e03c 8b50 b6bd 124b e7bd
000000e0: 6046 243e fe17 323e c221 833e bfda a23c
000000f0: 513f 3dbe 66b7 41be b2f7 0fbe e7a6 4d3d
00000100: 10ec 5bbe 744c 603d ed18 303e 76f6 413d
00000110: 1f3f 6a3e 921a 5dbe 0e48 1ebe 7d8f 92be
00000120: c4f1 fabd 3ef8 823e 33e8 6f3d a6d1 103e
00000130: 3e1a 92bd 2235 2c3d 0192 91be 9f05 173d
00000140: c38b 233e 1f6a debd a4cf 2fbe b967 373e
00000150: d125 20be 711a 37be 5c13 0a3e c658 663e
00000160: d050 38be ff9e 8c3d 3582 a5bd 597b 8d3d
00000170: 406c 9abc c5d3 6c3e a061 03be 2dce 22be
00000180: 132b 6abe b28e c53d 2751 523e 0333 1f3e
00000190: ae11 963e c7dd 65be 5183 323e c7cd 643e
000001a0: 87f3 26bd f6e6 bdbe b675 843d 3612 063e
000001b0: 2379 2d3e 432d 7bbe 4132 c83d 3f31 0a3c
000001c0: 70fe b7bc cd0e 8cbe e1f7 223e fb0f fcbd
000001d0: 3dd4 f0bd 7ddc 323d 5b53 aebe ca07 c03d
000001e0: 6789 76be 1707 2dbe d55f cd3c 2124 a3be
000001f0: 8095 29be 0742 fa3d e43b 74be 7d34 593e
00000200: 0f56 b5bd 3068 63be bcb8 c73d aa72 1d3e
00000210: ac2e d33d 8991 5cbe 4bb2 0b3e 5793 f93d
00000220: cea9 d8bd e4c4 23be 909c 89be f946 8cbe
00000230: 216d 343e a7bc 503d 9ad0 52be 54d0 babd
00000240: d907 863d 151e 423e 5d96 6d3d cfe8 003e
00000250: 2b47 ebbd 9517 3d3e 6a7f 3e3d dc3a 283e
00000260: e025 a8bc 55fd d4bd f865 c1bc 9494 1c3e
00000270: 9e7d 90bd a0e9 88be 9ea5 97bd c68e a93c
00000280: 3c3c 40be 9a21 5c3e 8ba4 543e 7ed8 f33d
00000290: 1065 3ebd 18e1 943d b6df 0e3e 2427 8abe
000002a0: a12f 2a3e 16bd 813d 1df0 ff3d 5f3c a3be
000002b0: 2421 14be e0f5 adbe 0af0 3cbd 47e8 18bd
000002c0: 2783 153c 7312 0c3e 3fcb 79bd 89da 2dbe
000002d0: c315 4b3d b9d8 203e 7792 3abe 95e3 93be
000002e0: 3afb a7bd fb72 7d3c 3426 213e 5bee 843e
000002f0: e4db df3d d621 733c 6230 31be 4159 973d
00000300: 92cc 64be 8944 c1bd 9e1a 1d3e e343 fb3d
00000310: a9ab 84be 8e0c e1bb c77b a53c 620f 533e
00000320: 149e 3e3d cf66 313e df39 803e 6a7f dc3c
00000330: 2edc a8bd 3460 353e 5e76 1ebd 97b4 e63d
00000340: d63e 92be 7ad0 bd3e 011c 46bd 7a1f 253e
00000350: f6a4 793d 3228 d13d af69 0abe b479 b23d
00000360: 2bf6 c83d 0459 29bc 4ad2 1a3e da48 05be
00000370: a47d f43d 5338 2d3e 63a2 a1be cc05 a7bd
00000380: 8c68 77be ff1e ab3d 0101 99be 8ffc f13d
00000390: 98d5 d13d 7df3 db3d 1c65 3cbe 44a6 343e
000003a0: 68df 39bd 3d88 6dbd d51a 66be 4ef7 1c3e
000003b0: 1faa 3bbe 934b 21be 23fe 923d 399c 183e
000003c0: 058e da3d eea7 cc3d d7c3 123e 46d4 85bd
000003d0: 6eef afbd 9cd9 a23d 0712 54be 164f 463e
000003e0: f738 8cbd 545d 503e 725d adbd 7165 e8bd
000003f0: 0851 3d3e c5b1 80be fb9a aabe e768 9fbd
-0.21311404 -0.07161635 -0.10426955 0.15754385 0.04555382 0.13883801 0.23248705 -0.087663144
-0.1869083 -0.068114005 -0.20894866 -0.16846372 -0.09639992 -0.18657003 0.24209556 0.01797038
0.050329603 0.18275319 -0.23092523 -0.19344652 0.204417 0.14574093 -0.21691483 -0.23145999
-0.13338767 -0.20550403 0.21784213 -0.11671629 0.19548146 -0.17036696 -0.22519404 -0.19684249
0.18945847 0.19273974 -0.2315704 -0.13390188 -0.15375268 -0.21820824 0.0425365 0.17917311
-0.06843419 0.12506913 -0.14012502 0.2252214 0.045230627 -0.27138418 -0.034106385 0.043702014
0.2501971 -0.028470414 0.055260018 -0.19615287 0.10889631 0.027349144 -0.08902081 -0.112936154
0.16042471 0.17391965 0.25611693 0.019879697 -0.18481185 -0.18917617 -0.14059332 0.050208
-0.2147677 0.05476041 0.17197008 0.047354184 0.22875641 -0.21592167 -0.15457174 -0.28625098
-0.122531444 0.2558002 0.05857105 0.14142475 -0.071339116 0.04204286 -0.28431705 0.036870595
0.15971284 -0.10860085 -0.17169052 0.17910661 -0.15639426 -0.1788118 0.13483948 0.22494802
-0.17999578 0.068662636 -0.08081476 0.06908292 -0.018850446 0.23127659 -0.1283021 -0.15898962
-0.22867994 0.096463576 0.2053877 0.15546803 0.29310364 -0.22447883 0.17432906 0.22344123
-0.04075959 -0.37090272 0.06467764 0.13092884 0.16940741 -0.24528985 0.0977521 0.008434593
-0.022460192 -0.27355042 0.15914871 -0.123077355 -0.11759231 0.043667305 -0.3404797 0.09376486
-0.24075852 -0.16897236 0.02507011 -0.31863502 -0.16560936 0.12219625 -0.23850971 0.21211429
-0.08854305 -0.22207713 0.09752032 0.15375772 0.10311636 -0.21539892 0.13642232 0.12186306
-0.10579263 -0.15993077 -0.2687726 -0.27397898 0.17619754 0.050961163 -0.20587388 -0.09121767
0.065444656 0.18956788 0.058004726 0.1258881 -0.114881836 0.18466027 0.04650823 0.16428703
-0.020525873 -0.10399882 -0.023608193 0.15291053 -0.070552096 -0.26740742 -0.07404636 0.020697962
-0.18772978 0.21497193 0.20765893 0.11906527 -0.0464831 0.07269496 0.13952526 -0.26982987
0.16619731 0.063348934 0.1249697 -0.31881997 -0.14465767 -0.3397665 -0.046127357 -0.037330892
0.009125507 0.13678913 -0.060984846 -0.16977896 0.0495813 0.15707673 -0.18219934 -0.2888457
-0.082022145 0.015469308 0.1573723 0.259631 0.10930613 0.01483961 -0.17303613 0.07390071
-0.22343662 -0.094369 0.15342185 0.12268808 -0.25912216 -0.0068679517 0.020200623 0.20611337
0.046537474 0.17324375 0.25044152 0.026916225 -0.08245121 0.1771248 -0.038687102 0.112649135
-0.28563565 0.37073117 -0.04836655 0.16125289 0.060948335 0.10212745 -0.13516878 0.08714619
0.09812578 -0.010336164 0.15119281 -0.13016072 0.119380265 0.16916017 -0.31569204 -0.081554025
-0.24160975 0.083555214 -0.29883578 0.1181575 0.10245818 0.10739801 -0.18397945 0.1764155
-0.045379072 -0.057991255 -0.22471173 0.15328714 -0.18326615 -0.15751486 0.07177379 0.14903344
0.10671619 0.099929675 0.1433252 -0.065346286 -0.085905895 0.07951662 -0.20710002 0.19366106
-0.06846803 0.20348102 -0.08465089 -0.113474734 0.18487942 -0.25135627 -0.33321366 -0.077836804
