assets/modelo_ventanas.tflite (tflite, 108616 bytes, 7 tensors)

sequential/embedding/embedding_lookup f4 [150, 64]
00000000: 40e4 98bc 77e4 2fbd 8d14 053d 98e0 383c
00000010: e9f1 313d a04f bd3a 268e ac3c 0c31 473c
00000020: 5abc bdbc 231e 1cbd c0bb 22bc e8a6 0dbc
00000030: 3a6a f03c 2879 2a3c c09e e9ba e2c8 c63c
00000040: 191d 423d 86e9 d33c d31e 1f3d 712c 303d
00000050: 9a8d d2bc a3da 21bd ed52 a8bc 8797 30bd
00000060: a0a5 93bc 18e3 1c3c 00ff fb3b 0018 a3b9
00000070: ee81 cb3c 5014 8d3b 263a 9d3c c078 5bbc
00000080: e82e 293c e78e b4bc 80de 903b 5a4f dc3c
00000090: d092 4bbd 6040 833a a7ad 2fbd 2da5 cdbc
000000a0: 0013 38bb e851 883b da99 843c 0003 f7bb
000000b0: b4e2 043c 0cb3 36bc 4a2f 12bd 00c8 133b
000000c0: f3cd e4bc d366 b0bc ba3d 24bd b009 98bb
000000d0: 4e95 a33c da3e f13c 50c7 debb fd99 07bd
000000e0: 537f 213d 9883 013c 737c c5bc 7154 1b3d
000000f0: 007d d2b9 0cf1 8bbc 4d2e b2bc 4cca 533c
00000100: c033 2e3c d08a 4fbb 5a84 8ebc a823 2cbc
00000110: 4073 fbbc a2d6 bc3c e762 f1bc 52ea cd3c
00000120: 5a6a 9c3c 57e2 3e3d 3a5f 24bd ae2a 8e3c
00000130: 3a7c 1bbd 4c5a 02bc e891 38bc 0dee bdbc
00000140: da00 1ebd 476b 1e3d aa8f 33bd 30a8 b8bb
00000150: f45a 42bc 37be 3bbd 6dd6 383d fd81 473d
00000160: 7314 3c3d 280f 53bc c0c2 e5bc d32f 48bd
00000170: 2dde 2b3d a0e7 8abc b39d 0b3d 2051 e7bc
00000180: a058 f9bc 8326 093d 34de 473c 900e 1fbd
00000190: 3051 ee3b 83e6 043d b420 44bc 6912 2a3d
000001a0: 5311 a6bc e8c6 283c ea19 36bd 3756 113d
000001b0: 50c1 1bbd 67eb ecbc b2e0 a83c d755 42bd
000001c0: ddae 063d 4665 873c 66eb 82bc cd3c a8bc
000001d0: 0010 333c 765f 1dbd 68e8 07bc a819 273c
000001e0: 0036 2ab9 908e 22bd 7472 93bc da9c b93c
000001f0: 701a 3fbd 1785 39bd a224 c83c 33c9 f7bc
00000200: e47d 68bd 6e33 14be 4124 d9bc 87b1 d53d
00000210: 8c48 203d b746 84bd d704 b23d 0528 c5bd
00000220: eb32 ef3c 5e26 dd3d 189c d33d 34d8 893d
00000230: eff1 933d 37c3 b8bd 9c91 cdbd 0436 adbd
00000240: 2700 a63a 463c bd3d 7db5 efbd 298f 0ebe
00000250: 9f91 04be 67d0 98bc a53f c83d 9bf4 b23b
00000260: 0aa7 ddbd 8b5b 9d3d 0386 8ebd dea1 8f3d
00000270: 400f 13bd c3a2 8fbd 5158 24bd 30ea a93d
00000280: b937 4cbd 11c3 bebd 08f0 583d 9aa8 c13d
00000290: dd1b d0bd 6e38 58bd 7d4a 523d a4e1 cf3d
000002a0: 1e1e 5bbb a555 76bd b4c3 6fbd 35a3 f5bb
000002b0: 028b 0fbe 7400 c7bd 7bb0 8d3d 25ea f33d
000002c0: be31 74bd ed99 11bd e44c 97bd ff2a bc3d
000002d0: afa5 a63d 96a2 a43c f2d4 fb3d b9c3 063e
000002e0: 943c 83bd 3527 bcbd 4930 8cbd 4699 e53d
000002f0: c926 f83d b2cb 1a3c 740e 1fbe e1c5 9c3d
00000300: 58ec b4bd 7340 e73d 37f0 923c 2b10 7c3d
00000310: a335 ecbd 43b6 dbbd 4edb 0fbd d8c1 103e
00000320: 8557 5cbd 62a5 c4bd efb3 fcbd e798 8d3d
00000330: e6a1 e03d 9142 16be 02ef d63d 810d 913d
00000340: 22a1 24be dcae e6bd d6bf a5bd 848a e6bd
00000350: e41b 463d c763 10be 1a5e 083e f22e 653d
00000360: 4438 8a3d 148f 0e3e 2888 4b3d 2eea d5bd
00000370: 570c 083e d5b6 fdbd 8872 fdbc 4f69 c53d
00000380: 3282 adbd 5451 f3bd ca4a e03d 5c4f bcbd
00000390: e440 bb3d 976f 14be 1abf f4bd 990e ddbd
000003a0: 7e7d a63d 4eca fcbc 2b74 dabd ffe9 e1bd
000003b0: e3ea 91bd 1140 0b3e d229 f0bd 86d2 7f3d
000003c0: 176e c8bc ca98 0cbe 540a 1c3e d6c7 4b3d
000003d0: 88fb e13d 401a 0dbe 1cf9 1cbe 4ea4 03be
000003e0: b1be 01be 5f21 22bd 3884 993d 5dd1 df3d
000003f0: 977a f83b e4ac 14be 0353 c5bb bc58 ed3d
-0.018663526 -0.04294249 0.032490302 0.011284016 0.043443594 0.0014443286 0.021063875 0.01215769
-0.023161102 -0.038114678 -0.009932458 -0.008645751 0.029347528 0.010404862 -0.00178238 0.02426571
0.04739103 0.025868189 0.038847756 0.043011133 -0.025702287 -0.03951515 -0.020547355 -0.043113258
-0.018023312 0.009575628 0.0076903105 -0.00031107664 0.024842229 0.0043054 0.019192766 -0.013395488
0.010326125 -0.022040797 0.0044210553 0.026893307 -0.04970056 0.0010013692 -0.042890217 -0.025103176
-0.0028087497 0.0041601546 0.016186643 -0.0075381994 0.008110691 -0.011151087 -0.03568963 0.002254963
-0.027930235 -0.021533405 -0.04009793 -0.0046398267 0.019968655 0.029448915 -0.0067986622 -0.03310584
0.039428066 0.00790491 -0.024107194 0.037922326 -0.00040147454 -0.017082714 -0.021750594 0.012926649
0.010632455 -0.0031668432 -0.017397095 -0.010506548 -0.030694604 0.023051564 -0.029466106 0.025136147
0.019093681 0.046602573 -0.040129878 0.017354336 -0.03796027 -0.007956099 -0.0112652555 -0.0231848
-0.03857503 0.038676526 -0.04383818 -0.005635284 -0.011862505 -0.0458357 0.045126367 0.04870795
0.04591794 -0.0128820315 -0.028046966 -0.048873734 0.04195993 -0.01695615 0.03408594 -0.028236926
-0.030437768 0.033483993 0.012198973 -0.038832247 0.007272862 0.032446396 -0.011970688 0.041521464
-0.020271933 0.010301329 -0.044458307 0.03548261 -0.038026154 -0.028920842 0.020614956 -0.047445145
0.032881606 0.016527783 -0.015981387 -0.020536805 0.010929108 -0.038421117 -0.008295156 0.010198988
-0.0001623258 -0.03968674 -0.017998911 0.0226578 -0.046656072 -0.04529294 0.02443153 -0.030247306
-0.056760684 -0.14472744 -0.026506545 0.10434251 0.039131686 -0.064588 0.086923294 -0.09626774
0.029199084 0.107983336 0.10332507 0.067306906 0.072238795 -0.09021609 -0.100375384 -0.08457568
0.001266484 0.09240012 -0.11704538 -0.13921799 -0.12946175 -0.018654061 0.09777764 0.005461288
-0.10822876 0.07683476 -0.069591545 0.070132956 -0.035903215 -0.07013466 -0.040123288 0.08296621
-0.04985783 -0.0931455 0.052963287 0.09455986 -0.101615645 -0.05278819 0.05134057 0.101504594
-0.00334347 -0.06014027 -0.058536246 -0.0074962624 -0.14017871 -0.09716883 0.069184266 0.11909894
-0.05961775 -0.035547186 -0.073877126 0.09187888 0.081370704 0.020097058 0.122964755 0.131606
-0.06408039 -0.09187166 -0.06845147 0.11210875 0.12116773 0.009447979 -0.15532857 0.0765493
-0.088341415 0.112915896 0.017936809 0.061538856 -0.11533668 -0.10728123 -0.035121255 0.14136446
-0.053794403 -0.09601857 -0.12339007 0.069139294 0.1096838 -0.1467383 0.10494806 0.07082654
-0.16077092 -0.112638205 -0.080932304 -0.112568885 0.048366442 -0.14100562 0.13317147 0.055952974
0.06749013 0.13921767 0.049690396 -0.10445057 0.13285957 -0.12388388 -0.030938402 0.09639227
-0.084720984 -0.118807465 0.10951765 -0.09194824 0.09143236 -0.14495693 -0.11950512 -0.107938
0.081294045 -0.030858185 -0.106666885 -0.11030959 -0.07124879 0.13598658 -0.117267266 0.06245663
-0.024466557 -0.1373016 0.15238315 0.049751125 0.11034304 -0.13779545 -0.15329403 -0.12855646
-0.12670399 -0.039582606 0.07495922 0.10928605 0.007582973 -0.14519078 -0.0060218587 0.1158919

sequential/dense/BiasAdd/ReadVariableOp f4 [64]
00000000: 41b3 cb3d 710f 9f3d 4329 aa3d cffc 063e
00000010: cc48 8a3d fbc0 133d 613b 8d3d 6a93 8c3d
00000020: eae0 553d 928d be3d 0ce2 d93c 624e d33b
00000030: 0843 8b3d 4f6a 7d3d 727e 783d 8125 b63d
00000040: 16a6 953d 60b5 d23d 477a 6f3d b854 f33c
00000050: 97c8 d63d 65a7 893d f0b6 cd3d ac79 5e3d
00000060: f3fc c53d 9f70 d13d c961 3f3d 7c92 be3d
00000070: 5533 5b3d bfe1 a33d 40b8 a13d 1186 843d
00000080: 6d47 9c3d 584d 643d c4fc 973d 87db ce3d
00000090: 7e1f 9b3d fe2a 6f3d ae26 993d 5abc 933d
000000a0: 0b6e e93d 8b72 953d 68fe e73d 9d61 cf3d
000000b0: f894 163d fdea bb3d a246 603d 6cd7 8d3d
000000c0: adc5 893d a25b 9c3d 90da b63d 0028 833d
000000d0: 3413 b03d 4cd3 eb3d fb0c a63d 95a0 a13d
000000e0: dc68 f73d 3522 e33d f8f8 2c3d 3228 823d
000000f0: 3db6 803d 42b8 a93d f40e 5c3d 7334 1b3d
0.09946299 0.07766617 0.08308651 0.13182376 0.06752166 0.036072712 0.06896091 0.068640545
0.052216448 0.09304346 0.026597045 0.006448553 0.067998946 0.061868962 0.060667463 0.08893872
0.07307069 0.10288501 0.058466222 0.029703483 0.10487478 0.06721381 0.10044658 0.054315254
0.09667387 0.10226559 0.046724115 0.093052834 0.05351575 0.08002042 0.07896471 0.06470884
0.07630811 0.055737823 0.07421258 0.10100465 0.07574366 0.05839061 0.07478081 0.072136596
0.11397942 0.07297238 0.11327821 0.1012604 0.03676316 0.0917568 0.05475486 0.06925854
0.06727157 0.07634665 0.08928406 0.06404114 0.08597413 0.11514911 0.081079446 0.07891957
0.12080547 0.11090509 0.042229623 0.06355323 0.06284759 0.082870975 0.053725198 0.037891816

sequential/dense_2/BiasAdd/ReadVariableOp f4 [5]
00000000: 5bda 953c 0827 47bd c28d 963c ac11 d03b
00000010: e0d8 d6bc
0.018292597 -0.048621207 0.018378142 0.006349763 -0.026226461

sequential/dense_1/BiasAdd/ReadVariableOp f4 [64]
00000000: 0d90 0d3d b9d7 1f3d 1502 913c c4d1 263d
00000010: 0c1b 97bc d504 6bbc 1e7d 1c3d 758e 85bc
00000020: 6a08 1d3d 6933 2d3d af5e 813d 0fe2 cd3c
00000030: c7cb 6a3d ebd6 833c aa8b 963d 7a39 f43c
00000040: e8a1 843d 1155 323d 2925 6b3d e882 653d
00000050: 51a8 aa3d e26a af3c bc55 b4bc ff8a aa39
00000060: 3833 6c3d 7e27 cf3b af48 823d 8caa 013d
00000070: ee41 093d b452 56bc 6adc 6b3d d8d9 a83d
00000080: 4320 5b3d af0c 8dbc f560 3dbc bfeb 2a3d
00000090: 725b 623d 29a0 743d 3160 8b3d e88a 2f3d
000000a0: 1b97 3b3d 3966 353d 33a8 163d 2e86 033d
000000b0: 6f4e 053c ad50 253d 88b8 7c3d b8f1 0e3d
000000c0: 325f 283d 7ecc 8b3d c3d1 733d 96fb 363d
000000d0: 3808 103d c3fd e23c 4d2e 4e3d 84a9 6b3c
000000e0: b691 8a3d bfce 273d 327a 573d 200f 603d
000000f0: 31b3 63bc 8d62 7f3c fe3a 853c 9b6d 8a3d
0.034561206 0.03902409 0.017701188 0.04072739 -0.018445514 -0.014344414 0.03820526 -0.01630328
0.038338102 0.042285357 0.063168876 0.025132207 0.057323243 0.016093692 0.073508576 0.029812563
0.06476194 0.043538157 0.057408486 0.056033045 0.08332885 0.02141327 -0.022013538 0.00032528487
0.057666034 0.0063218465 0.063615195 0.031656787 0.03351014 -0.013081241 0.05758325 0.082446754
0.053497564 -0.017217962 -0.011558761 0.04172873 0.05526299 0.059723053 0.068054564 0.04285708
0.045798402 0.04428694 0.0367815 0.032110386 0.008136376 0.04036014 0.06169942 0.03489849
0.04110641 0.06826113 0.059526216 0.044673525 0.035164088 0.027708894 0.050337125 0.014383677
0.067660734 0.040968653 0.05260677 0.054701924 -0.013897703 0.015587461 0.016263481 0.06759187

sequential/dense/MatMul f4 [64, 192]
00000000: b87a 293e 154a 903d 3692 9e3c be03 993e
00000010: 32d3 4abe 4a36 d93a eda4 80bc 4fd2 25bc
00000020: 9b3c cbbd 9922 0fbd 3dd7 4c3e 32d9 b73d
00000030: 08f1 943b cffc 1cbd 9df4 823e 94f5 533d
00000040: b6ec 71be 28ed 9fbd f3bf 20be 906b 8abc
00000050: ca20 803d b475 99be 9cfb fe3d e0af ac3d
00000060: 1a2c eb3c 2ffb 353d 55ca 83bd 5a98 19be
00000070: b264 18be 1579 76be 86b7 0ebd 953d ca3d
00000080: c1ab fbbd 4719 3bbd 2c67 643e bff1 28be
00000090: f162 04be 82cf b2be 210d f73b aa84 32bd
000000a0: 4ff6 1cbc a338 4ebe 5403 25bd 601e 913d
000000b0: 6cf2 b0be 09e8 483e b77e 25be 3b40 8f3d
000000c0: f05f 8cbe ca21 ee3d f53b 9b3c be32 ce3d
000000d0: 2572 383e 51c2 37be e836 073e b5a2 463e
000000e0: 9917 ffbd 5c66 00bd 8086 843d 9fa2 be3d
000000f0: 15b5 85bd 1027 26be 66d5 bbbd 437d 453d
00000100: 0436 16be d3d2 00be d6be 5f3e 9f94 b63d
00000110: 0a71 9f3e 86bf acbb 5a76 1bbd a6c5 d5bd
00000120: 5c1f 75bd fecd 28be 1f84 613e 1504 5fbe
00000130: 640c c93d 30b2 263e 253a 943d b8e1 c0be
00000140: 08f2 5dbd a74a 7c3e c7ef 5abc 7554 503d
00000150: ab08 57be 1f91 4c3e d3dc 6cbd c367 8b3d
00000160: 5b9a 47be 755d 473c e46a 9ebe fd1c 553d
00000170: fa7b 1cbd e9a2 c23d ccbc 083e c178 20be
00000180: 0749 03be ecae 0e3e ac58 2bbc 8bcb 9cbe
00000190: d003 343e 62c7 a33c b568 bb3c 7dd1 3f3e
000001a0: 8b43 263e 8dc5 533e a6d7 edba 62a1 9b3d
000001b0: 1fc5 893d c7a7 6abd 0b55 0f3d dfca fbbc
000001c0: 211e 363e 3c46 58be edc0 d9bd c4bd 3fbe
000001d0: 6d6f 593e fbb7 6bbe 8f2e 14bd 504f d33d
000001e0: 6c75 9e3d 7f23 a13e 0595 2e3e d16d 963e
000001f0: 7625 853e cb6c 8b3e a4ca 19bd 2d82 663e
00000200: c43f 65bd a8be dc3c db58 22be 4033 eabd
00000210: e385 9a3d 8741 30be 1e0e 953d 6cae 113c
00000220: 5539 843e e8e8 023e e7c0 323e 7f5e a0bc
00000230: b399 4bbd de01 b13b 9424 28bd 8ba5 6ebe
00000240: 6a73 343e e7c7 593e 9b61 4c3d 5393 bfbd
00000250: ad88 c2bd 65f0 3cbc 457c 1c3e 9fa4 24be
00000260: b90a 05be 5d23 023e 5595 d2bd 5eca c33d
00000270: bc08 06bc c514 103e ceb8 5cbe 386d 793d
00000280: e176 003d d47a 88bd 58e1 833e 761b 0fbe
00000290: 6701 2fbe 78ab bc3d 5de0 0abe 6601 733e
000002a0: 9e24 86be d8bd 27be 15cd 2e3e 4584 1b3e
000002b0: 80ce 07be 726c 44be 7ee9 a1bd b4b5 ba3c
000002c0: ee7e 56be 35a4 1cbe fee5 23be b8b9 ef3d
000002d0: a497 f13d cfb9 103e e0d6 143e 3b92 493e
000002e0: a692 a4be 3b61 8dbd 8300 1dbc 8bc2 00bb
000002f0: 8feb f8bd b270 86be f5f4 10bd d6aa 5cbc
00000300: 7e84 db3d 456c debd d925 16be addb 343e
00000310: fffd 8ebd 145e 05be e471 8ebe 8465 573e
00000320: abb6 713e 2042 8e3e 2ab9 5cbe a193 953d
00000330: cffd 453b d884 b33d 91ff 50bd 823a 023e
00000340: 506b 09bd 9b99 df3d 040f aa3c 9bac a9be
00000350: 452e 88bd 5601 fb3c 6cc8 e23d 2b0e 93bd
00000360: 284a 153e 5c17 393e dd97 b23d adc3 243d
00000370: 2484 86bc 8827 a1bd be79 eb3d cf1c 93bd
00000380: 6fd7 913c 1fcf 80be f964 dcbd be2c 403e
00000390: de6b 0cbe c950 d9bd 66b1 f5bb 7392 f5bd
000003a0: b3fd 89be 009e 973d 69de 9f3d f5bf 0abc
000003b0: 6ee2 18be 562e 88be 478d 8dbc 175f 61be
000003c0: ef2d 19be 2c08 84bd de7f 0f3d 8f19 173e
000003d0: f305 4dbe 58db e13d e1a5 40bd 0248 a6bc
000003e0: 0d8e 91bc 0b8e 85be 598b 283b 1977 60be
000003f0: d2fb 16be 84bf dabd e0c3 fcbd 283c bb3d
0.1655072 0.0704538 0.019356828 0.29885668 -0.19807127 0.0016571966 -0.015703643 -0.010120942
-0.09923669 -0.034945104 0.20003982 0.089769736 0.0045453347 -0.038327035 0.2557725 0.051747873
-0.23625454 -0.07808906 -0.15698223 -0.016896993 0.06256254 -0.29972613 0.124503344 0.08431983
0.028707553 0.044429 -0.06435076 -0.14999524 -0.14882162 -0.24069627 -0.03484299 0.09875027
-0.12288619 -0.045678403 0.22304982 -0.16498469 -0.12928368 -0.3492394 0.007539407 -0.04358355
-0.009580209 -0.20138793 -0.040286377 0.07085872 -0.34559953 0.19619764 -0.16161619 0.06994673
-0.27416945 0.116275385 0.018949488 0.10068272 0.18012293 -0.1794522 0.13204539 0.19398005
-0.12455673 -0.031347618 0.06470966 0.09308361 -0.06528679 -0.16225839 -0.09171562 0.048215162
-0.14669043 -0.12580423 0.21850142 0.08915066 0.3114093 -0.005271855 -0.037954666 -0.10438089
-0.05984436 -0.1648483 0.22023056 -0.21778901 0.098168164 0.1627891 0.07237653 -0.3767221
-0.054185897 0.24637853 -0.013362831 0.050861795 -0.209994 0.19977234 -0.057827782 0.068069
-0.19492476 0.012168278 -0.30940926 0.0520296 -0.03820417 0.09503729 0.1335327 -0.15671064
-0.12820826 0.13933915 -0.010458153 -0.3062404 0.1757958 0.019992534 0.022877077 0.18732257
0.16236703 0.20680828 -0.0018145933 0.07599141 0.06727051 -0.05728891 0.034993213 -0.030736385
0.17784931 -0.21120542 -0.10632501 -0.18724734 0.21233912 -0.23019402 -0.036177214 0.10317862
0.0773724 0.31472394 0.17049034 0.29380658 0.26005143 0.2723144 -0.03754677 0.22510596
-0.055969015 0.02694638 -0.15854208 -0.114355564 0.07545068 -0.17212497 0.07278083 0.008891683
0.2582499 0.12784159 0.17456399 -0.01957631 -0.049707126 0.005401834 -0.04105051 -0.23305337
0.17622152 0.21267663 0.04989777 -0.09354272 -0.09498725 -0.011531924 0.1528178 -0.16078423
-0.12992372 0.12708803 -0.10282389 0.09560083 -0.008180793 0.14070423 -0.21554872 0.060895175
0.03136337 -0.066640526 0.2575786 -0.1397532 -0.17090379 0.092123926 -0.1356215 0.23731002
-0.26199812 -0.16381013 0.1707042 0.15187176 -0.13262367 -0.19181994 -0.07905863 0.02279172
-0.20946857 -0.15297015 -0.16005704 0.11705345 0.11796501 0.1413338 0.14535093 0.19684689
-0.32143134 -0.06903311 -0.009582642 -0.0019647207 -0.12154304 -0.26257855 -0.03538986 -0.013468465
0.1071863 -0.108604945 -0.14662875 0.17661925 -0.0698204 -0.13024169 -0.27821267 0.21034819
0.23604839 0.27784824 -0.2155501 0.073035486 0.0030211096 0.08765572 -0.051024977 0.12717631
-0.033549607 0.1091797 0.020759113 -0.331395 -0.0664945 0.030640285 0.11073384 -0.07180437
0.1457907 0.18075317 0.08720372 0.040225673 -0.016420431 -0.07868868 0.1149783 -0.07183229
0.017802922 -0.2515802 -0.107614465 0.18767068 -0.13713023 -0.10611112 -0.007497954 -0.119908236
-0.2695137 0.07403183 0.07806093 -0.008468618 -0.14930126 -0.26597852 -0.01727928 -0.2200893
-0.14958929 -0.06446871 0.035034053 0.14755844 -0.200218 0.110281646 -0.047033194 -0.020298008
-0.01776793 -0.26084933 0.0025717823 -0.21920432 -0.147445 -0.1068106 -0.12342048 0.09142333

sequential/dense_1/MatMul f4 [64, 64]
00000000: 4d23 59bc 5eb5 23bc 757f 343e a4ab 773e
00000010: 0be6 08bd 15ff 8d3e 2f68 173d bdbc 28bc
00000020: 0a5a 263e dc64 87be 3c18 253e 176f db3d
00000030: 7d53 a73e e380 6b3d 77ae fe3d f804 b6bd
00000040: f6dd 503d 12d9 673d 01f9 4f3e bb58 afbd
00000050: 25e7 3ebe 2033 50bd 7a3e df3d 299b b3bd
00000060: 810a b03d e760 bfbd 7770 1ebe fa21 a9be
00000070: ccab e63d a8a2 04bd da32 773e d1ed c33d
00000080: f456 9e3e 4ddc ad3e 0a41 bb3c 51b6 97bd
00000090: 0ae0 593d c253 623e 6adc 043e ddc0 08bc
000000a0: 0381 98bd ade2 533e 64a9 4c3e d861 5dbe
000000b0: 2a40 143d 4e00 09be 38e2 873c b620 9d3d
000000c0: cb4d 133e a0ed 9bba c6ab 233e 0b48 833e
000000d0: 988c 35bd 1fd3 01be d082 25be 34c2 7f3e
000000e0: 1ab0 2e3e a4a6 013e d4b0 753e 0046 013e
000000f0: 1b43 313d d11c 93bd b3e8 a03e 8e6f 2c3e
00000100: 71db fb3d 2369 53be 80fa 8d3e 6bf5 03be
00000110: e303 973e feeb c8bd 4645 523e 7c74 a13e
00000120: 0f53 9b3e 7e59 12be 80e9 af3d cc8b bebd
00000130: 9110 6c3e dbd5 f73d c938 513e d95b 003d
00000140: 865e 09bc 660f 403e 495b 2bbe e4da 13be
00000150: 5f4c 7b3e ddb0 2c3e e661 833d 5e0f aebd
00000160: f3e4 613d 051f 7a3e 3f8a 46bd 5921 4dbe
00000170: cf71 263d 1594 e53d 7921 a03b 4e57 0e3c
00000180: c98f efbc 02e7 533e 075b e33d 67f2 583e
00000190: 0b8f ac3d 27f0 083e d7d7 99bd 4f33 11bd
000001a0: 8864 68be fee2 843e 0fb0 713e 3a5d 34be
000001b0: a4d7 c93d d088 b0bd 76da ccbd 9bc2 2bbe
000001c0: 66f4 b83d d3a0 cebd 8a97 ab3d be07 66bd
000001d0: 73c7 443e d613 8f3d f96e a3bd b312 9a3e
000001e0: 4f02 d83d 0b40 22be da9e 583e 20b1 4e3e
000001f0: 8a3d 423e 9ba1 583c 2c4d de3d 4abb 00be
00000200: e40b 15bd 900c ecbd 620f 953c bcfe 863d
00000210: 290e 523e dbcf 9c3e 3cf7 143e 6106 f7bc
00000220: e99b a53e 7251 efbd e2dd d43e aa35 a63e
00000230: dfac a73a 5a8d 6c3d fea8 fc3d 1c35 6b3e
00000240: f8a8 603c 84b9 2f3e a864 1ebd 291b 27be
00000250: 307e 843c 0ad7 9b3e 728d 3bbe 24d1 3dbe
00000260: 7c05 7bbd 9b05 f53d 3b99 c0bd 80f1 85bd
00000270: 5c6b d33d f0c8 943d f223 4c3e 223c 223d
00000280: 2540 a23e 5ad0 953e 1b8b 0e3e 123b 923c
00000290: 4845 e6bd 1ff6 853d 3328 983d 6190 983e
000002a0: 0557 ca3d 527e 673d e23d 0b3c 47ec 97be
000002b0: fc38 893e 67e8 553e f937 2d3e 8bac 5fbd
000002c0: a1c4 8d3e a38c 90bd 4f31 973d 54c1 aa3e
000002d0: 74c2 e7bd 5d9d 58be 09dd a9bd e40c 893d
000002e0: 90de 653e 3b11 8dbe 401d 053e 2c05 b93e
000002f0: 9d4c 833e c2ab d0bd fa66 6e3e c204 f03d
00000300: 8bd4 edbd 7a75 1abe 47bf a03d 1b48 333e
00000310: 224f 093e 8bd4 3f3d 77b2 11bd 532c 85bc
00000320: 0165 1f3d 1080 493e dcfe 8c3d 796f 7f3e
00000330: dd94 a33e acfe 8a3c efce 0c3e 21e1 9fbc
00000340: 5380 ab3e 94a4 16bd a254 483d f40a 45be
00000350: d549 a93e febf 05bd 950c 953e 26bf 523b
00000360: 93f8 8b3d 1438 813e aaa0 e8bc 9204 92be
00000370: 4e8b 5a3e 9edc 8a3e 5e32 c0bd e0ca 963d
00000380: 752b 813e b4ff 5f3e 616c 0a3e b507 d9bd
00000390: b57f 8a3e e022 263e e466 843e dc0d 353e
000003a0: 3cef 08be 6bff 553d 3238 393d a8d8 dbbb
000003b0: 8663 f73d ce40 433e 9a9f 95bd 894c f4bc
000003c0: 0e4a bdbd b7dc 833e 2c95 bcbd 2f12 7a3e
000003d0: cfc2 99bd 4d16 243d 917b cb3d 111c e83d
000003e0: 09f2 893e 3f16 253e 3ae7 7a3e 35ba e13c
000003f0: c662 803e 354a 7e3e d4f8 6d3e 530f 3f3d
-0.013253045 -0.009991972 0.17626746 0.2418657 -0.03342251 0.27733675 0.03696459 -0.010298905
0.16245285 -0.26444137 0.16122526 0.10714548 0.32680884 0.057495963 0.1243562 -0.088876665
0.05099293 0.0566035 0.20309831 -0.08561846 -0.18642862 -0.050830007 0.10900588 -0.08769829
0.085957535 -0.093446545 -0.1547259 -0.33033735 0.112632364 -0.032381684 0.24140492 0.09566844
0.30925715 0.3395714 0.022858161 -0.07407821 0.053192176 0.22102264 0.12974706 -0.008346763
-0.07446482 0.20691939 0.19986492 -0.21619356 0.036194004 -0.13379022 0.016587362 0.07672255
0.14385144 -0.0011896379 0.15983495 0.25640902 -0.044323534 -0.12678193 -0.16163182 0.24976426
0.17059365 0.12661225 0.23993236 0.12624359 0.043276887 -0.07183231 0.31427535 0.1683943
0.122977145 -0.20645575 0.2773018 -0.12886588 0.29495153 -0.09810637 0.20534238 0.31534183
0.30336806 -0.14291951 0.085894585 -0.09304008 0.23053195 0.121013366 0.20431818 0.031337593
-0.008384353 0.18755874 -0.16734041 -0.14438969 0.24540852 0.16864343 0.06415157 -0.08499025
0.055149984 0.24425896 -0.048471685 -0.20032252 0.04063588 0.11209885 0.0048868028 0.008687807
-0.029243367 0.20693591 0.111013465 0.21186219 0.08425721 0.13372861 -0.07511871 -0.035449322
-0.226946 0.2595443 0.23602317 -0.17613688 0.09855583 -0.08619845 -0.100026056 -0.16773455
0.0903099 -0.100892685 0.08378513 -0.056159727 0.19216709 0.06986205 -0.07980151 0.3009239
0.10547315 -0.15844743 0.21154347 0.20184755 0.18968788 0.0132221235 0.10854563 -0.12571445
-0.036388293 -0.115258336 0.018195812 0.065915555 0.20513214 0.3062733 0.14547437 -0.030154409
0.32345513 -0.11685456 0.41575533 0.32462817 0.0012792608 0.05775199 0.1233692 0.22969478
0.01371216 0.17160612 -0.038670212 -0.16318955 0.016173452 0.304375 -0.18315676 -0.18536812
-0.061284527 0.1196396 -0.094042264 -0.06540203 0.103232116 0.07264888 0.19935587 0.03960813
0.31689563 0.29260522 0.13920252 0.017850433 -0.11243683 0.065410845 0.074295424 0.29797652
0.09879879 0.056516953 0.008498641 -0.29672453 0.26801288 0.20889436 0.16915883 -0.05460791
0.27689078 -0.07058074 0.07382452 0.33350623 -0.11316386 -0.2115378 -0.08294112 0.06691912
0.22448182 -0.27552208 0.12999439 0.36136758 0.2564439 -0.1018901 0.2328147 0.117196575
-0.11612805 -0.15083876 0.07848983 0.17507975 0.13409093 0.046833556 -0.035570588 -0.016256487
0.038914684 0.19677758 0.06884548 0.24944867 0.3194951 0.01696714 0.13750814 -0.01951653
0.3349634 -0.036778048 0.048908837 -0.1924246 0.33064142 -0.0326538 0.29111162 0.003215739
0.06834521 0.25238097 -0.028396923 -0.28519112 0.21342203 0.27121443 -0.09384607 0.07362914
0.25228468 0.21874887 0.13517906 -0.10597173 0.27050558 0.16224241 0.2585975 0.17681068
-0.1337251 0.05224554 0.045219608 -0.006709177 0.120795295 0.1906769 -0.07305832 -0.029821651
-0.092426404 0.2575433 -0.0920814 0.24420999 -0.0750786 0.04006033 0.09935678 0.11333478
0.2694247 0.16121767 0.24502268 0.02755461 0.25075358 0.24832995 0.23239452 0.046645474

sequential/dense_2/MatMul f4 [5, 64]
00000000: 6b68 013e 6eac 1c3e 979e 7d3e 173e 713e
00000010: fe95 20be d366 38be 2ebe 9a3e 44bf 09bc
00000020: b920 533d bd3e 04be 2979 a5be 0d3b bdbe
00000030: c0ec cabe a981 743e 80bc 3d3e 9323 a7bd
00000040: c899 9abe 0716 973e f840 94be b169 d43d
00000050: ebb9 bdbd 204e fdbe b9fc 4bbd c3e5 a5be
00000060: da62 dabe fdcb c6be a6d8 08bf cee9 b73d
00000070: 625a 8c3e a0bc 65be 6329 7a3e b5a6 e7bd
00000080: d20d 2a3e 80ec cabd 5bab 113e 46b2 b83e
00000090: 3c6f 313e bf2b d83d 9ad5 15bf 1f3c cf3e
000000a0: a5bb d83d a06b d6be 0393 743e b049 3c3e
000000b0: cfbb 50bd 0bf1 ae3e fff8 cabe f6af 28be
000000c0: 79e2 643e 1565 a53e 66ad 453e ff70 babe
000000d0: e0ff a53c cc11 c1be 76bf 613e fa68 373d
000000e0: 1ddc d43d b821 74be d00d 03bf b63e e8be
000000f0: 5cd6 12be e059 e43b 5d4b ea3d 3b8c a83d
00000100: 01a2 a13e 88d5 1dbe 3d7f aa3e 01b4 7c3e
00000110: 6f23 833e c1e3 8b3e dba0 d3be 4335 113e
00000120: 5962 643e e42a b03e f822 c23c b7e8 9c3d
00000130: 596b 02be ce83 52be 4335 cfbe 5578 aebd
00000140: 4a6b dabe 692f 343e 5bb0 113e 35ea 07bf
00000150: 3bb2 89be 97c3 a53c c8f2 33be f806 823e
00000160: 0131 5e3d 4c16 d23e b54b babe 0c07 acbe
00000170: 9a54 31be 8777 b33e 2ae0 cdbe 1d6f 00bf
00000180: 1844 82be b813 4fbc 65a4 25be 6131 04be
00000190: 4731 debe e333 b2be 8f16 cdbd 31d7 c7be
000001a0: 4132 993d 6572 433e b230 d03d 1b88 0c3e
000001b0: c02f a33e b36b e53d 1c53 fabe ba52 9e3e
000001c0: 2c71 5cbc fe59 8abe 8544 82be 54ab 4a3e
000001d0: 23a5 243e 2dc8 9d3e bda8 73be fe4b 93bd
000001e0: aa8a 63be 99b8 8d3e d89c d8be 5b28 543e
000001f0: 72b6 ad3d cf56 5f3c 666e 39be 5267 97be
00000200: 9895 1cbe 52be b7be fa93 1abe 1d88 2b3e
00000210: 31b2 80be d717 62be 79db 2b3e 4723 3abe
00000220: 95a6 463d 99e4 ba3e 9c14 8c3e ad30 173d
00000230: 6b97 ce3e 6162 99be 93ff 743e d1bd 073f
00000240: c021 7c3e ce38 b53e 4f38 0dbf 1c3f 773e
00000250: 8785 6d3e ff49 32be 2b8c f4bd d783 b63c
00000260: 8cce c13e e982 f1be 24bc 1e3e 47a3 98be
00000270: 80d8 b8be e474 98be 0e86 693e e740 6ebe
00000280: 4824 f7be 4f41 8c3e 47de 3ebe ba13 f0bd
00000290: 9edb fbbe 6bcd 9f3e 9a0e 963d d798 9bbd
000002a0: c1ea 98be bebf f3be 3bd2 bebe 60ad 95be
000002b0: 4ef5 58be f365 69be 4358 d63d 44d9 87be
000002c0: 46b1 e8bc e7fa 72be 89d3 923e cb58 b3be
000002d0: 1ac6 a3be a4ef ecbe e6c6 55be 47bf 8ebd
000002e0: c0f3 2e3e f9ff bbbe 6203 033e cfc1 cc3d
000002f0: 2031 05be 0128 c5be 6052 cbbe 978e cebe
00000300: 7f07 a9be ab1c cabe dee5 94bd 7e66 b9be
00000310: 16a6 79be 118a bebe c181 dabe e8ce 7d3e
00000320: 9303 fb3d b957 b3be f37b 543d dcc3 20bf
00000330: 4498 88bd f5b9 52bd 9b7d d2be e7e0 90bd
00000340: 22fc 99be 895a 83be 8848 07bf 14f6 743e
00000350: 618c d1be 3f77 073e 34b9 1abd a948 1fbe
00000360: 6066 c2bd 3edd 23be 0301 6ebe b362 afbe
00000370: 65ec 3dbe f7dd b0be 2a8b 8dbe 7dee a33e
00000380: 2d1c 903e 4356 1fbe 7c21 03bd 5675 17be
00000390: 8b90 c4be a6cd a2be 3480 8e3e 471b 58be
000003a0: 6b19 a8be e8d6 c5be 4f90 69be beb2 e53d
000003b0: 8930 bb3e d5df 91be 6fa1 893d eb36 b23e
000003c0: 1d05 c43e 428d b6be 42b8 1fbe 64f0 e73e
000003d0: 200b bbbe 0682 f7be 0dea 25be e8d5 ff3e
000003e0: 7d40 833e 3ac3 f4be 851e 143e b0fa be3e
000003f0: 180a 263d 089f c5be d950 76bd 499a 923e
0.12637489 0.15300152 0.24767528 0.23558842 -0.15682217 -0.18007974 0.3022322 -0.008407418
0.05154488 -0.12914558 -0.32319 -0.36959115 -0.3963375 0.23877586 0.18528938 -0.08161082
-0.3019545 0.29508993 -0.28955817 0.103717215 -0.09263977 -0.49473667 -0.049801562 -0.32401857
-0.42653543 -0.38827506 -0.5345558 0.089801416 0.27412707 -0.22435236 0.2442985 -0.11311094
0.16606835 -0.0990839 0.14225523 0.36073512 0.17327589 0.10555219 -0.58529055 0.40475556
0.10582665 -0.41878986 0.23884206 0.18387485 -0.05096036 0.34168276 -0.39643094 -0.16473374
0.22352017 0.32303682 0.19304428 -0.36414334 0.020263612 -0.3770889 0.22045693 0.044777848
0.10393546 -0.23840988 -0.5119295 -0.45360345 -0.14339584 0.0069687217 0.11440156 0.08229872
0.31568912 -0.15413487 0.333002 0.24678041 0.2561297 0.273222 -0.4133366 0.14180474
0.22303142 0.34407723 0.023698315 0.07661574 -0.12736262 -0.20558092 -0.40470323 -0.08519045
-0.4265998 0.1759621 0.1422743 -0.53091747 -0.26893792 0.020234866 -0.17573082 0.25395942
0.054245953 0.41032636 -0.36385885 -0.33599126 -0.17317429 0.3505213 -0.40210086 -0.50169545
-0.25442576 -0.012638979 -0.16175993 -0.12909462 -0.4339697 -0.3480521 -0.10014068 -0.39031366
0.07480288 0.19086607 0.10165538 0.13723795 0.31872368 0.112021826 -0.48891532 0.3092249
-0.013454717 -0.27021784 -0.254429 0.19791919 0.1607862 0.30816785 -0.23794837 -0.07192229
-0.22220865 0.276799 -0.42307162 0.2071852 0.08482064 0.013631537 -0.1810852 -0.29571015
-0.1529144 -0.3588739 -0.15095511 0.16751142 -0.2513595 -0.22079407 0.16782941 -0.1817752
0.04849871 0.3650253 0.27359474 0.036911655 0.40349898 -0.2995787 0.23925619 0.5302401
0.2462225 0.353949 -0.55164045 0.24145168 0.23195468 -0.1741104 -0.119407974 0.022279663
0.37852895 -0.4717019 0.15501457 -0.2981207 -0.36102676 -0.2977668 0.22805044 -0.23266946
-0.48269868 0.27393577 -0.1863948 -0.117225125 -0.49190992 0.3121141 0.07327004 -0.07597511
-0.29866603 -0.47607225 -0.37269768 -0.29233837 -0.21187326 -0.22792797 0.10466053 -0.26532948
-0.028404843 -0.23728524 0.28677014 -0.3502868 -0.31987077 -0.4627658 -0.20876655 -0.06970077
0.17085171 -0.3671873 0.12794259 0.099979036 -0.13007021 -0.38507083 -0.39711285 -0.40343162
-0.33013532 -0.39474997 -0.07270406 -0.36211008 -0.24379763 -0.3721471 -0.4267712 0.2478596
0.12256541 -0.35027865 0.05187602 -0.6279886 -0.06669667 -0.051446874 -0.41111454 -0.07074147
-0.30075175 -0.2565501 -0.5284505 0.23921996 -0.40927413 0.13229083 -0.03777428 -0.15555061
-0.09492183 -0.16002366 -0.23242573 -0.3425499 -0.18547209 -0.34544346 -0.27645236 0.3201789
0.28146496 -0.1556025 -0.032014355 -0.14790854 -0.38391528 -0.31797522 0.27832186 -0.21104155
-0.32831892 -0.38640523 -0.22808956 0.11215733 0.36560467 -0.28491083 0.06720244 0.34807524
0.3828515 -0.35654646 -0.15597633 0.4530059 -0.36531925 -0.48341388 -0.16202565 0.49967885
0.25635138 -0.47805196 0.14464767 0.37300634 0.04053697 -0.38597894 -0.060135696 0.28633335
