assets/modelo_ventanas.tflite (tflite, 108876 bytes, 7 tensors)

sequential/embedding/embedding_lookup f4 [150, 64]
00000000: ccc6 703c e760 453d d0b4 5bbb 59a8 373d
00000010: 33e2 0b3d da31 873c 749e 01bc 2635 d43c
00000020: cc5d 00bc 0c01 033c 679a cebc fa99 84bc
00000030: 86de 01bd 505b c83b 8e4c ab3c 0ca6 5f3c
00000040: 1d04 40bd 7a3b b83c c35d 12bd 863c bc3c
00000050: 31c8 033d e871 7abc 34d0 523c 0080 4639
00000060: 8a7d 14bd 62e5 903c 00e3 173b 983b 89bb
00000070: b4ee 3bbc f410 103c 3003 1cbd 0d09 233d
00000080: 80fa 24bc 8029 423a 81e0 303d e8fc 05bc
00000090: 684a 18bc 72dd fc3c 531f cbbc da7a ff3c
000000a0: e84e 50bc fd7b 113d f49a 5d3c 67bd 0a3d
000000b0: 68e3 233c 4013 1fba 68c5 e03b 1af4 c53c
000000c0: a208 f53c e415 0abd 50eb fe3b 97ff 37bd
000000d0: 87b0 d9bc c27b eb3c 501d 9bbb e05a afbc
000000e0: 60ba b7ba 26c7 8fbc 68e7 a33b cc48 43bc
000000f0: 2e57 f23c b4a0 183c 6d05 b2bc 26b5 b93c
00000100: 404e f2bc 4d7d cbbc 6074 33bd f46b 97bc
00000110: 00ca 62bc 3091 8cbb a8d7 343c 5041 ad3b
00000120: a859 103c a379 12bd ad7c 113d 4690 87bc
00000130: 7a79 cebc e819 17bc 135d 3bbd 800b 96bc
00000140: 001a 6bbc d8ff 493c ccd2 003c 2e40 f23c
00000150: dcce 5e3c 2739 a4bc 89a3 063d cd72 41bd
00000160: ba3c 9b3c a060 9abc c3f6 38bd aa15 41bd
00000170: f3fe 233d 97bb 0e3d 9356 3ebd 60a0 b8ba
00000180: 6ed1 db3c a0a7 6bbb 4073 7bba b408 033c
00000190: 87a6 4bbd a76e 033d 6204 ed3c f9cb 1c3d
000001a0: 62d0 d03c 00ef 41bb e861 0dbc 2d84 e2bc
000001b0: 0c6b 10bc a0fd 4bbb d075 3c3b d024 4d3b
000001c0: 8ac9 33bd 9857 e0bb 500b 9fbb 4ca2 373c
000001d0: d75c 373d 87bb 2d3d 002a 12bd 1363 1b3d
000001e0: a224 bd3c 8669 cc3c f705 043d a086 87bc
000001f0: 9c63 713c 4091 db3a 6dba bcbc 7395 f2bc
00000200: 9cdd aa3d e8ef 9fbd f330 793c 020d 083e
00000210: cd71 29bd 6c91 903b c391 dbbd 0a3c aabd
00000220: 5f5b 11be e68b cc3d d01c f43c 0fec 063e
00000230: 47ab ab3c 3618 913d bb79 9cbc ea93 0abe
00000240: 6230 79bc e290 e23d 0bdd 8abc 8f28 06be
00000250: 5cf2 a73d 7e9f 5cbd 36c5 b8bd e10f 5dbd
00000260: 64a5 4a3d d0bc 01be 273c dfbd 3008 023e
00000270: 2385 0a3e fcac 873b 8d8c 32be d212 b33d
00000280: 1929 3ebd b962 823a 7c37 9ebd 8b33 073e
00000290: 2108 f5bd 7cc6 b23d 2dc8 a63d 41e8 16be
000002a0: 0fad 24bd 2565 84bc 59b1 a63d f012 17bd
000002b0: 24dc 053e 4fc4 05be 7c81 d63d 9e59 f6bd
000002c0: 3ef3 8ebd 66d5 bebd 96a6 e5bd 9399 7ebd
000002d0: 447f 9e3d c324 9dbd 4e8b 5f3d 0fe1 263e
000002e0: 36dd 0dbe d115 14be 2655 6f3b a673 153e
000002f0: 287e e43d 4a70 bf3d 810b 7a3d d93f 813d
00000300: fed7 a93d 23af a73d 0ecd 0fbe ded3 da3c
00000310: 6fb4 f7bd 56e5 21be 0172 e3bd db0e 263e
00000320: 83ee 483d e81c 493c d672 df3d ca8e 27be
00000330: c594 eebd d981 043e d0a5 60bd 8347 0fbe
00000340: 83d4 f8bd e4ec b9bc d982 6cbd fcec 083e
00000350: 5e63 0fbe 247a 0c3e 8712 1d3e 039b d6bd
00000360: ef88 03be 0486 003e 1c1c 7abc 2429 00be
00000370: 92e5 fbbd 7a37 2fbe d70f 2bbe b541 d7bd
00000380: 8fa2 fd3d 6789 17be 4c64 323d de0c 9bbd
00000390: 4bcc 07be 3cff 59bd 8759 1cbe ddd7 4a3d
000003a0: 2758 74bd c9e2 a0bd d5d3 39be 1d25 e03d
000003b0: bc95 0f3e c364 b7bc c579 e3bd a0c6 083e
000003c0: 50fb 9fbd a77b e23d 2d88 a33d c124 01be
000003d0: e456 1e3e f2ba 133e f320 013e 167b 3c3e
000003e0: 7c1e 0a3e 6c68 2c3e e0a8 fb3d 431f ac3c
000003f0: 56bf 213d 063c 083e 255d 20bc fcca a6bd
0.014695834 0.048188116 -0.003352452 0.044838283 0.034151267 0.016503263 -0.007911313 0.02590425
-0.007834863 0.007995855 -0.02522011 -0.016186703 -0.031706356 0.006114401 0.020910528 0.0136504285
-0.046878923 0.022489298 -0.03573395 0.022978079 0.03217334 -0.015285946 0.012867022 0.00018930435
-0.036252536 0.017687503 0.0023176074 -0.0041880123 -0.0114704855 0.008793104 -0.038088977 0.039803553
-0.0100694895 0.00074066967 0.043182854 -0.008177973 -0.009295084 0.030867312 -0.02479521 0.03118651
-0.012714125 0.035518635 0.013525713 0.033872034 0.010002948 -0.0006068237 0.00685947 0.024164248
0.029911343 -0.033712283 0.0077795163 -0.044921484 -0.026573433 0.028745536 -0.004733719 -0.021405637
-0.0014017336 -0.017551016 0.005001951 -0.011919212 0.029582586 0.009315658 -0.021731103 0.022669386
-0.029578328 -0.024840022 -0.043812156 -0.018484093 -0.013842106 -0.0042897686 0.011037745 0.005287327
0.008810438 -0.035760533 0.03551929 -0.016548287 -0.025204409 -0.009222485 -0.04574306 -0.01831603
-0.014349461 0.012329064 0.007862758 0.029571619 0.013599124 -0.020046784 0.032870803 -0.047228623
0.018949855 -0.018844903 -0.045157205 -0.0471398 0.04003806 0.03484687 -0.046469282 -0.0014085881
0.026833262 -0.0035958067 -0.0009592064 0.00799768 -0.04971936 0.03208795 0.028932754 0.03828046
0.02548999 -0.0029591918 -0.0086293 -0.027650917 -0.008814584 -0.0031126514 0.0028756745 0.003130246
-0.043893375 -0.0068463795 -0.0048536435 0.011208128 0.044766273 0.042415168 -0.035684586 0.03793628
0.023088757 0.024952661 0.03223225 -0.016543686 0.014733221 0.0016751662 -0.023038113 -0.029612279
0.0834305 -0.0780943 0.015209424 0.13286212 -0.041368295 0.004411867 -0.10721161 -0.08312233
-0.14195012 0.09987621 0.029798895 0.13175987 0.020955695 0.07084696 -0.019101014 -0.13532987
-0.015209289 0.110627905 -0.016951105 -0.1310141 0.08200523 -0.05386304 -0.0902199 -0.05397022
0.049474135 -0.12669683 -0.10900145 0.12698436 0.1352735 0.0041404944 -0.17436428 0.08743824
-0.046425913 0.0009947635 -0.077254266 0.13203256 -0.11964441 0.08729264 0.08143649 -0.14737035
-0.040204104 -0.01616151 0.08139295 -0.036883295 0.13072258 -0.13063167 0.10473916 -0.12028812
-0.069799885 -0.09318046 -0.11213414 -0.06215818 0.07739118 -0.07673027 0.05457621 0.1629679
-0.13853917 -0.14461447 0.0036519258 0.14594898 0.11156875 0.09347589 0.061046127 0.06311006
0.0829315 0.081877016 -0.14043066 0.026712354 -0.12094962 -0.15810141 -0.11105729 0.16216604
0.049055588 0.012274958 0.10910575 -0.16363063 -0.11649469 0.12940158 -0.05484563 -0.13992123
-0.121499084 -0.022695966 -0.057741974 0.13371652 -0.1400275 0.13718468 0.15339099 -0.10478785
-0.12845205 0.12551123 -0.015265491 -0.12515694 -0.122996464 -0.17111006 -0.16705261 -0.105105795
0.12384521 -0.14798509 0.04355268 -0.075708136 -0.13261525 -0.053221926 -0.15268527 0.04952227
-0.05965438 -0.07855756 -0.18147214 0.10944579 0.14021963 -0.022386914 -0.1110721 0.1335702
-0.07811606 0.11058741 0.07984958 -0.12611677 0.15462834 0.14426783 0.12610225 0.18406329
0.13488191 0.16836709 0.1228807 0.021011 0.039489113 0.13304147 -0.009787832 -0.08144185

sequential/dense/BiasAdd/ReadVariableOp f4 [64]
00000000: 00e4 703d e923 123d d759 a63d 3f46 ab3d
00000010: 2379 853d c296 c93d e727 563c 7560 9f3d
00000020: c729 6f3d 5899 a73d a8de a63d 497d 803d
00000030: 6d17 cd3d 53ab 873d 9b48 b13d 7741 b03d
00000040: c26c 173e 474e dd3d c5dd a33d a5e3 d23d
00000050: c017 b13d 37fc 983d 8e9a 8d3d b8e2 cd3d
00000060: b4b9 943d 3aef 243d af7c b33d 7952 9a3d
00000070: ca21 fd3d 5a0c 193d 52b5 913d 16d7 a23d
00000080: 9328 933d 06ef 873d d678 3d3d 53e1 df3d
00000090: 462b aa3d 880c 823d ea1e de3d a43b 853d
000000a0: cb51 a33d d017 773d a18b a13d 02b4 013e
000000b0: 9b4f 453d bc08 dd3d 8cb2 993d 6847 b53d
000000c0: 7016 9d3d 003f 8d3d f963 713d c7a9 ca3c
000000d0: fd4a 15bd 2e17 fd3d ed25 a5bc deec 5c3d
000000e0: f63a b63d c924 993d e544 bd3d 94ca ac3d
000000f0: 2f86 bb3d ac07 343d d2a6 623d 3d57 c33d
0.058811188 0.035678778 0.08122604 0.08363008 0.065172456 0.09843208 0.013071037 0.077820696
0.05838945 0.08183545 0.08147937 0.06273896 0.10014234 0.066244744 0.086564265 0.086062364
0.14787582 0.10805946 0.080012836 0.10297326 0.08647108 0.07469981 0.069142446 0.10053009
0.072619826 0.040267207 0.08764016 0.07535262 0.123599604 0.037365295 0.07114662 0.07951181
0.07185473 0.06637387 0.046257816 0.10931649 0.08309035 0.063500464 0.1084574 0.06505516
0.07974585 0.060325444 0.0788796 0.12666324 0.04817162 0.107926816 0.07504758 0.0885151
0.07670295 0.06896782 0.058933232 0.02473916 -0.036448468 0.12357937 -0.020159686 0.05393683
0.08897965 0.07477719 0.09241656 0.08437076 0.09156453 0.04395263 0.055334873 0.09538124

sequential/dense_2/BiasAdd/ReadVariableOp f4 [6]
00000000: 53ea 3dbc 1a1a 863c 44d2 3c3d e876 cbbc
00000010: 80f3 b13c d5a1 a6bc
-0.011591512 0.016369868 0.046098962 -0.024836972 0.021722555 -0.02034084

sequential/dense_1/BiasAdd/ReadVariableOp f4 [64]
00000000: ca63 063d 68f5 163d 521c b23c 57ba 8a3d
00000010: 2f33 043d 9e55 293d 76d9 e83c 7421 333d
00000020: 9054 753d f169 ac3c ebce 093e 1297 473d
00000030: 7987 d23c 7c25 303d 9886 623d c23d a83c
00000040: d7a2 de3d 6d73 d63c 5e7b 2a3c 2cb8 653d
00000050: 522c d43c 5387 413d 38d2 003d 1987 6b3d
00000060: e237 7f3d ac10 973d db21 ab3c f124 103d
00000070: d1f8 483c 09a6 ef3c ba57 b8bc 93bc 2a3d
00000080: 18f2 803d 0237 143d 40f9 3b3d 5314 0e3d
00000090: 18fd 703d 8ad8 bdbc 406f 473d 1b34 213d
000000a0: f26a 0f3d 64a8 dc3c 93de 883c 06d6 243d
000000b0: 399e 7d3c de54 4f3d 0421 f1bc 69e8 7f3d
000000c0: 5e35 a53c 5e29 2e3d 5d56 9ebc e947 5a3d
000000d0: eb04 5e3d 44ff 56bc 5018 413d 96ed 023d
000000e0: 5e4f 683d 6d22 dc3c ce15 f13c 6a41 ae3d
000000f0: 448f 563d 62d2 d63c d211 413d bd99 243d
0.03281001 0.03685513 0.02174202 0.06773823 0.032275375 0.041341417 0.028424006 0.043733075
0.0598951 0.02104661 0.13457839 0.048728056 0.025699364 0.043004498 0.05530414 0.02053726
0.10870903 0.026178086 0.01040539 0.056083843 0.02590004 0.047248196 0.03145048 0.057501886
0.062309153 0.07376227 0.020890167 0.03519148 0.012266354 0.029253976 -0.022502769 0.041683745
0.06296176 0.036185272 0.045892 0.03468735 0.05883512 -0.023174543 0.04869008 0.039356332
0.0350141 0.026935764 0.016707694 0.04024317 0.015479618 0.050618045 -0.029434688 0.062477503
0.020167049 0.04251992 -0.01932829 0.053291235 0.05420391 -0.0131223835 0.047142327 0.03196486
0.056716315 0.026871884 0.029429343 0.085085705 0.052382722 0.026223365 0.047136135 0.04018568

sequential/dense/MatMul f4 [64, 192]
00000000: 348a 373e a120 9c3d 9b35 0d3e b8ef 533e
00000010: 3ade d03d a4f6 c2bd 8b6e 75bc 0545 563d
00000020: 1e21 1fbe 6ff7 5e3e 55f7 363d d6cd 433e
00000030: 278a eebd 0e4d a43d 2564 9cbd 4860 55be
00000040: d50c 8abd a99a c83d 4473 3cbe 6b7c 39be
00000050: bfdc d23d 0560 8bbd 1ba9 55bc 6d10 2cbd
00000060: cd0d c03a 0fc4 cfbd 1ba2 3cbe 7628 e43d
00000070: 6c77 3e3d b980 f23d 9502 46be c9c3 963d
00000080: afb6 7bbc 73a2 353d 3979 e8bd c130 113e
00000090: b41c 26be 7218 fa3c f69e c13d f5b8 4bbc
000000a0: 9082 65bd 4998 893d f54e 9dbd c269 8e3d
000000b0: c81b 2e3e 6091 d0bd 8961 953d 3038 c63d
000000c0: eee8 d93c 6870 18be 41cb 40be f8cc f93d
000000d0: 5eb4 393e 7289 913d b1c3 8f3d 80ac c63d
000000e0: 9df1 4c3d e6eb 073d 911a 003e 19ae d8bd
000000f0: 981a 993d c2e1 013e ed4c 343c 1421 9f3c
00000100: 1c3c 983d a4b8 583e b73d 1e3d ccef 7a3e
00000110: e515 a1bd b08e 62bd 8e46 4abe 4455 293e
00000120: 9850 46be d7fd e5bd 5caf 4d3e 4079 f03d
00000130: 20ec 6ebe 6c57 803e cdc0 2bbe dca8 4cbe
00000140: d97b 19be 55eb a7bc 1a6c 333d c304 7f3d
00000150: 3adf 9bbc 82c5 00be 1b49 833d d644 863e
00000160: d2cb fcbd b99b 803e 8976 e83d c239 04be
00000170: eede 823e 52e9 85be 4304 42be 82c2 81bc
00000180: 22d0 a33d fb33 88be f4df 49bd efde 313e
00000190: 0b47 6cbe db3a 623c f8ea bcbd e933 073e
000001a0: 92de 983e 24c3 c8bd 782c ddbd 3c1b 97be
000001b0: 2b4c 823e 1b99 183e 37ac d5bd f74a 8cbe
000001c0: dced 5fbc fabf febc 6521 293c d51f 26be
000001d0: b1f9 723e 5c34 88be c96b 7d3e 165e 5a3c
000001e0: 8ada 2c3e f4f2 683d 5b53 caba b06a 713e
000001f0: a056 e33b b26e 923e ac00 e6bd 5d09 e53d
00000200: 5cfa a6bd 3a62 cfbd 9133 45be 2f8f 293d
00000210: 9e9c 563e 243a 903d bd68 b0bd 0f2f b43c
00000220: 3d78 163e a8fd e83d 8b78 2d3e 1983 453d
00000230: 34b8 653c ad86 f3bc f528 973d 2e99 d0bd
00000240: 6d19 aabd 8fa1 1b3e 8150 65be 20c2 44bd
00000250: ff60 53be bf10 ac3d d525 e5bd 0b3c bfbd
00000260: ae6b 24bd c6e8 283e ea77 423d 4ddb 0abe
00000270: e10b 24be 5aaa cb3d 94db 6a3c b6c3 b3bd
00000280: 9249 b6bd 922f 643a 0487 2c3e 1d28 44be
00000290: 3f6b 5c3d 10e2 4a3c 923a 243d fa8a c73d
000002a0: 3579 6bbd 039c dcbd ba99 19be 6b32 7ebd
000002b0: abbd 1f3e 8576 5fbe 4e5e c5bc 3a87 bf3d
000002c0: 158a 34bd 8862 2f3e 2b8e dc3d 794c 97bc
000002d0: 9375 e53d 65d6 e83b 6543 263e c242 423d
000002e0: 71d8 7c3d 9431 08bd 8d00 973d 8209 00be
000002f0: 2627 08be e96e dcbd e22e c53d 1e54 d0bd
00000300: 9a9f b4be 52c9 b3bc 5dff 183e d43a 373e
00000310: 84b6 13be 04fe 64be e65a 3f3d 9f51 01be
00000320: a154 453d c70b 98be eed4 8d3e 5e55 a03e
00000330: 54fd 12be 976a 0c3c d88c 24be 9a4b c6bc
00000340: 1244 1d3e ebb8 8dbe c4da 693d 8133 03be
00000350: 972e 8c3d 5b35 1a3c 776a 10be 6dd2 3c3e
00000360: 07b1 783d 4f6d c1bd 99c2 09be 5fdc 91bd
00000370: 61ba d43d 6ef6 ba3d 646e 623e fefc fb3d
00000380: 7893 19be 2530 f2bc 3c78 5d3d a8ce 243e
00000390: 9583 82be 70ef 58bd 06e7 473e 89fa b53d
000003a0: ef10 4a3e 7f2f f4bd fd7e f23c 9b8f 35be
000003b0: cfa4 8a3e bfca e5bc a94b cabd e9a7 2dbe
000003c0: 82bf cdbd 1383 cabc fe88 b3bc 309d a83d
000003d0: 2499 0ebe a0c7 63be 2f85 b13d ecad 4fbe
000003e0: 98db 07be 95f3 86bd 45c1 bfbe 9fcc 7f3d
000003f0: 3b12 95be d9b2 5abd 945f e3bd 7632 ad3e
0.17923814 0.07623411 0.1378998 0.20696914 0.10198636 -0.09519699 -0.014979969 0.052311916
-0.15539977 0.21774076 0.044669468 0.19121489 -0.11647444 0.080225095 -0.076362886 -0.2083751
-0.06740729 0.09795124 -0.18403345 -0.18113868 0.1029601 -0.06805424 -0.013040806 -0.042007852
0.001465255 -0.10144817 -0.18421213 0.1114053 0.04650061 0.11840958 -0.19336922 0.07361562
-0.015363379 0.044344377 -0.113512464 0.14178754 -0.16221887 0.030529235 0.094541475 -0.012434234
-0.056032717 0.06718499 -0.076810755 0.069537655 0.17002785 -0.10183978 0.07293994 0.09678686
0.026600327 -0.1488663 -0.18827535 0.12197298 0.18135211 0.07106294 0.07019747 0.097008705
0.050035108 0.033183955 0.12510134 -0.105800815 0.074757755 0.12683776 0.011004669 0.019424953
0.0743334 0.21164185 0.038633075 0.24505538 -0.07865504 -0.05531186 -0.19753477 0.16536433
-0.19366682 -0.11230057 0.20086426 0.117418766 -0.23332262 0.25066698 -0.16772766 -0.1998629
-0.1498865 -0.020497957 0.043804266 0.0622604 -0.019027341 -0.12575343 0.06410428 0.26224393
-0.12343563 0.25118807 0.11350734 -0.12912658 0.25560707 -0.26154572 -0.18946938 -0.015839819
0.079986826 -0.26602158 -0.049285844 0.17370199 -0.23073976 0.013807978 -0.09224504 0.13203396
0.29857308 -0.09802845 -0.10799497 -0.29512966 0.25448737 0.14902155 -0.10433238 -0.27400944
-0.01366755 -0.031097401 0.010322903 -0.1622308 0.23728062 -0.26602447 0.24748148 0.013328096
0.16880241 0.056872323 -0.0015436219 0.23575854 0.0069378167 0.2860008 -0.11230597 0.111834265
-0.08153221 -0.10126157 -0.19257952 0.041396316 0.20958182 0.070423394 -0.08613727 0.021995096
0.14694305 0.11376506 0.16940515 0.048220728 0.014020968 -0.029727304 0.07380859 -0.10185467
-0.08305631 0.15198348 -0.22393991 -0.048036695 -0.2064247 0.084016316 -0.111888565 -0.09337624
-0.040141754 0.16495046 0.04747764 -0.13560219 -0.16020156 0.09944601 0.014334578 -0.08777563
-0.08900751 0.00087045983 0.1684838 -0.19155927 0.053813215 0.012382999 0.04009492 0.097433046
-0.05748864 -0.107719444 -0.15000048 -0.0620598 0.15599696 -0.21822555 -0.02409282 0.09351964
-0.044076998 0.1712743 0.10769304 -0.018469082 0.11204066 0.007105636 0.16236646 0.047426946
0.061729852 -0.033250406 0.07373152 -0.12503627 -0.13296184 -0.10763342 0.09628083 -0.10172294
-0.35278016 -0.021946583 0.14941163 0.17893535 -0.14425093 -0.22362524 0.046717547 -0.12628792
0.04817641 -0.29696485 0.27701515 0.3131513 -0.1435445 0.008570335 -0.16069353 -0.024205972
0.15357998 -0.27680144 0.057093397 -0.12812616 0.06844824 0.009412135 -0.14103113 0.18439646
0.0607157 -0.09444677 -0.1345314 -0.071221106 0.103871115 0.09129034 0.22112423 0.12304114
-0.14997661 -0.029563973 0.054069743 0.16094458 -0.25491014 -0.05296272 0.19521722 0.088856764
0.19733022 -0.11923122 0.029601568 -0.17730562 0.27078864 -0.028050778 -0.09877712 -0.16958584
-0.10046293 -0.024720704 -0.021915909 0.08233106 -0.13925606 -0.2224412 0.08667981 -0.2028119
-0.13267362 -0.06589428 -0.3745214 0.062451 -0.2911547 -0.05339322 -0.111022145 0.3382756

sequential/dense_1/MatMul f4 [64, 64]
00000000: 5b53 b03d 3a43 6bbe 950a 713e 22fd 8b3c
00000010: 4b67 173e d1c7 4cbe 266c 8ebe 0c70 b33e
00000020: b800 7ebe 20b9 12be d237 a83e 83a6 573e
00000030: 88f2 f53d 34b8 6b3e d168 75be 0dda 993d
00000040: 75be 89bd 81ae 71be 7abb 8c3e 9a45 8e3d
00000050: 9dd9 cb3e e721 6d3e 529c 92bd 9de9 8b3e
00000060: 5fe0 673e 7595 20be c71d 413e efdf aa3e
00000070: 6791 b9bd e560 d4bd 4b99 d3bd 8078 033e
00000080: a342 853d 58c6 91be 2dce 223c d7d7 283d
00000090: 2bdb a7be 7973 923e c239 9ebd 1b46 d03d
000000a0: 2e68 f23c 9635 e93d f2e8 863d bd71 563e
000000b0: 0ebb b73d ecde 6e3e fa78 2a3e 1cfe fe3d
000000c0: a2df 843e 2e99 933e 6ed9 993d 8e6c 133e
000000d0: 2b3b f73b 20a3 503e 99a9 5d3e ec5a 81bc
000000e0: f4ea 563e 5e54 ac3e d104 9c3d 74ac 4f3d
000000f0: 8128 973e d7c6 58be 178c 1f3e 5690 063e
00000100: 3792 8f3c 8143 fc3d c018 023e 565d 213e
00000110: f46c 2e3e 50e1 a43e 7657 7c3e 866d e83d
00000120: 0c48 bb3e 7d66 c53e 2fed 0ebe 188f f0bd
00000130: 3a78 43bc 4167 5fbe b21c 88be 037c a8bc
00000140: b852 a9be 8d0b 00bc 31e7 6cbe 09f6 c53d
00000150: a08c 22bb 36e0 8bbd 4bbc 17be 740a 743e
00000160: 92fb cb3c a84d cebc 381c b03d ca47 9abd
00000170: 556a 67be e679 5e3e 0146 8ebe f57d cebe
00000180: c0b3 413e 0d8e 43bd e80c 893e f7a2 2b3e
00000190: 9362 f53d 2611 193e 3c22 923d 7661 193e
000001a0: 1f2a 21be bc7b 203d 61ec 07be 1a08 113f
000001b0: fe6c 893e 0e4e 0dbe 29b2 f9bd 13b6 8bbd
000001c0: 9834 f5bd 4984 cc3d af0c 8bbd 1564 383e
000001d0: acdb e9bd 7292 87be 743b aebd ae95 e93d
000001e0: e2d3 14be 5c4c 32be ab76 883c 9ce2 5ebe
000001f0: d560 d7bc 5bd0 e33d 6036 043f 2d76 bf3e
00000200: 3391 983e 3fee a2be d164 7b3d 2d85 783e
00000210: 9107 4dbe c752 5d3d 00de f73e 8c05 a8bd
00000220: d44e 233d 0803 3cbd d5b2 883e c2a8 523e
00000230: a91b 92bd 2c08 873d 9f04 02be 424f de3d
00000240: 7c44 80be 2928 ecbc 8aa3 003e ebf3 f0bd
00000250: f0d2 27be 1c52 e0bd 3e6a 503e bc70 1dbd
00000260: 344f a1bd 4325 813d c19b 223b 81c6 383e
00000270: d6f9 bc3d 7cc3 243e 351b e43d 707e bdbd
00000280: 6c14 963e 8c08 263e faec 773e eed9 823d
00000290: 0260 e93e 28de 99be db73 8a3d f9d0 3abe
000002a0: ac31 a93d 3fb4 0e3c 257b 22be 4eb0 653e
000002b0: 884b cc3d 2463 e1bd 3254 763e ac17 cbbd
000002c0: 0129 193d 619d 4c3c b3df 573e c4c0 e3be
000002d0: 72c5 543e 3eff ba3e ed0c 31be d3a6 8b3e
000002e0: 5863 9f3e 3858 433e bf46 013e bd47 d13d
000002f0: 78a1 f0bc 4120 e03e 311a 3c3e 750b 4e3d
00000300: 310e fcbd fd13 8a3e 922c 2dbe 1696 543e
00000310: fce7 d83d 07fc 9abc ddf2 acbd abc3 bfbd
00000320: 7e29 dbbc 8f40 db3b 7239 a5be 2dac a8be
00000330: 7896 613e cf59 0abe b064 5abe 330b 893e
00000340: 4ea0 7bbe 8e9b 0d3e 1622 04be 0478 fcbd
00000350: 03f9 9c3e a274 f0bd 5c8c 73bd 6708 a93e
00000360: 13ae 1a3e 2cf6 673e 570d 80be c35d 95be
00000370: b7bf dabd 83f8 173e ddee 313c 99b1 d33d
00000380: bd56 813e 8096 f03c e896 a0bd fd29 4abd
00000390: 8cb2 2f3e c829 b53e 082c ef3d b107 63bd
000003a0: 7936 bbbe c397 96be cf18 7d3e 9d97 8bbd
000003b0: 060c 033e 08b0 02be bf5d cb3d c40d 953e
000003c0: be69 70bd 8b8c 763d 535f e2bc 4a9d 103e
000003d0: a9b4 be3c ffe0 b4bc c9fe 0f3d 3d43 793e
000003e0: 413c 99be b8e7 a1bc 01cf ae3e 36c9 babe
000003f0: bfa6 a43e 51e1 72bb 0a27 7dbe 9c40 663e
0.08609649 -0.22974864 0.23539193 0.017088477 0.14785497 -0.19998099 -0.27816886 0.35046422
-0.24804962 -0.14328432 0.32855088 0.21059613 0.1200915 0.23019487 -0.23965766 0.07512293
-0.0672578 -0.23601724 0.27486783 0.06946869 0.39814463 0.23157464 -0.07158722 0.2732667
0.22644185 -0.15682013 0.18859015 0.33373973 -0.090609364 -0.10370044 -0.10331973 0.12838936
0.065068506 -0.28471637 0.009936851 0.041221466 -0.327844 0.28603724 -0.0772586 0.101696216
0.029590692 0.11387174 0.065873995 0.20941825 0.08971225 0.23327225 0.16647711 0.12450811
0.25951868 0.28827804 0.075121745 0.14396879 0.007544895 0.20374727 0.21646728 -0.015790425
0.20988065 0.33658117 0.07618106 0.050701573 0.2952309 -0.21169601 0.15580784 0.13140997
0.017525775 0.12317563 0.12704754 0.15758261 0.1703375 0.3220315 0.24642739 0.11349015
0.36578405 0.38554755 -0.13957666 -0.11746043 -0.01193052 -0.21816732 -0.26584393 -0.020566946
-0.33070922 -0.007815254 -0.23135068 0.09666068 -0.0024803057 -0.06829874 -0.14817922 0.23832113
0.024900232 -0.025183514 0.08599132 -0.07533224 -0.22599156 0.21726188 -0.27787784 -0.40330473
0.18916225 -0.047742892 0.2676766 0.16761385 0.11981692 0.14947948 0.07135436 0.14978585
-0.15738724 0.039180502 -0.13273765 0.56652987 0.26840967 -0.13799307 -0.121921845 -0.06821837
-0.11972922 0.09986169 -0.067895286 0.18006928 -0.11418852 -0.26478916 -0.085074335 0.11405502
-0.14533952 -0.17411941 0.016658148 -0.21766132 -0.02629129 0.11123725 0.5164547 0.37394848
0.29798278 -0.31822392 0.061375443 0.24269553 -0.20022418 0.05403402 0.4841156 -0.08204183
0.0398701 -0.04590133 0.26698938 0.20572188 -0.07134182 0.065933555 -0.12697075 0.10854961
-0.2505225 -0.028827744 0.12562385 -0.11765274 -0.1638906 -0.10953161 0.20353028 -0.03843759
-0.07876435 0.06305935 0.0024812075 0.18044473 0.0922734 0.16090196 0.11138002 -0.09252632
0.29312456 0.16214198 0.24211493 0.06389223 0.4558106 -0.30052304 0.06760379 -0.18243779
0.08261427 0.008709966 -0.15867288 0.22430536 0.09975344 -0.11005238 0.24055555 -0.099166244
0.03739262 0.012488694 0.21081428 -0.44483006 0.20778444 0.3652286 -0.17290087 0.27275714
0.3113048 0.19076622 0.12624644 0.10218761 -0.02937387 0.43774608 0.18369366 0.050303895
-0.12307394 0.26968375 -0.16911533 0.20760378 0.105911225 -0.018919004 -0.0844476 -0.093634926
-0.026753183 0.0066910456 -0.3227039 -0.3294386 0.22030056 -0.13510822 -0.21327472 0.26766357
-0.2457287 0.1382887 -0.12903628 -0.12327579 0.3065873 -0.11740996 -0.05946003 0.33014223
0.15105467 0.22652501 -0.25010177 -0.29173097 -0.10681098 0.14840893 0.010860172 0.103366084
0.2526149 0.029368639 -0.07841283 -0.04935645 0.17157954 0.3538344 0.1167832 -0.055427257
-0.36564997 -0.2941266 0.24716495 -0.06816027 0.12797555 -0.12762463 0.0992999 0.29112065
-0.058694594 0.060192626 -0.027633345 0.14122501 0.023279505 -0.022079943 0.03515509 0.24342056
-0.29928783 -0.019763812 0.34142306 -0.36481637 0.32158467 -0.0037060569 -0.24721923 0.22485584

sequential/dense_2/MatMul f4 [6, 64]
00000000: 4f3e 863e f320 9cbe dc1c 6d3e 4324 d4be
00000010: b0bf 1e3e c924 02bd eaf1 9d3d 1e93 01bf
00000020: fb00 0bbf 5446 7f3d 7260 2b3d 0706 66bd
00000030: 74ad 0dbe e0aa afbe 29fc 823e 525b ab3e
00000040: 8276 fabe 0efc 89be 210c e33d 1133 0e3e
00000050: 0238 a43e e686 c93d ac20 4b3d ae69 893e
00000060: 3485 993e 7c20 f8be 466d 8f3e aeb7 773e
00000070: 6673 8c3e a8d3 663e 192a 12be 154a 843e
00000080: bde7 64be 7244 bb3d 98cc 85be 025c 1b3c
00000090: 243a febe 017f 67be daec 163e ba28 54bb
000000a0: 77a5 93bd b49d a33e c436 df3c 2e2c c13e
000000b0: 2cad aa3e b127 4e3e d5b0 58be c14d a3bd
000000c0: f988 f5be 7cd1 853e 68f7 aabb c611 ebbe
000000d0: d041 cb3d 4a63 8dbd 71c3 da3d 41b2 ea3d
000000e0: 6a4c 1bbf 2c5b 173e 2a3f 543e 6da6 523d
000000f0: def1 fabe cc08 a83e 5a2a 943e 148a 9fbd
00000100: c5b3 29be 7f98 273e 9947 ad3e ae98 d83d
00000110: 864d 7ebe ab77 4c3e d68a a23e 7308 36bd
00000120: 3d26 57be 189e ffbe 4eea 13bf a91e 1e3e
00000130: 28ee 92be ad08 483e 0a19 b8be f4dc 3ebe
00000140: 323d ee3d 3a4b 903e 8e40 563e 5dc3 233e
00000150: ab42 32be d2bc c7bc 5694 903e bf19 843e
00000160: f703 b43e e194 2c3e 1e80 b93e 75a0 eabd
00000170: 3cd8 da3e af3e c4be 2629 5ebe 27a5 8ebe
00000180: 3bc9 00bf ff11 893d a00b e33e a138 dabe
00000190: 0e67 84be 29ba d9bd 0d62 943e 3543 05bf
000001a0: 5529 ad3d 8d30 93be 2f9e 3ebe 330c 643d
000001b0: fcd5 bbbd 2e77 d4be 9c2f 6fba 0a7f 933e
000001c0: 3912 813e c308 cdbe e354 bdbd 6ab8 c4be
000001d0: d7e2 ffbe 8a3d 3cbc 8f1d 443e a414 8fbe
000001e0: c151 493e 24dd 153e f3ef debe 9323 06bf
000001f0: 09db 173e f5f0 c23e 65cb 8abd 98f7 e43e
00000200: eb2b b83e b100 f63d 761e 84bc 213c 693e
00000210: f1de 8b3e b403 523e f5ee 5dbe 2ed0 023e
00000220: e02c 563e b36f d63c f7e9 1ebf b792 9f3e
00000230: 7bbe 993e 7a99 9dbe fc4b 283e 96e5 96be
00000240: dc4d 833e 1f83 2ebe 8df7 babd 9d7b b3be
00000250: 8944 9d3e 2d81 213e 084a fcbe cde9 f5be
00000260: acf1 23be 3075 81be a5ed 7abe dc1e b4be
00000270: f9b2 6bbe 2551 933e fdbb 7fbe 4ba8 c63e
00000280: ed72 403e 390c a9be 6520 56be 6b5e a2be
00000290: 85fe acbe fcbd 403d 1705 a33e 7d73 08bf
000002a0: addc 543d e8d1 3ebe 2682 943e 2236 c6be
000002b0: 3931 a7be bbe1 7cbe 2836 89be 7020 863e
000002c0: b947 813d ee79 03be 5f64 3abd 9bb0 fcbe
000002d0: 2fbf d23d 3f6d 293e fcf4 b23e 294b dbbe
000002e0: 3262 973e 64a3 5abe 5ac8 353e c17a ea3d
000002f0: 17d6 06bf 34c6 73be 886d e0bd 1cc2 4cbe
00000300: 7aaf 83be 4930 c5be c0fa 96be d60d 383e
00000310: aa09 773e ebf6 27bc 9e9e bfbe 89a6 fcbe
00000320: 34fa 28be 3db5 a93e 2c68 2a3e 6e39 a6be
00000330: b482 e8be 8faa cabe 3a10 f9be 36d9 b83e
00000340: ad31 9f3e 2758 3cbe b2c8 4fbe d3db 94be
00000350: db84 a3be a146 8abe 5a49 a03e 5256 92be
00000360: d877 ffbe 2668 e7be a967 73be 6fe6 8e3e
00000370: d1b7 b2be a166 4f3e f745 493e 547c bc3e
00000380: 50d8 22bf c32c d1be ffd2 99be 88fb c4bd
00000390: 296e 3b3e 7455 51be d6ca babe 2b72 1d3e
000003a0: 8e02 e6be e16b 57bd 52cb 863e 811a 7fbe
000003b0: c96d 00be f101 593e c17f 8abe d6b0 d5be
000003c0: c19f 3d3e f888 7d3e b7c9 e6bd 0418 c63d
000003d0: 36e4 893e 6fec 743e c8c5 b4be c206 4a3e
000003e0: 1c13 adbe d0b5 a5be 5bc7 ab3e 0028 10bf
000003f0: 5c82 b83d c3ba b3bd f3e8 c0be 7774 93bd
0.26219413 -0.30493888 0.2315554 -0.41433915 0.1550281 -0.031773362 0.07712157 -0.5061511
-0.5429837 0.06232293 0.041840024 -0.056158092 -0.13835698 -0.34310055 0.25583008 0.3346811
-0.4891854 -0.26950115 0.11086298 0.13886668 0.3207398 0.09840183 0.049591705 0.2683844
0.29984438 -0.48462284 0.28013057 0.24191162 0.27431792 0.22541678 -0.14273871 0.2583777
-0.22354026 0.09143914 -0.26132655 0.009482386 -0.49653733 -0.22607042 0.14738789 -0.0032372908
-0.07209294 0.31956255 0.027247794 0.3772902 0.33335245 0.20132329 -0.21161206 -0.07973815
-0.47956064 0.26136386 -0.0052174814 -0.45911998 0.09924662 -0.069037035 0.10681809 0.114597805
-0.60663474 0.14780873 0.2072722 0.051428247 -0.49012655 0.3281921 0.28938562 -0.07790008
-0.16572483 0.16366766 0.33843687 0.10575996 -0.2483426 0.19967525 0.31746548 -0.04444165
-0.2101068 -0.49925303 -0.57779396 0.15441383 -0.28697324 0.1953456 -0.35956603 -0.18638974
0.11632766 0.28182393 0.20923063 0.15992494 -0.17408244 -0.024382029 0.2823817 0.25800893
0.35159275 0.16853668 0.36230558 -0.11456386 0.427431 -0.38329074 -0.21695384 -0.27860376
-0.50307053 0.066928856 0.44344807 -0.4262133 -0.25859874 -0.1063121 0.28981057 -0.52055675
0.08455149 -0.2874798 -0.1861503 0.055675697 -0.09171674 -0.41497177 -0.0009124221 0.2880786
0.25209215 -0.40045747 -0.092447065 -0.38421947 -0.49977753 -0.011489281 0.191519 -0.27945435
0.19660093 0.1463514 -0.43542442 -0.5239803 0.14829649 0.3807446 -0.06777076 0.4472015
0.35971007 0.120118506 -0.016127806 0.22776844 0.27318528 0.20509225 -0.21673186 0.12774727
0.20915556 0.02617631 -0.6207575 0.31166622 0.30028138 -0.30781156 0.16435236 -0.29472035
0.2564534 -0.17042206 -0.09129248 -0.35055247 0.3071635 0.15771933 -0.4927523 -0.48029938
-0.16010159 -0.2528472 -0.24504717 -0.35179794 -0.23017491 0.28772846 -0.24974056 0.38800272
0.1879384 -0.33017138 -0.20910795 -0.3171266 -0.33787933 0.047056183 0.3183982 -0.5330122
0.051968265 -0.1863476 0.29005545 -0.38713175 -0.3265474 -0.24695484 -0.2679913 0.26196623
0.06312508 -0.12839481 -0.045505878 -0.4935349 0.102903716 0.1654558 0.34952533 -0.4283078
0.29567105 -0.21351391 0.1775221 0.11449195 -0.52670425 -0.23806077 -0.109583914 -0.19995922
-0.25719815 -0.385134 -0.29488182 0.17974028 0.2412478 -0.010251741 -0.37425703 -0.49345806
-0.16501695 0.33146086 0.16641301 -0.3246569 -0.4541222 -0.3958325 -0.48645192 0.3610322
0.31092587 -0.18393002 -0.20291403 -0.29073963 -0.31937298 -0.2700701 0.31305963 -0.28581482
-0.4989612 -0.45196646 -0.23770012 0.27910182 -0.34905866 0.20253994 0.19655596 0.36813605
-0.63611317 -0.40854463 -0.3004379 -0.09618288 0.18303742 -0.20442754 -0.36482877 0.15375583
-0.44923824 -0.052593116 0.26326996 -0.24912454 -0.1254188 0.21192147 -0.27050593 -0.41736478
0.18517973 0.2475928 -0.11268943 0.09672549 0.26931924 0.23918317 -0.35307145 0.1972914
-0.33803642 -0.32365274 0.33550534 -0.56311035 0.09009239 -0.08775856 -0.37677726 -0.07199948
