assets/modelo_intents.tflite (tflite, 375872 bytes, 7 tensors)

sequential/embedding/embedding_lookup f4 [300, 64]
0.09303213 0.05550869 -0.08209153 -0.058447905 0.061862033 -0.018936832 -0.051508535 0.056993186
0.05633874 0.0692328 -0.04081131 -0.03843745 -0.07046258 0.075524844 0.048699938 -0.06497338
-0.05206503 -0.042517353 0.073570594 -0.03817733 -0.08488482 0.023439758 0.075265355 0.07318741
0.05369321 -0.076075524 0.07502781 0.08706413 -0.03602981 -0.083443806 0.07318092 0.09638653
0.07393827 -0.06680963 -0.0675725 -0.05583195 0.06391533 0.06308198 0.042836558 -0.020475732
0.0461849 0.021284008 -0.054424454 0.04890817 -0.05587288 -0.078552246 -0.032481514 0.06084714
0.026533755 -0.04691555 0.03750057 -0.08223315 0.070231624 0.045976177 0.059047528 -0.04163123
-0.010884529 -0.05691258 0.05071772 0.062472504 0.06822806 -0.0024480512 -0.026395895 0.05431075
-0.007114269 0.018648837 0.024165455 -0.011864565 0.026032116 -0.03922384 -0.0372535 0.022362698
-0.028495371 -0.029342175 0.035587598 0.0032595173 -0.0033950098 -0.016593695 0.040139306 -0.03907579
-0.013785947 -0.019370234 -0.014046453 -0.047094345 -0.020076383 0.031226482 0.003432583 -0.04938692
0.044330668 0.022588823 -0.014737703 0.046914224 0.031381037 0.0017670766 0.029224996 0.0080210455
-0.023087764 0.0013798252 -0.015475262 -0.03388933 -0.025186121 -0.02520603 -0.028324962 0.022040572
-0.01612581 0.035138536 -0.034730565 0.00471437 0.0109498985 0.0056885704 -0.028554678 0.023157705
0.032431412 0.021015916 0.039640334 -0.049221694 0.006332934 -0.045731094 0.013682727 -0.047822166
0.019867096 -0.032184184 -0.019816387 -0.011346351 0.03707177 0.0027667768 0.036746804 0.014777552
0.029563596 0.008961932 0.061681133 -0.027341016 -0.036431696 0.05904939 -0.06597954 -0.071008876
-0.012574163 -0.025329564 0.076383926 -0.054786973 -0.09651163 0.037395284 -0.032106686 -0.0031981408
-0.042813327 -0.0018810099 -0.05053552 0.09388195 0.015548995 0.0002998241 -0.025074707 0.09588649
0.08719413 0.065368935 -0.061138544 0.065206476 -0.04052426 0.06565364 -0.047131456 -0.0012608357
-0.07035507 0.070329525 0.03308247 0.05833925 -0.08780904 -0.0076729944 -0.09404648 0.0725698
-0.07605925 -0.07528704 -0.08321852 -0.073944286 0.06397075 -0.015223104 0.0019613027 -0.03885534
-0.073092304 -0.002720293 -0.105120815 0.045992345 -0.047472402 -0.08333542 0.02133151 -0.022216469
0.104186244 0.012388009 -0.051460102 -0.056137823 -0.016588634 -0.04241243 0.09958711 -0.01496823
-0.09124879 0.04752483 0.016757771 -0.017351646 0.026808707 0.04946981 0.07231799 -0.07399002
0.06227352 -0.048491742 0.07102197 -0.0796683 -0.020987902 0.015678816 -0.0712197 -0.023879137
0.03536109 -0.05041661 -0.11450902 0.03989331 -0.027947493 0.013307187 0.043713294 0.0044618347
-0.06879238 0.09533181 -0.099147946 -0.018851817 -0.07830655 0.006354504 -0.024710568 -0.09705461
0.10132615 -0.013426788 0.0015702859 0.0687711 -0.11214614 0.057732545 -0.033113543 -0.0400958
0.10260506 0.01333785 0.043880336 -0.006253272 0.0056739175 -0.07264413 0.09489352 -0.0179088
-0.00831004 0.047327943 -0.08287874 0.09656951 -0.09013115 0.0014182153 -0.120695785 -0.04343922
-0.0042243637 0.061770454 -0.055713613 -0.03610825 0.019906836 0.016620835 0.059022848 0.029117994
00000000: a187 be3d 155d 633d 9b1f a8bd 1267 6fbd
00000010: 0b63 7d3d 6a21 9bbc 9dfa 52bd b071 693d
00000020: 73c3 663d edc9 8d3d c329 27bd 9670 1dbd
00000030: af4e 90bd c5ac 9a3d 9679 473d c310 85bd
00000040: 2442 55bd ad26 2ebd 2eac 963d d55f 1cbd
00000050: 18d8 adbd bc04 c03c b924 9a3d 48e3 953d
00000060: 69ed 5b3d 7ccd 9bbd 2ea8 993d ae4e b23d
00000070: fe93 13bd 96e4 aabd e1df 953d 4d66 c53d
00000080: f36c 973d 7dd3 88bd 7363 8abd 0bb0 64bd
00000090: 0ae6 823d 2031 813d 6375 2f3d b9bc a7bc
000000a0: 612c 3d3d cd5b ae3c 2dec 5ebd ef53 483d
000000b0: f6da 64bd 00e0 a0bd 560b 05bd da3a 793d
000000c0: 515d d93c 852a 40bd 339a 193d db69 a8bd
000000d0: 99d5 8f3d 8451 3c3d d2db 713d 8285 2abd
000000e0: 0655 32bc 2a1d 69bd 62bd 4f3d 2be3 7f3d
000000f0: 27bb 8b3d 7c6f 20bb 343c d8bc f374 5e3d
00000100: d01e e9bb 72c5 983c a2f6 c53c 9863 42bc
00000110: 4e41 d53c 2da9 20bd 2097 18bd fa31 b73c
00000120: 206f e9bc 005f f0bc 4dc4 113d a09d 553b
00000130: d07e 5ebb 80ef 87bc 1d69 243d f00d 20bd
00000140: 74de 61bc 53ae 9ebc 1823 66bc 00e6 40bd
00000150: 3a77 a4bc aece ff3c 30f5 603b f049 4abd
00000160: 1394 353d 320c b93c 6876 71bc 2129 403d
00000170: 6789 003d 409d e73a 4269 ef3c b46a 033c
00000180: 8d22 bdbc 40db b43a f48b 7dbc 8acf 0abd
00000190: 2053 cebc e07c cebc c009 e8bc 6e8e b43c
000001a0: 461a 84bc 6ded 0f3d a341 0ebd 007b 9a3b
000001b0: 3467 333c 3067 ba3b 80eb e9bc 3ab5 bd3c
000001c0: cdd6 043d 9229 ac3c e75d 223d b09c 49bd
000001d0: 8084 cf3b 8750 3bbd 842d 603c 2de1 43bd
000001e0: 52c0 a23c 90d3 03bd fa55 a2bc 0ce6 39bc
000001f0: 91d8 173d d052 353b d183 163d 8c1d 723c
00000200: 5b2f f23c 11d5 123c 5ba5 7c3d 44fa dfbc
00000210: 6739 15bd c6dd 713d 4820 87bd 1a6d 91bd
00000220: dd03 4ebc f27f cfbc 2d6f 9c3d 4e68 60bd
00000230: e4a7 c5bd cc2b 193d 4d82 03bd e697 51bb
00000240: 075d 2fbd 388c f6ba 55fe 4ebd 2e45 c03d
00000250: 36c1 7e3c b631 9d39 7969 cdbc 2360 c43d
00000260: d692 b23d 26e0 853d 696c 7abd f98a 853d
00000270: c4fc 25bd 6a75 863d ea0c 41bd a042 a5ba
00000280: 5216 90bd ed08 903d 7c81 073d 23f5 6e3d
00000290: 3ad5 b3bd be6d fbbb 719b c0bd 7a9f 943d
000002a0: f4c4 9bbd 1730 9abd 796e aabd 1a70 97bd
000002b0: 1903 833d 536a 79bc 3389 003b c726 1fbd
000002c0: 6bb1 95bd f146 32bb 9549 d7bd 7862 3c3d
000002d0: 6c72 42bd c3ab aabd 6bbf ae3c 50ff b5bc
000002e0: 995f d53d 13f7 4a3c d4c7 52bd c6f0 65bd
000002f0: e3e4 87bc a8b8 2dbd 54f4 cb3d 4f3d 75bc
00000300: a5e0 babd 65a9 423d 9847 893c 0a25 8ebc
00000310: ef9d db3c dba0 4a3d 741b 943d 1488 97bd
00000320: 8512 7f3d 479f 46bd f773 913d 2229 a3bd
00000330: d2ee abbc dc70 803c a2db 91bd 2e9e c3bc
00000340: cad6 103d a681 4ebd b483 eabd 2b67 233d
00000350: 24f2 e4bc 6306 5a3c b60c 333d 9534 923b
00000360: 05e3 8cbd 533d c33d 140e cbbd 206f 9abc
00000370: 2f5f a0bd 7139 d03b d16d cabc 91c4 c6bd
00000380: 1684 cf3d 08fc 5bbc 0dd2 cd3a ddd7 8c3d
00000390: e0ac e5bd f678 6c3d 11a2 07bd 7e3b 24bd
000003a0: 9a22 d23d ff86 5a3c debb 333d 3fe8 ccbb
000003b0: 45ec b93b 72c6 94bd 8957 c23d 7ab5 92bc
000003c0: d626 08bc f2da 413d 54bc a9bd 3cc6 c53d
000003d0: ae96 b8bd 69e3 b93a 5a2f f7bd 53ed 31bd
000003e0: 886c 8abb 0403 7d3d f533 64bd 3fe6 13bd
000003f0: a913 a33c 6b28 883c f1c1 713d dc88 ee3c

sequential/dense/BiasAdd/ReadVariableOp f4 [64]
0.027894387 -0.006568015 0.03229837 0.021533381 0.012584011 0.034426402 -0.006699618 -0.003550468
0.0005412383 0.0358703 0.03870916 0.02575423 0.014243518 -0.008619068 0.022159955 0.017383985
0.020835191 0.026456017 5.3190346e-05 0.023861768 0.028224126 0.032650407 -0.0036363085 0.010581209
0.007290584 0.030789882 0.014809946 0.019817634 0.039139975 0.016343232 0.030026851 -0.011865034
0.02209497 0.023941068 0.013932748 0.0029803414 0.009005702 0.0039370614 0.0031355787 0.012326539
0.032861304 0.029384673 0.02301366 0.022441445 0.003496524 0.023958197 0.014403145 -0.007463258
0.022554766 -0.009083457 0.009174228 0.018320018 -0.01668706 -0.0027351803 0.019776983 0.037592173
-0.010444516 0.03673071 0.018834338 -0.01022318 0.022136878 0.0083903195 0.026470061 -0.009099068
00000000: c582 e43c 8138 d7bb 4c4b 043d c666 b03c
00000010: 2b2d 4e3c b302 0d3d 7888 dbbb f8ae 68bb
00000020: e3e1 0d3a bcec 123d 7f8d 1e3d 89fa d23c
00000030: a55d 693c fe36 0dbc cb88 b53c dc68 8e3c
00000040: 90ae aa3c 4aba d83c b318 5f38 c179 c33c
00000050: 4836 e73c 6fbc 053d 224f 6ebb cf5c 2d3c
00000060: dae5 ee3b 103b fc3c 6aa5 723c 9758 a23c
00000070: 3d51 203d 3ee2 853c dffa f53c 8f65 42bc
00000080: 8300 b53c 0f20 c43c 2e46 643c d551 433b
00000090: a78c 133c 7702 813b 487e 4d3b 40f5 493c
000000a0: 9399 063d 20b8 f03c 2587 bc3c 1fd7 b73c
000000b0: f025 653b fb43 c43c 2bfb 6b3c 598e f4bb
000000c0: c6c4 b83c c8d2 14bc 804f 163c dd13 963c
000000d0: 4db3 88bc b640 33bb 5703 a23c 40fa 193d
000000e0: 7a1f 2bbc f172 163d 784a 9a3c 207f 27bc
000000f0: 6658 b53c 8d77 093c bed7 d83c 4214 15bc

sequential/dense_2/BiasAdd/ReadVariableOp f4 [3]
0.016938696 -0.024307372 -0.010223337
00000000: 05c3 8a3c 4120 c7bc c97f 27bc

sequential/dense_1/BiasAdd/ReadVariableOp f4 [64]
0.005376735 0.015253233 -0.02821565 0.028177468 0.0023186898 0.0379665 -0.008504902 0.023431787
-0.00841909 0.025718072 0.048194807 0.015107943 0.03990577 0.032162365 -0.0146975815 0.024868544
-0.007351216 0.033366382 -0.006631983 0.030402852 0.014571118 0.03822831 -0.011664785 -0.014800883
0.005979125 -0.0019745263 0.02314431 0.034190316 0.022550369 0.0032136221 0.018401112 -0.031507533
-0.012706546 0.015139674 -0.022137655 -0.007965101 0.005697716 0.028226366 0.031850673 0.016451372
0.024197739 0.021446135 -0.017247759 0.04945464 0.02008914 0.0 0.007065056 0.030249855
-0.011997585 0.02287118 -0.01652001 -0.005345715 0.013924071 0.04478252 0.02439697 -0.017018504
0.034230858 0.044871278 0.010968267 -0.008486404 -0.008510802 0.04377636 0.0088217445 -0.019980317
00000000: 522f b03b b2e8 793c 8224 e7bc 6fd4 e63c
00000010: 29f5 173b c382 1b3d 2558 0bbc 05f4 bf3c
00000020: 39f0 09bc b5ae d23c eb67 453d 4e87 773c
00000030: 3c74 233d afbc 033d 20ce 70bc 1eb9 cb3c
00000040: 78e2 f0bb 30ab 083d 1b51 d9bb 670f f93c
00000050: b3bb 6e3c 4a95 1c3d a81d 3fbc 677f 72bc
00000060: 89ec c33b 0e67 01bb 2399 bd3c 250b 0c3d
00000070: 8dbb b83c a29b 523b eebd 963c 0b0e 01bd
00000080: 1e2f 50bc 650c 783c 075a b5bc 0e80 02bc
00000090: e8b3 ba3b fb3a e73c da75 023d 07c5 863c
000000a0: 563a c63c ceaf af3c 2c4b 8dbc f390 4a3d
000000b0: fb91 a43c 0000 0000 fc81 e73b 8bce f73c
000000c0: 8591 44bc 575c bb3c f954 87bc 1c2b afbb
000000d0: c921 643c e06d 373d 28dc c73c 646a 8bbc
000000e0: a835 0c3d f2ca 373d 3fb4 333c 8f0a 0bbc
000000f0: e470 0bbc d74e 333d 1489 103c c3ad a3bc

sequential/dense/MatMul f4 [64, 1088]
0.013730245 0.08854908 0.09068772 -0.12523624 -0.08381765 0.01068713 0.025761366 -0.071483046
-0.003368924 0.048118673 -0.06674782 0.08151195 0.036023036 0.049489357 -0.095604666 0.0012719642
0.014973745 0.12234219 0.0556465 -0.0080721285 -0.008543528 -0.121143624 -0.014916064 -0.07851628
-0.08035017 -0.06510216 0.018017996 -0.09535083 -0.12270608 -0.030106898 0.01658944 0.1023853
-0.07192257 0.027256476 -0.032906964 0.06802837 0.023063183 -0.051928997 -0.05436605 0.07204651
-0.051694322 -0.052128445 -0.09025328 0.049124397 -0.045862067 0.001236223 -0.06551116 -0.035184264
-0.08790285 -0.037449274 0.015303333 -0.026412098 -0.0838596 0.010957741 0.107692376 -0.01265704
-0.012677539 -0.022741165 -0.08902674 -0.03031915 -0.027314153 0.03320251 -0.013924938 0.07251772
0.029836217 -0.1081288 -0.0022892477 -0.12795323 -0.034820464 0.0016073682 -0.05929915 0.021739623
-0.072346106 0.11083826 0.05125774 0.010845917 0.02341787 0.0656454 -0.0855807 0.105717815
-0.06299486 0.019291533 0.11606861 -0.10174999 -0.014776583 -0.09181024 -0.12643574 -0.020998353
0.11116959 -0.049219776 0.017784769 -0.12540364 0.026252244 -0.012333411 -0.026597997 0.062194385
0.0217128 0.09652105 0.0075977035 -0.024418607 0.11483583 -0.05546361 -0.06689986 0.0361155
-0.029352147 0.049933534 -0.08529186 0.099743605 -0.012258227 0.026420472 -0.13441478 0.030027775
-0.062166367 0.08103688 0.12559742 -0.028299937 -0.04248555 0.08828376 0.001683093 -0.013823821
-0.03924872 0.015498949 -0.111409865 0.02949528 -0.08992587 -0.03913186 0.0594916 -0.007597905
-0.015358425 -0.03397622 0.045772694 0.041233372 0.049662784 0.006257034 -0.109007426 -0.00452352
-0.039488684 0.08275356 0.07677952 0.105873376 0.043282382 0.041627582 -0.10383689 -0.03649999
-0.042712588 0.11698576 0.06086304 0.06915436 -0.060889345 0.062414914 -0.046086922 0.10297129
0.047627352 -0.014870008 0.034581225 -0.0150517095 -0.090274185 0.021998132 -0.07051653 0.029714612
-0.048247404 -0.005886984 -0.022472486 0.013843092 0.08214833 0.06811707 -0.07843288 -0.057692595
-0.058274306 -0.06897354 -0.11473135 -0.006533496 -0.025662905 0.12245011 -0.073094614 -0.062182434
-0.03044286 -0.012682755 -0.012011883 -0.06408843 0.08230615 0.009223251 0.11878493 -0.051077917
-0.013828504 -0.042058017 0.11206521 -0.013645833 -0.02702652 -0.020177903 -0.028983163 -0.103552185
0.04315851 -0.017055033 -0.015003222 -0.079652615 0.07356916 0.074431166 0.0033401772 0.028818723
0.086628065 -0.010561505 -0.044246398 -0.0012566897 -0.08976655 0.07579318 -0.10181888 -0.016608672
-0.10336516 0.04668823 0.002238586 0.048183583 -0.12613168 -0.0072484952 -0.013309374 0.040961023
0.09990643 -0.04071186 0.10448731 -0.008347807 -0.032571793 -0.014316131 0.031039251 -0.0009614068
0.07480467 -0.051808313 0.032923635 -0.0006611513 0.09890601 0.08579854 -0.04552178 -0.017413603
0.0036313839 -0.039138645 -0.1016516 0.086716585 -0.058031444 0.027222885 -0.041604962 -0.063216485
-0.09515414 0.027024496 0.08277682 -0.07082381 0.04824595 -0.044741444 0.0016706641 0.042321485
0.023789339 0.07652724 -0.011228012 0.04103134 -0.02114781 0.05222592 0.03066143 0.03300608
00000000: d2f4 603c 3859 b53d 7cba b93d ee3d 00be
00000010: 97a8 abbd 1219 2f3c 8009 d33c b465 92bd
00000020: 2ac9 5cbb 1618 453d 15b3 88bd bdef a63d
00000030: e48c 133d 5ab5 4a3d 61cc c3bd 09b8 a63a
00000040: 7054 753c 8b8e fa3d 96ed 633d f640 04bc
00000050: 27fa 0bbc 261a f8bd 8262 74bc 25cd a0bd
00000060: a18e a4bd 4854 85bd 7a9a 933c 4c47 c3bd
00000070: 534d fbbd bea2 f6bc 94e6 873c 62af d13d
00000080: 244c 93bd f948 df3c 74c9 06bd 7552 8b3d
00000090: 00ef bc3c 80b3 54bd efae 5ebd 1f8d 933d
000000a0: 6dbd 53bd a384 55bd b6d6 b8bd aa36 493d
000000b0: ddd9 3bbd c308 a23a b72a 86bd 601d 10bd
000000c0: 6906 b4bd 6964 19bd d5ba 7a3c 2f5e d8bc
000000d0: 95be abbd 1988 333c d28d dc3d 795f 4fbc
000000e0: 74b5 4fbc ae4b babc a753 b6bd de5f f8bc
000000f0: eec1 dfbc 5bff 073d 6c25 64bc 2c84 943d
00000100: 156b f43c a272 ddbd 3407 16bb 2c06 03be
00000110: e79f 0ebd 54ae d23a aae3 72bd 4b17 b23c
00000120: 322a 94bd 2bff e23d a3f3 513d 13b3 313c
00000130: d5d6 bf3c 1871 863d ef44 afbd 9582 d83d
00000140: 7303 81bd 4709 9e3c 61b5 ed3d 4c62 d0bd
00000150: 7b19 72bc 0207 bcbd 5f78 01be bd04 acbc
00000160: e2ac e33d ad9a 49bd 5db1 913c d069 00be
00000170: f20e d73c 1312 4abc 0be4 d9bc 8abf 7e3d
00000180: 0bdf b13c d4ac c53d 28f6 f83b 8809 c8bc
00000190: 0c2f eb3d cf2d 63bd cb02 89bd d9ed 133d
000001a0: ea73 f0bc 1b87 4c3d 80ad aebd 6046 cc3d
000001b0: bbd6 48bc bf6f d83c 07a4 09be cffc f53c
000001c0: 29a2 7ebd aaf6 a53d 9c9c 003e 45d5 e7bc
000001d0: 5405 2ebd 1ece b43d 3b9b dc3a 4f7d 62bc
000001e0: 44c3 20bd 4eef 7d3c db2a e4bd 16a0 f13c
000001f0: 0e2b b8bd bb48 20bd 77ad 733d d9f7 f8bb
00000200: e7a1 7bbc a62a 0bbd 267c 3b3d 53e4 283d
00000210: 346b 4b3d ce07 cd3b 493f dfbd 093a 94bb
00000220: e3be 21bd b37a a93d 953e 9d3d 24d4 d83d
00000230: de48 313d af81 2a3d 6fa8 d4bd 0381 15bd
00000240: 65f3 2ebd 3b96 ef3d 864b 793d cda0 8d3d
00000250: 1b67 79bd c8a6 7f3d a4c5 3cbd 9de2 d23d
00000260: e614 433d 56a1 73bc 0ba5 0d3d 729b 76bc
00000270: ace1 b8bd 6d35 b43c f86a 90bd 0f6c f33c
00000280: 129f 45bd 9ae7 c0bb 3818 b8bc 23ce 623c
00000290: 623d a83d f680 8b3d 6ba1 a0bd 124f 6cbd
000002a0: 0ab1 6ebd 0042 8dbd 45f8 eabd f016 d6bb
000002b0: 033b d2bc 20c7 fa3d a1b2 95bd 02b3 7ebd
000002c0: 4e63 f9bc 54cb 4fbc 7dcd 44bc cb40 83bd
000002d0: 2090 a83d 1e1d 173c 8345 f33d 1437 51bd
000002e0: f390 62bc 0745 2cbd 7282 e53d c692 5fbc
000002f0: b866 ddbc 214c a5bc 196e edbc 2b13 d4bd
00000300: fac6 303d ffb6 8bbc 13d0 75bc e920 a3bd
00000310: 6eab 963d 5e6f 983d e0e6 5a3b 3e15 ec3c
00000320: 0e6a b13d 2a0a 2dbc b63b 35bd 82b7 a4ba
00000330: 86d7 b7bd 7439 9b3d 6b86 d0bd e90e 88bc
00000340: 1db1 d3bd 283c 3f3d 3eb5 123b 265c 453d
00000350: aa28 01be c984 edbb 900f 5abc bfc6 273d
00000360: be9b cc3d 7bc1 26bd 71fd d53d 3ec5 08bc
00000370: 006a 05bd 358e 6abc 0746 fe3c eb06 7cba
00000380: 3133 993d f434 54bd efda 063d 1d51 2dba
00000390: 3c8f ca3d 25b7 af3d 0c75 3abd f9a6 8ebc
000003a0: 83fc 6d3b d84f 20bd b72e d0bd 7798 b13d
000003b0: 61b2 6dbd 8702 df3c f769 2abd a577 81bd
000003c0: 2ce0 c2bd 7a62 dd3c e586 a93d 130c 91bd
000003d0: 8c9d 453d ce42 37bd 2ffa da3a 4b59 2d3d
000003e0: dce1 c23c 50ba 9c3d b2f5 37bc 7a10 283d
000003f0: 2c3e adbc d9ea 553d ae2d fb3c 6231 073d

sequential/dense_1/MatMul f4 [64, 64]
0.15638775 -0.114855096 -0.21600793 -0.13149929 0.013720882 0.13864776 -0.010558184 -0.13881305
-0.12372413 -0.20249413 0.06313695 0.052546877 -0.16946153 0.028949708 0.05668364 -0.08260095
-0.027531771 -0.09863251 0.16325933 0.03456532 -0.038458727 -0.14557336 -0.0051438822 0.112204954
0.15034916 -0.12683238 -0.14329863 0.1475011 -0.21586719 -0.028936822 -0.07486828 0.044557158
0.15325789 0.026157882 0.08207897 -0.1453122 0.20633304 0.2838584 0.026016328 -0.047596976
-0.122799516 -0.21017188 -0.05777329 -0.16473517 -0.13181737 -0.25835717 0.2567746 -0.10333795
-0.20916499 -0.066180944 -0.03326201 -0.0583572 -0.17763045 0.16574119 -0.11340812 0.013585327
0.16803566 0.23229137 0.10093887 -0.0041080117 -0.054267388 -0.008707602 -0.10385087 0.08408124
0.026718281 0.007037248 -0.06909723 -0.077023745 -0.089967184 -0.14924794 0.059388846 -0.2208605
-0.120780185 0.08058277 0.21272181 -0.2797591 -0.14541979 -0.05974169 -0.035267316 -0.10204597
-0.12872964 -0.1413316 -0.10228182 -0.12871534 -0.06570452 0.13559496 -0.059147667 0.09336737
0.03941853 -0.040894568 0.002407968 -0.16479239 0.24399802 -0.031410623 -0.29206172 -0.09345303
0.031153942 -0.16516508 0.228332 0.13981865 -0.15480317 0.13022257 0.15283312 0.09018802
-0.15063202 0.03550584 0.23902777 -0.060089972 0.2646722 0.2593108 -0.03311747 0.06855154
0.16676448 0.013353391 0.086203985 -0.17925462 -0.001247367 -0.18290709 -0.1356004 0.16751078
-0.078533374 0.016953116 0.087474406 -0.10016603 -0.09487409 0.17407194 0.07912248 0.17146666
-0.069622874 0.16705836 0.10382311 -0.10146107 0.18742868 0.052516047 0.12084961 0.17480758
-0.1708545 -0.04467554 -0.051065356 -0.15129861 -0.07508994 0.08173686 -0.10677382 0.09273682
0.05499119 0.052408982 0.019617205 -0.16821535 -0.20432921 0.094436474 0.10881415 0.19717917
0.18880592 0.1061908 0.18065254 0.17047611 -0.20647465 -0.036898322 0.09321212 0.16026981
-0.220555 -0.18312408 0.086121574 -0.1703209 0.098858595 -0.0108401 -0.17846192 0.13508406
0.14253588 -0.07344205 -0.014258193 -0.097585395 0.059639726 -0.021122966 -0.06565827 -0.026510386
-0.042378724 -0.1731833 -0.030555492 -0.005231712 -0.07578906 0.073590845 -0.05223624 0.08018639
0.04672956 -0.22589125 0.0058961012 0.15466699 0.12889431 -0.084934086 -0.120251544 0.13503596
0.08231549 0.0851277 0.063032165 0.10237642 0.1217866 -0.12944992 -0.05177699 0.0818489
-0.21019103 0.09690601 -0.120757245 0.0612618 -0.04144451 -0.14031705 0.144754 -0.084121205
0.14003837 -0.0043357443 -0.098585986 -0.13114311 -0.24367031 0.06619835 -0.18193398 0.07694889
-0.07812672 0.11233663 0.13989809 0.24410647 0.25432247 0.009391287 0.05354463 0.042930298
0.10460591 0.034542635 0.15826324 0.20708218 0.099609025 0.08900294 -0.21131016 0.13972618
0.16862132 0.2907698 0.18992887 -0.018977275 0.08009702 0.26100698 -0.21854511 -0.1544791
-0.07518699 0.026940154 0.10783565 -0.16197829 -0.02797532 0.18120603 0.0569004 -0.12289543
-0.16249205 0.15647136 0.15459569 -0.09044441 0.0873216 -0.12605824 0.16276929 -0.05069615
00000000: 1c24 203e 2639 ebbd 2f31 5dbe c0a7 06be
00000010: 8dcd 603c aef9 0d3e 3cfc 2cbc 0225 0ebe
00000020: 1463 fdbd 9f5a 4fbe f24d 813d 653b 573d
00000030: 5387 2dbe f027 ed3c 1b2d 683d b02a a9bd
00000040: 4f8a e1bc d7ff c9bd 742d 273e 5d94 0d3d
00000050: e686 1dbd 2f11 15be 038e a8bb b6cb e53d
00000060: 21f5 193e 59e0 01be e0bc 12be 870a 173e
00000070: 4a0c 5dbe ea0c edbc 8a54 99bd 9181 363d
00000080: a3ef 1c3e 0e49 d63c 0519 a83d b9cc 14be
00000090: f848 533e e355 913e 3220 d53c 0cf5 42bd
000000a0: 507e fbbd 4c37 57be afa3 6cbd 56b0 28be
000000b0: 22fb 06be 6447 84be f677 833e d9a2 d3bd
000000c0: 592f 56be e089 87bd bf3d 08bd f607 6fbd
000000d0: c2e4 35be 0fb8 293e 8442 e8bd fe94 5e3c
000000e0: 8a11 2c3e cadd 6d3e 0ab9 ce3d 809c 86bb
000000f0: 7b47 5ebd 54aa 0ebc c4af d4bd c932 ac3d
00000100: 4ce0 da3c b798 e63b d982 8dbd a0be 9dbd
00000110: b740 b8bd 74d4 18be b841 733d 4129 62be
00000120: 9a5b f7bd 9408 a53d bfd3 593e 963c 8fbe
00000130: ede8 14be b4b3 74bd 7674 10bd 7afd d0bd
00000140: b4d1 03be 3bb9 10be 2179 d1bd f4cd 03be
00000150: 1790 86bd 68d9 0a3e d344 72bd 6437 bf3d
00000160: 5375 213d 1081 27bd 00cf 1d3b 56bf 28be
00000170: 9eda 793e 6da8 00bd 1d89 95be 4d64 bfbd
00000180: 8d36 ff3c 0921 29be ddcf 693e 9f2c 0f3e
00000190: b984 1ebe 1159 053e 4980 1c3e 7fb4 b83d
000001a0: 483f 1abe 926e 113d b2c3 743e e720 76bd
000001b0: 1d83 873e 63c4 843e 2fa6 07bd c064 8c3d
000001c0: 4fc4 2a3e 2ec8 5a3c b78b b03d 868e 37be
000001d0: b17e a3ba ff4b 3bbe d5da 0abe f287 2b3e
000001e0: 1bd6 a0bd 43e1 8a3c c825 b33d d923 cdbd
000001f0: 594d c2bd ea3f 323e f70a a23d f594 2f3e
00000200: 7096 8ebd 5911 2b3e 36a1 d43d d2ca cfbd
00000210: 4eed 3f3e 111b 573d 0080 f73d c200 333e
00000220: 7bf4 2ebe b3fd 36bd e829 51bd 06ee 1abe
00000230: c1c8 99bd a865 a73d 3cac dabd cdec bd3d
00000240: 713e 613d cdaa 563d 43b4 a03c a540 2cbe
00000250: ad3b 51be e967 c13d f4d9 de3d 56e9 493e
00000260: 5756 413e 907a d93d fbfc 383e 4a91 2e3e
00000270: 176e 53be b222 17bd ffe5 be3d c51d 243e
00000280: 2bd9 61be e184 3bbe 8260 b03d 9a68 2ebe
00000290: 6076 ca3d ad9a 31bc b9be 36be 7a53 0a3e
000002a0: edf4 113e c968 96bd 329b 69bc dada c7bd
000002b0: c948 743d 120a adbc d877 86bd 4f2c d9bc
000002c0: 5095 2dbd f756 31be 834f fabc c86e abbb
000002d0: 4b37 9bbd ccb6 963d abf5 55bd c338 a43d
000002e0: 7f67 3f3d 0950 67be 1534 c13b 0661 1e3e
000002f0: dffc 033e ecf1 adbd 7146 f6bd de46 0a3e
00000300: 0695 a83d 6e57 ae3d 0217 813d baaa d13d
00000310: 416b f93d 858e 04be 1c14 54bd 65a0 a73d
00000320: 513c 57be a876 c63d 934f f7bd a7ed 7a3d
00000330: b8c1 29bd 46af 0fbe 643a 143e bd47 acbd
00000340: 3866 0f3e dc12 8ebb 73e7 c9bd 614a 06be
00000350: b684 79be 0093 873d e74c 3abe 6197 9d3d
00000360: e700 a0bd bf10 e63d 7241 0f3e 0cf7 793e
00000370: 8e36 823e eadd 193c 9d51 5b3d aed7 2f3d
00000380: a03b d63d 947c 0d3d c20f 223e 5a0d 543e
00000390: d1ff cb3d 2c47 b63d b161 58be 6114 0f3e
000003a0: 11ab 2c3e c7df 943e b77c 423e 3b76 9bbc
000003b0: e809 a43d b5a2 853e 4aca 5fbe c52f 1ebe
000003c0: a3fb 99bd 99b1 dc3c f0d8 dc3d a3dd 25be
000003d0: 802c e5bc 138e 393e 6510 693d 99b0 fbbd
000003e0: 5164 26be 073a 203e 554e 1e3e eb3a b9bd
000003f0: abd5 b23d 6915 01be feac 263e c4a6 4fbd

sequential/dense_2/MatMul f4 [3, 64]
-0.040447537 -0.2609003 -0.041540176 0.107157364 -0.32211635 0.36798945 -0.16133608 0.040150713
-0.18780994 0.33379105 -0.07887331 -0.06606018 0.2667588 0.07206324 -0.25784805 0.36198774
-0.14633591 0.2747251 -0.1713675 0.22841494 0.21906343 -0.18831079 0.016864514 -0.19331396
-0.28406787 -0.1406935 0.17637825 -0.25772652 0.25771266 0.19622257 0.12306455 -0.18341689
0.023311906 -0.012575779 -0.18452236 -0.21680115 -0.0012020373 -0.38709462 -0.27825195 -0.09196385
0.081345655 -0.16952668 -0.24361847 -0.03262936 0.012397573 -0.060548782 0.121054985 0.18386884
-0.035406172 -0.14122947 -0.09464656 -0.12779684 -0.19682077 0.1745917 0.2661928 -0.15872781
0.21671109 0.23905915 -0.2268023 -0.26335782 -0.13819695 0.26173556 0.09102766 0.014215385
0.3197583 -0.34644866 0.06760567 -0.33502164 0.14461513 -0.29163155 0.2747248 -0.08173106
0.03667706 -0.15399209 0.28582066 -0.23397893 -0.29012817 -0.19901982 -0.2949871 0.1392033
-0.036890205 -0.14827023 -0.2644401 -0.33871037 0.16527702 -0.22655563 0.1433517 -0.04762188
0.17185041 -0.0347294 -0.06473734 -0.07104703 0.031036176 -0.09191425 -0.102745615 0.15944162
-0.1106075 0.22153565 0.0039335834 0.16956337 0.14548193 -0.13987315 0.30756947 -0.282507
-0.38455382 0.15933222 -0.08623602 0.13189419 -0.18408789 0.29213613 -0.3098066 -0.3479598
0.13738118 0.17294393 0.12874554 0.14692517 -0.023568695 -0.3597015 -0.050835997 -0.1678673
0.34492275 -0.22881286 0.16153933 -0.12524466 -0.102934405 -0.13093293 -0.17602718 0.16182655
-0.30651572 0.18346441 0.10386118 0.3153494 0.03461128 -0.16245788 0.2524481 -0.0407398
0.07737899 -0.3725336 0.15904059 0.348985 -0.30277622 -0.13816978 -0.11846622 -0.17884871
-0.029266933 -0.3754685 -0.07377328 -0.23951569 -0.1702855 0.06901838 -0.10688579 -0.13892692
-0.34301075 -0.19540969 0.084344074 -0.016585601 -0.27663746 -0.29761505 -0.17794943 -0.3357718
0.1251339 0.07228225 -0.18945296 -0.29730693 -0.08557821 0.0056698327 0.13568088 -0.16577014
0.15675358 0.06480975 -0.30409214 -0.13726652 0.1753438 -0.11364119 0.086578734 -0.17561848
-0.020604264 0.18453121 -0.11141823 0.19582935 0.15250325 0.05827457 -0.31012627 0.15712622
-0.24300715 0.31572133 -0.27451652 0.2746461 0.158346 0.2500777 -0.06258181 0.23805594
00000000: 51ac 25bd b994 85be 0826 2abd 5275 db3d
00000010: 6fec a4be 1d69 bc3e 4935 25be 1375 243d
00000020: 4051 40be a9e6 aa3e 5488 a1bd 8f4a 87bd
00000030: 9c94 883e e495 933d a904 84be 7556 b93e
00000040: 15d9 15be c5a8 8c3e f67a 2fbe 9be5 693e
00000050: 2a52 603e 8bd4 40be 7327 8a3c 18f4 45be
00000060: 5871 91be f511 10be 809c 343e bbf4 83be
00000070: eaf2 833e 92ee 483e 4409 fc3d a3d1 3bbe
00000080: 9cf8 be3c a40a 4ebc 6ef3 3cbe 1f01 5ebe
00000090: ae8d 9dba 4431 c6be 0a77 8ebe 8b57 bcbd
000000a0: 8d98 a63d 6798 2dbe 1f77 79be 5da6 05bd
000000b0: 311f 4b3c 0002 78bd adeb f73d 1d48 3c3e
000000c0: 1006 11bd 759e 10be 0ed6 c1bd 2ddd 02be
000000d0: 628b 49be 2bc8 323e 6c4a 883e 8b89 22be
000000e0: 83e9 5d3e eccb 743e dd3e 68be d6d6 86be
000000f0: 8083 0dbe 3402 863e b66c ba3d a5e7 683c
00000100: 5cb7 a33e b861 b1be d774 8a3d f587 abbe
00000110: fd15 143e bb50 95be bba8 8c3e 9d62 a7bd
00000120: af3a 163d 1ab0 1dbe 1657 923e 2c98 6fbe
00000130: ae8b 94be dacb 4bbe 8d08 97be 4f8b 0e3e
00000140: 2f1a 17bd 27d4 17be b164 87be 726b adbe
00000150: 613e 293e 33fe 67be caca 123e 290f 43bd
00000160: 8ef9 2f3e 6a40 0ebd 0395 84bd 1b81 91bd
00000170: 943f fe3c 8a3d bcbd 4b6c d2bd aa44 233e
00000180: 2f86 e2bd 3eda 623e 4ae5 803b 05a2 2d3e
00000190: 37f9 143e e83a 0fbe bf79 9d3e c2a4 90be
000001a0: 3de4 c4be fc27 233e 839c b0bd 450f 073e
000001b0: 8981 3cbe de92 953e f89e 9ebe c927 b2be
000001c0: a7ad 0c3e 3718 313e dfd5 033e 8d73 163e
000001d0: 2313 c1bc cc2a b8be 6839 50bd 68e5 2bbe
000001e0: b799 b03e eb4d 6abe 916a 253e 2340 00be
000001f0: 46cf d2bd 4813 06be 7840 34be dcb5 253e
00000200: a1ef 9cbe 18de 3b3e 2cb5 d43d 7a75 a13e
00000210: 8fc4 0d3d 5c5b 26be e140 813e c7de 26bd
00000220: e078 9e3d b9bc bebe 89db 223e 29ae b23e
00000230: 7c05 9bbe 617c 0dbe 6b9e f2bd 1e24 37be
00000240: 35c1 efbc 683d c0be 7216 97bd 9a43 75be
00000250: 525f 2ebe 8259 8d3d f0e6 dabd dc42 0ebe
00000260: 1b9f afbe 7a19 48be 96bc ac3d 87de 87bc
00000270: 6da3 8dbe 0061 98be 6038 36be 48ea abbe
00000280: 1a23 003e b708 943d f5ff 41be 9d38 98be
00000290: a143 afbd 01ca b93b eeef 0a3e a6bf 29be
000002a0: 0384 203e f9ba 843d f7b1 9bbe 988f 0cbe
000002b0: 538d 333e b6bc e8bd 3150 b13d 55d5 33be
000002c0: 46ca a8bc c0f5 3c3e 3e2f e4bd 7d87 483e
000002d0: d029 1c3e 51b1 6e3d dfc8 9ebe b2e5 203e
000002e0: ded6 78be 3aa6 a13e 6e8d 8cbe 6a9e 8c3e
000002f0: 7425 223e 2f0a 803e e42a 80bd f0c4 733e
