assets/modelo_ventanas.tflite (tflite, 108616 bytes, 7 tensors)

sequential/embedding/embedding_lookup f4 [150, 64]
-0.043883264 0.029277314 0.008742582 0.017821122 -0.03365276 -0.03283515 0.024962928 0.019040238
-0.016942251 -0.019221796 -0.041123807 0.041502025 -0.03571683 -0.046009984 -0.016603876 0.041325722
-0.039921988 0.041067902 0.040997896 -0.027206589 0.007176541 0.042265262 0.02421612 -0.03505243
-0.013199113 0.04244907 0.01856177 0.0025019757 0.039089452 -0.047471583 0.016288545 0.029142704
-0.023083258 0.043642428 -0.03393209 0.04368135 0.027830388 -0.017427158 0.035723697 0.03112166
-0.030021358 -0.024136305 0.043525923 -0.029763162 0.0100235455 0.034991 -0.019599272 0.0055966005
0.0053567663 -0.023813307 -0.03889036 0.0006242506 -0.012002252 0.040586833 -0.019104803 -0.046219885
-0.030794084 0.019352999 0.006531261 -0.004483629 0.017690789 -0.013212599 -0.024382627 -0.021604944
0.049111914 0.03395394 -0.03867637 0.035804603 0.040973414 -0.047296297 -0.035336077 0.017306875
0.037616227 -0.036154736 0.016191866 0.018282626 0.037567746 -0.03175509 0.038440976 0.02743778
-0.028650332 -0.0488377 -0.03557954 0.024178151 0.022255387 -0.016389705 -0.037141405 0.0023688674
-0.0040137656 -0.041339554 0.009877525 -0.011555515 0.029323887 -0.040661238 -0.0052193776 -0.03697313
0.02563024 0.040927205 0.022887181 0.049485113 0.017308306 -0.011948027 -0.012907684 0.012101959
-0.03201308 0.033730652 0.005776502 0.011461496 0.035575602 -0.0465706 -0.035458326 0.013450418
0.032514397 -0.0018264875 -0.043470085 -0.0018506534 -0.012678862 -0.010475419 0.048536863 0.048163664
-0.043279063 0.018868867 0.048943046 0.0034430139 0.013916325 -0.04048543 -0.042359926 0.025745656
-0.0433479 -0.028535606 0.0727187 0.074490964 0.04815701 0.048504848 -0.09612359 0.12505344
-0.058735378 -0.06905573 0.079204775 -0.12681831 -0.13080731 -0.11927965 0.09160875 0.07241342
0.09191753 0.06142786 0.025581291 -0.06694104 -0.05570157 -0.055878114 0.100593604 0.038505197
-0.118890814 -0.09738189 -0.007739919 -0.12429392 -0.13645169 -0.023538452 -0.05465649 -0.11157125
0.03320809 0.050625566 -0.06809487 0.09463766 0.07253449 0.102177225 -0.1167386 -0.15193908
0.07508928 0.024668267 0.079055205 -0.104373425 0.010834336 -0.09952996 0.14327896 0.106203154
0.05468394 0.05753834 0.069991715 0.01902671 -0.05187254 -0.123665765 0.11345953 0.022553703
-0.12746984 -0.08006217 0.015636424 -0.10984335 -0.07886822 -0.09219882 0.006374579 0.13115081
0.016809843 -0.15310882 0.14979127 -0.18303989 -0.11550157 0.021651976 -0.16399625 0.1808835
0.08406544 0.09112186 -0.14251493 0.009189831 -0.09185823 -0.057311673 0.09827407 0.16513696
-0.09445654 -0.14061928 -0.02246326 -0.16781814 0.13964312 0.11489689 -0.020541342 0.16448128
0.14854532 0.13373744 0.09850311 -0.16625294 -0.062362332 -0.08986275 0.10435923 0.09305343
0.18466614 -0.14938344 0.11620069 -0.16708551 0.09321239 -0.12532666 0.060602274 -0.13233271
-0.11417554 0.11536341 -0.08125982 -0.075663395 -0.03369542 0.11216078 -0.13543184 -0.05262966
0.061900195 -0.1384138 -0.12390574 -0.17417486 -0.13015144 -0.12606238 -0.1668434 0.1434812
0.16881196 0.037806675 0.15436184 0.060191028 -0.11328967 -0.08916681 -0.14891392 -0.05363782
00000000: f0be 33bd fad6 ef3c 0c3d 0f3c 9afd 913c
00000010: 7ad7 09bd 267e 06bd 0e7f cc3c 46fa 9b3c
00000020: 7aca 8abc 0777 9dbc 7071 28bd 07fe 293d
00000030: d04b 12bd f774 3cbd da04 88bc 2945 293d
00000040: 3d85 23bd d136 283d 69ed 273d 5ae0 debc
00000050: 3029 eb3b 571e 2d3d e260 c63c 2393 0fbd
00000060: 1841 58bc 13df 2d3d da0e 983c 30f8 233b
00000070: 431c 203d 9071 42bd 8e6f 853c aebc ee3c
00000080: 1a19 bdbc 67c2 323d 60fc 0abd 37eb 323d
00000090: 8efc e33c 66c3 8ebc 0353 123d daf2 fe3c
000000a0: 5aef f5bc 80b9 c5bc 3d48 323d e0d1 f3bc
000000b0: cc39 243c b952 0f3d a78e a0bc b063 b73b
000000c0: d087 af3b 2014 c3bc 804b 1fbd c0a4 233a
000000d0: 18a5 44bc 613e 263d ad81 9cbc 1051 3dbd
000000e0: e043 fcbc 2e8a 9e3c 3004 d63b 68eb 92bb
000000f0: 46ec 903c a879 58bc 13be c7bc dafc b0bc
00000100: 9329 493d 4913 0b3d 1d6b 1ebd d9a7 123d
00000110: bdd3 273d c3b9 41bd 90bc 10bd 26c7 8d3c
00000120: 7913 1a3d fd16 14bd cea4 843c 72c5 953c
00000130: a3e0 193d a011 02bd 4974 1d3d 32c5 e03c
00000140: 1ab4 eabc 0a0a 48bd dabb 11bd 4211 c63c
00000150: ee50 b63c b443 86bc 9621 18bd 003f 1b3b
00000160: e885 83bb aa53 29bd 58d5 213c 5853 3dbc
00000170: a638 f03c 668c 26bd 5007 abbb 2371 17bd
00000180: 82f6 d13c 49a3 273d e67d bb3c e7b0 4a3d
00000190: 26ca 8d3c a8c1 43bc c07a 53bc 4c47 463c
000001a0: 2620 03bd 2729 0a3d d048 bd3b 00c9 3b3c
000001b0: b9b7 113d d0c0 3ebd c03c 11bd 245f 5c3c
000001c0: d12d 053d c066 efba b00d 32bd a091 f2ba
000001d0: 00bb 4fbc 18a1 2bbc 97ce 463d 4347 453d
000001e0: 6345 31bd e292 9a3c 8178 483d 30a4 613b
000001f0: 4c01 643c 0dd4 25bd 9a81 2dbd 8ee8 d23c
00000200: 918d 31bd 81c3 e9bc 8bed 943d b88e 983d
00000210: 4940 453d 05ad 463d 72dc c4bd 020e 003e
00000220: 8294 70bd 176d 8dbd 1d36 a23d a9dc 01be
00000230: 5af2 05be e448 f4bd 5e9d bb3d 7d4d 943d
00000240: 423f bc3d c89b 7b3d db8f d13c 6218 89bd
00000250: 5427 64bd 73e0 64bd 0504 ce3d a0b7 1d3d
00000260: 077d f3bd 2870 c7bd 259f fdbb d08d febd
00000270: feb9 0bbe b6d3 c0bc 7cdf 5fbd 787f e4bd
00000280: 3505 083d c15c 4f3d 5375 8bbd 64d1 c13d
00000290: f68c 943d 4b42 d13d a614 efbd eb95 1bbe
000002a0: 69c8 993d 1b15 ca3c b2e7 a13d bcc1 d5bd
000002b0: 8082 313c 5dd6 cbbd b8b7 123e 0a81 d93d
000002c0: 44fc 5f3d 53ad 6b3d d157 8f3d e7dd 9b3c
000002d0: 4d78 54bd 7a44 fdbd 785d e83d 8bc2 b83c
000002e0: 7487 02be a3f7 a3bd f517 803c 8df5 e0bd
000002f0: a985 a1bd bcd2 bcbd d8e1 d03b 664c 063e
00000300: ccb4 893c 8fc8 1cbe e262 193e cf6e 3bbe
00000310: 168c ecbd 7c5f b13c a2ee 27be 8639 393e
00000320: 802a ac3d 199e ba3d 6fef 11be f290 163c
00000330: 2b20 bcbd a5bf 6abd ea43 c93d aa19 293e
00000340: 6e72 c1bd 80fe 0fbe df04 b8bc 85d8 2bbe
00000350: 9bfe 0e3e 104f eb3d 5146 a8bc c86d 283e
00000360: 441c 183e 78f2 083e 00bc c93d 363e 2abe
00000370: a56f 7fbd f609 b8bd 4bba d53d cc92 be3d
00000380: 1f19 3d3e f9f7 18be a1fa ed3d 7718 2bbe
00000390: 23e6 be3d a255 00be 173a 783d 3a82 07be
000003a0: ded4 e9bd a743 ec3d 8c6b a6bd 69f5 9abd
000003b0: 3504 0abd 8db4 e53d a5ae 0abe 3392 57bd
000003c0: 0f8b 7d3d 59bc 0dbe 4bc2 fdbd e55a 32be
000003d0: 6b46 05be 7f16 01be ffd8 2abe bcec 123e
000003e0: 0bdd 2c3e 2cdb 1a3d 0811 1e3e de8a 763d
000003f0: 6a04 e8bd 179d b6bd e47c 18be 55b3 5bbd

sequential/dense/BiasAdd/ReadVariableOp f4 [64]
0.12521644 0.11772645 0.05872015 0.04564613 0.058069255 0.03500657 0.03930838 0.13128328
0.10230277 0.06541834 0.079232365 0.08853986 0.08882191 0.06621007 0.057111815 0.062655695
0.093797736 0.066065855 0.06537159 0.0649848 0.123902425 0.092029765 0.083485425 0.085743986
0.08160352 0.07604362 0.07283455 0.09380344 0.08920267 0.09796712 -0.006195888 0.032269757
0.05934292 0.04834288 0.05858062 0.06431286 0.08430305 0.097420275 0.056817252 0.058364064
0.08904505 0.070893854 0.10151105 0.075224124 0.046100423 0.09678872 0.072293796 0.064836375
0.08973113 0.054043293 0.08218821 0.064065844 0.09522882 0.0664302 0.08672388 0.079910636
0.050944585 0.082994595 0.07938739 0.075312525 0.07240114 0.046875104 0.07112824 0.10247297
00000000: bd38 003e 911a f13d 8a84 703d 70f7 3a3d
00000010: 07da 6d3d 0d63 0f3d d301 213d 206f 063e
00000020: 1d84 d13d 0dfa 853d 9444 a23d 6354 b53d
00000030: 43e8 b53d 2599 873d 14ee 693d a151 803d
00000040: 0719 c03d 894d 873d 8ae1 853d c016 853d
00000050: 8ec0 fd3d 1a7a bc3d 68fa aa3d 8b9a af3d
00000060: bf1f a73d c2bc 9b3d 482a 953d 051c c03d
00000070: e4af b63d fca2 c83d e006 cbbb 4b2d 043d
00000080: 9011 733d 2f03 463d 3bf2 6f3d 76b6 833d
00000090: 14a7 ac3d 4884 c73d 35b9 683d 280f 6f3d
000000a0: 405d b63d cc30 913d 06e5 cf3d 1b0f 9a3d
000000b0: ccd3 3c3d 2a39 c63d c50e 943d efc8 843d
000000c0: f4c4 b73d 805c 5d3d 4b52 a83d f434 833d
000000d0: 5407 c33d 8f0c 883d 4a9c b13d 30a8 a33d
000000e0: 45ab 503d 12f9 a93d db95 a23d 743d 9a3d
000000f0: 0d47 943d 1c00 403d afab 913d 59dd d13d

sequential/dense_2/BiasAdd/ReadVariableOp f4 [5]
0.006596973 0.032375515 0.03612756 -0.030948699 -0.026327405
00000000: 6c2b d83b 309c 043d 7efa 133d 2088 fdbc
00000010: 92ac d7bc

sequential/dense_1/BiasAdd/ReadVariableOp f4 [64]
0.052723736 0.03151743 0.0056380327 -0.017755743 0.025146868 0.0406895 0.048361402 0.039979372
0.044491548 0.01870346 0.035217952 0.046446763 0.034345977 0.078292534 0.026476316 -0.006798798
-0.015317869 0.045773387 -0.0060670082 0.05793019 0.01875326 0.038471267 0.029920476 0.047448844
0.036828194 0.035323273 0.106624894 0.04218047 0.07018944 0.044679333 0.0272173 0.05903056
-0.009681135 -0.021579294 0.03535611 -0.00084518676 0.044449545 0.11472655 0.03896016 0.06119679
0.032771867 -0.021112625 0.035242055 0.036146645 0.014589418 0.04104999 0.057234686 0.04403933
0.045529764 0.077703886 -0.0018087226 0.041762173 0.034267843 0.05883138 0.039506737 0.05649866
-0.010717212 0.04954434 0.094512664 0.05387578 0.08240636 0.06403149 -0.01902836 0.027574036
00000000: d8f4 573d 6c18 013d 3fbf b83b 7e74 91bc
00000010: ce00 ce3c 08aa 263d 9b16 463d 69c1 233d
00000020: c53c 363d 0038 993c b340 103d f63e 3e3d
00000030: 5eae 0c3d d657 a03d dce4 d83c 74c8 debb
00000040: cdf7 7abc e07c 3b3d c1cd c6bb 3548 6d3d
00000050: 70a0 993c 0c94 1d3d c91b f53c b859 423d
00000060: 29d9 163d 23af 103d 275e da3d 6ec5 2c3d
00000070: 7bbf 8f3d ad01 373d d1f6 de3c 07ca 713d
00000080: a09d 1ebc 0fc7 b0bc 92d1 103d 868f 5dba
00000090: ba10 363d c1f5 ea3d b094 1f3d 7ca9 7a3d
000000a0: cb3b 063d 62f4 acbc f959 103d 810e 143d
000000b0: 7408 6f3c 0924 283d eb6e 6a3d 9662 343d
000000c0: 6b7d 3a3d 3723 9f3d a912 edba d00e 2b3d
000000d0: 705c 0c3d 2cf9 703d d1d1 213d 246b 673d
000000e0: 3f97 2fbc 02ef 4a3d db8f c13d daac 5c3d
000000f0: aac4 a83d f122 833d 5de1 9bbc f2e2 e13c

sequential/dense/MatMul f4 [64, 192]
-0.026295928 -0.11064542 -0.026726631 -0.260426 0.1763233 0.19255394 -0.123392485 0.042751048
-0.09978067 0.08638642 -0.06553675 -0.031147154 -0.11237076 -0.03395854 0.14179128 0.25932866
-0.12999699 -0.1947016 0.08945393 -0.20150386 -0.00042720526 0.16155128 -0.084524475 0.23599137
0.07806647 -0.038582567 0.15414785 -0.21493948 -0.052068405 -0.08474007 0.098717995 0.1067958
0.0666756 -0.10027442 0.075109266 -0.08056221 -0.04210912 0.022908237 0.2435502 -0.023158591
-0.078180276 0.04705085 -0.07338039 -0.14234369 0.1309824 0.042759743 -0.09133062 0.026014384
0.072194636 -0.22134022 -0.16609335 -0.30256316 -0.057264026 0.04228591 -0.27304825 0.032803543
-0.029394887 -0.1537126 0.20324811 -0.01399171 -0.14861558 -0.048970375 -0.20196573 0.009640433
0.19264415 -0.19671543 0.09951888 0.05916096 0.12393889 0.032093406 -0.07388701 0.29526976
-0.22119108 -0.13038059 -0.10443676 -0.116966754 0.03669314 -0.24754079 0.08263092 0.05358689
0.19138297 -0.0026246747 0.02386158 0.0031886406 0.16029818 0.12721638 0.0063313134 0.12146543
-0.016664328 0.122166984 -0.12958692 -0.11593309 -0.24412341 0.05526605 0.16174941 -0.21643558
0.3694339 -0.25503722 0.18143834 -0.2674504 -0.052007362 0.024272816 -0.07272455 0.021097638
-0.20014939 0.11746436 -0.17376874 0.0143188 -0.21043843 0.11798686 -0.0824375 0.009634273
0.103313446 -0.15480405 -0.11286007 -0.24546091 -0.349027 0.032935895 -0.18949221 0.08373001
0.09284176 -0.1889291 0.2285215 0.17604488 -0.031242428 -0.17078419 -0.24228407 0.17755085
-0.00096454204 -0.19067052 0.055413652 -0.04217766 -0.10979665 0.063681066 0.023639984 0.19377273
-0.09735891 -0.11137198 0.014496975 -0.021882642 0.05091718 1.1382768e-05 0.13170026 0.09638344
-0.05824263 -0.03573947 0.22384399 -0.16823925 -0.10407009 0.014030352 0.18030761 0.2654409
-0.08702031 0.06760279 0.049722392 -0.086027905 -0.122584514 0.08633126 -0.066368565 0.11665176
0.107329525 -0.119780935 0.0366133 0.15693046 0.093869075 0.1332969 0.100588165 0.08430397
0.03067189 0.058544006 0.05663398 -0.16790693 0.18727793 -0.017376397 0.1651077 0.15327519
-0.07318531 -0.0439325 0.08331088 0.044579163 -0.18321788 -0.004921912 -0.12060853 -0.023836818
0.034334667 -0.07825811 -0.06886086 -0.04345335 -0.20123129 0.000364453 0.03508998 0.0073846355
0.10094651 -0.19862644 0.31768754 0.110989794 -0.097325824 -0.019301198 -0.19526376 0.024054138
-0.0032176326 -0.20149525 -0.2763169 0.18130073 -0.061755687 -0.23092014 0.245678 0.11903148
0.08155239 0.058751483 0.17252365 0.01485372 0.1200011 -0.18796484 -0.027996497 0.2552011
-0.08956902 0.017081976 0.0010983661 0.0035743755 -0.005745883 -0.15857738 0.18898365 -0.105318695
0.08334711 -0.16984771 -0.017385596 -0.20013207 0.024939515 -0.04918935 -0.065224536 0.04390869
-0.047160942 0.16443457 -0.06370589 -0.07524527 0.1155279 -0.16740926 0.04923511 -0.21812592
0.3217857 -0.081948414 -0.19172157 0.033040516 0.0042221965 -0.15426998 -0.19131488 0.010122067
-0.02324947 -0.12321784 0.20518145 -0.043912154 -0.008142234 -0.021271069 -0.16574763 0.25210226
00000000: 8f6a d7bc 119a e2bd cff1 dabc 8f56 85be
00000010: 188e 343e dc2c 453e 33b5 fcbd b91b 2f3d
00000020: cf59 ccbd 5deb b03d 2238 86bd 5128 ffbc
00000030: a422 e6bd 1c18 0bbd bc31 113e bac6 843e
00000040: ee1d 05be db5f 47be 9f33 b73d 0757 4ebe
00000050: 85fa dfb9 b36d 253e 2b1b adbd b9a7 713e
00000060: 50e1 9f3d c108 1ebd efd8 1d3e 1819 5cbe
00000070: ae45 55bd 348c adbd a92c ca3d c2b7 da3d
00000080: 388d 883d ad5c cdbd e3d2 993d cdfd a4bd
00000090: 9d7a 2cbd 0eaa bb3c 3965 793e 16b7 bdbc
000000a0: fb1c a0bd 64b8 403d 7548 96bd 8bc2 11be
000000b0: 4020 063e d724 2f3d 8c0b bbbd 1e1c d53c
000000c0: c8da 933d 03a7 62be 6014 2abe 8fe9 9abe
000000d0: af8d 6abd fe33 2d3d fbcc 8bbe 025d 063d
000000e0: 8ccd f0bc d666 1dbe 4620 503e 7c3d 65bc
000000f0: af2e 18be 2995 48bd 1bd0 4ebe e8f2 1d3c
00000100: 8244 453e c56f 49be 8ed0 cb3d c352 723d
00000110: acd3 fd3d 6074 033d 1352 97bd 992d 973e
00000120: ea7f 62be 7d82 05be f1e2 d5bd 448c efbd
00000130: 8c4b 163d 557b 7dbe 663a a93d ed7d 5b3d
00000140: e6f9 433e bc02 2cbb 5c79 c33c 83f8 503b
00000150: 3525 243e 0345 023e e876 cf3b dec2 f83d
00000160: a183 88bc af32 fa3d 6fb2 04be 546e edbd
00000170: 7dfb 79be a75e 623d a3a1 253e 4aa1 5dbe
00000180: 7126 bd3e 3d94 82be f9ca 393e 42ef 88be
00000190: ac05 55bd c9d7 c63c 9cf0 94bd f4d4 ac3c
000001a0: f6f3 4cbe 2891 f03d 6ff0 31be 6699 6a3c
000001b0: 2c7d 57be 18a3 f13d fed4 a8bd 12d9 1d3c
000001c0: 0096 d33d f484 1ebe 2e23 e7bd 1b5a 7bbe
000001d0: abb3 b2be cae7 063d 3f0a 42be a47a ab3d
000001e0: d223 be3d a176 41be 8a01 6a3e 1c45 343e
000001f0: 1ff0 ffbc 0de2 2ebe 5119 78be e4cf 353e
00000200: 52d9 7cba 223f 43be 6df9 623d 7bc2 2cbd
00000210: 11dd e0bd 386b 823d a4a8 c13c 5c6c 463e
00000220: 1c64 c7bd fe16 e4bd b884 6d3c 3a43 b3bc
00000230: 888e 503d 9ef8 3e37 6fdc 063e ae64 c53d
00000240: d38f 6ebd 8d63 12bd 5c37 653e e946 2cbe
00000250: b322 d5bd 90df 653c 8fa2 383e dfe7 873e
00000260: b437 b2bd 5573 8a3d b5a9 4b3d 662f b0bd
00000270: 970d fbbd 72ce b03d 3eec 87bd 1ee7 ee3d
00000280: 95cf db3d b54f f5bd d4f7 153d 61b2 203e
00000290: 6e3e c03d fc7e 083e 2b01 ce3d 8fa7 ac3d
000002a0: 9e43 fb3c d7cb 6f3d 08f9 673d cbef 2bbe
000002b0: c9c5 3f3e f258 8ebc fe11 293e 2cf4 1c3e
000002c0: 2ee2 95bd 91f2 33bd e59e aa3d a498 363d
000002d0: 789d 3bbe fe47 a1bb 9b01 f7bd 6e45 c3bc
000002e0: 82a2 0c3d ca45 a0bd ec06 8dbd 24fc 31bd
000002f0: 930f 4ebe 0e14 bf39 83ba 0f3d d0fa f13b
00000300: 0bbd ce3d bb64 4bbe f1a7 a23e 9e4e e33d
00000310: c352 c7bd 8c1d 9ebc 39f3 47be 2f0d c53c
00000320: ebde 52bb c554 4ebe 6979 8dbe e6a6 393e
00000330: 88f3 7cbd 5476 6cbe 0393 7b3e c7c6 f33d
00000340: f004 a73d 65a5 703d 0aaa 303e 045d 733c
00000350: 23c3 f53d db79 40be e958 e5bc b8a9 823e
00000360: f66f b7bd 80ef 8b3c 0df7 8f3a 1240 6a3b
00000370: f647 bcbb 1c62 22be ee84 413e 54b1 d7bd
00000380: e4b1 aa3d 8fec 2dbe 3d6c 8ebc 6cef 4cbe
00000390: f44d cc3c c67a 49bd 7194 85bd 99d9 333d
000003a0: d52b 41bd 8961 283e 3c78 82bd 311a 9abd
000003b0: e499 ec3d 556d 2bbe c1aa 493d 675c 5fbe
000003c0: 18c1 a43e 92d4 a7bd a952 44be 7e55 073d
000003d0: 5a5a 8a3b f3f8 1dbe 0ce8 43be 07d7 253c
000003e0: ac75 bebc a359 fcbd 161b 523e 3bdd 33bd
000003f0: 0167 05bc aa40 aebc bfb9 29be 8c13 813e

sequential/dense_1/MatMul f4 [64, 64]
0.15831687 0.0725498 -0.20831664 0.087490425 -0.022603743 0.0048400224 0.10852164 -0.22112086
-0.02397093 -0.12165815 -0.16725683 0.24398613 0.10290346 -0.13533415 -0.19622132 0.044826623
0.25117466 -0.057396304 -0.02220035 0.22126952 -0.22274576 -0.022491433 -0.021634465 0.096952155
0.30894217 0.04434246 0.24136402 0.1297332 0.049781132 0.030104907 -0.02095287 -0.08460383
-0.27451423 0.22123946 0.11785822 0.13441688 -0.11461629 0.14206839 -0.21877107 -0.2760636
0.26110956 0.30649054 0.24300101 -0.07598931 0.21143845 0.22583582 -0.21426003 -0.3014745
0.25732666 0.1111193 0.022355232 -0.27228704 0.093452185 0.0933457 0.1301571 -0.13856097
0.17744517 -0.2693937 -0.054733586 0.08470706 0.20168044 -0.00027655356 0.09355968 0.06638148
-0.12544873 0.026499383 0.21835896 0.022349406 0.18470973 0.36763546 -0.33387324 0.14732715
-0.124388896 0.26603317 0.28921142 -0.20000355 0.15236698 0.122525364 -0.12982224 -0.12684748
0.06675031 0.23819518 0.03141839 -0.2645306 0.2810118 0.20127441 0.17180097 -0.04950595
-0.13874434 0.2522838 -0.071632974 0.014198339 0.186966 0.14858045 -0.04602978 0.2198409
0.1748857 0.12779656 0.18340021 -0.18184792 0.17223783 -0.19805238 0.21820903 0.30214918
0.0027596958 0.012460823 -0.16278906 0.12858056 -0.24736997 -0.18605319 0.26560846 0.1076513
0.22491576 -0.27668652 0.20692642 0.15013237 0.07091721 0.28554347 0.036498696 -0.24447359
-0.1740024 0.27373967 0.24623728 0.047785535 0.0070551797 -0.111297145 -0.011493616 -0.16992597
0.38801777 0.14628854 -0.093599916 0.115645126 -0.014752787 0.24441546 0.020532303 0.20575927
0.28095475 -0.15578489 -0.16149867 -0.008166352 0.13403371 -0.14719236 0.31432062 0.015952047
0.15698142 -0.010637032 0.35319033 -0.039129637 0.10499401 -0.08029223 -0.074610166 -0.10494495
0.21101299 -0.084754296 -0.09971093 0.046353348 0.1034283 -0.29307804 -0.09207864 -0.05114271
-0.014671587 -0.06218399 -0.19445665 -0.09641149 -0.23616014 0.06006052 -0.21067789 -0.0033575494
0.18120559 0.12405921 -0.02711217 -0.28651828 0.044916816 0.08702112 0.029243963 -0.10990451
0.21904203 0.15344259 0.21871826 -0.10929481 -0.07484307 0.14369182 0.015093264 0.09328656
0.1905537 -0.23973691 -0.18496144 0.052760385 0.19996893 -0.23650682 0.016506827 0.40090635
-0.148468 0.14122388 0.0131979175 0.08891626 -0.24665698 0.30142796 0.04324061 0.14713585
0.052318938 -0.10752431 -0.116569474 -0.22104055 0.0529534 -0.10547199 0.24749699 0.02867501
-0.025471723 0.12063744 0.14495009 0.10568314 -0.069992244 0.050858654 -0.13048163 -0.13350944
-0.16982405 0.017066281 0.116825335 0.15792942 -0.09399732 0.007371781 0.115964144 0.014156507
0.007947006 0.12984958 -0.23048167 -0.15534702 -0.123142794 -0.14844537 0.013135855 0.018079052
0.262285 -0.021774078 -0.25127044 0.026787948 0.13051033 -0.16364503 0.15660863 0.0041197157
0.08330915 -0.17766054 0.056148976 -0.05668132 -0.11062968 -0.077884346 -0.040519793 0.081603594
0.2217877 -0.18698798 0.14108956 0.103905894 -0.21381888 0.15481362 0.11265921 0.16349639
00000000: d11d 223e fd94 943d f550 55be 2e2e b33d
00000010: 7c2b b9bc 0d99 9e3b 9840 de3d 826d 62be
00000020: af5e c4bc e827 f9bd 6045 2bbe 80d7 793e
00000030: 0dbf d23d 0995 0abe 3eee 48be 1f9c 373d
00000040: f799 803e 6318 6bbd 82dd b5bc 7a94 623e
00000050: 7717 64be f43f b8bc c33a b1bc da8e c63d
00000060: ab2d 9e3e 70a0 353d 2128 773e c8d8 043e
00000070: 4de7 4b3d 919e f63c 5aa5 abbc c644 adbd
00000080: 218d 8cbe 998c 623e a75f f13d 94a4 093e
00000090: f2bb eabd 607a 113e 8605 60be 3558 8dbe
000000a0: 27b0 853e 54ec 9c3e 42d5 783e 49a0 9bbd
000000b0: 5283 583e 8141 673e fb66 5bbe de5a 9abe
000000c0: 52c0 833e 8492 e33d 5222 b73c 3569 8bbe
000000d0: dc63 bf3d 082c bf3d e747 053e ede2 0dbe
000000e0: 30b4 353e f9ed 89be 5330 60bd e57a ad3d
000000f0: 5185 4e3e 64fe 90b9 389c bf3d 03f3 873d
00000100: a275 00be 3c15 d93c 7e99 5f3e 1a16 b73c
00000110: 8c24 3d3e b73a bc3e 6ff1 aabe eedc 163e
00000120: 9bbf febd 8035 883e 8513 943e bbcd 4cbe
00000130: 1706 1c3e 94ee fa3d 1ff0 04be 4ee4 01be
00000140: 63b4 883d 70e9 733e 92b0 003d 8e70 87be
00000150: c7e0 8f3e e11a 4e3e 98ec 2f3e c0c6 4abd
00000160: ff12 0ebe 582b 813e 4fb4 92bd 26a0 683c
00000170: 0474 3f3e 7925 183e b989 3cbd f91d 613e
00000180: 3d15 333e 1add 023e 44cd 3b3e 5736 3abe
00000190: 1d5f 303e 3ece 4abe 3072 5f3e 4cb3 9a3e
000001a0: 03dc 343b 7b28 4c3c 2db2 26be 9faa 033e
000001b0: 8e4e 7dbe ba84 3ebe d5fd 873e 4978 dc3d
000001c0: 5150 663e dba9 8dbe 85e4 533e 4dbc 193e
000001d0: 0b3d 913d c132 923e a87f 153d 4957 7abe
000001e0: af2d 32be 9b27 8c3e a025 7c3e c4ba 433d
000001f0: 232f e73b c2ef e3bd b84f 3cbc 1301 2ebe
00000200: 44aa c63e aacc 153e 50b1 bfbd 5ad7 ec3d
00000210: acb5 71bc 0c48 7a3e 5c33 a83c 8fb2 523e
00000220: 4dd9 8f3e 1386 1fbe e85f 25be 2acc 05bc
00000230: 2240 093e 98b9 16be a2ee a03e dead 823c
00000240: bdbf 203e f246 2ebc 5dd5 b43e 6646 20bd
00000250: 1907 d73d 4170 a4bd 37cd 98bd 61ed d6bd
00000260: ca13 583e a993 adbd 3e35 ccbd 02dd 3d3d
00000270: 37d2 d33d 530e 96be ba93 bcbd 057b 51bd
00000280: 1961 70bc a4b4 7ebd a51f 47be 6373 c5bd
00000290: f7d3 71be 0502 763d f2bb 57be 550a 5cbb
000002a0: f58d 393e c112 fe3d 571a debc 86b2 92be
000002b0: b2fa 373d 2138 b23d 0991 ef3c 9e15 e1bd
000002c0: 8e4c 603e 0e20 1d3e aef7 5f3e f5d5 dfbd
000002d0: 5347 99bd f323 133e bd49 773c 060d bf3d
000002e0: 8220 433e 987d 75be 8866 3dbe 461b 583d
000002f0: a8c4 4c3e d82e 72be 5339 873c 9943 cd3e
00000300: ff07 18be fe9c 103e 143c 583c ba19 b63d
00000310: a693 7cbe c454 9a3e 111d 313d c8aa 163e
00000320: 624c 563d b535 dcbd fabb eebd 7458 62be
00000330: aae5 583d b301 d8bd da6f 7d3e dbe7 ea3c
00000340: 13aa d0bc c310 f73d cc6d 143e 6770 d83d
00000350: 1858 8fbd 2a51 503d fa9c 05be b3b6 08be
00000360: 5be6 2dbe 96ce 8b3c 1f42 ef3d 40b8 213e
00000370: ab81 c0bd fb8e f13b 9c7e ed3d b2f0 673c
00000380: 2934 023c 4af7 043e 6303 6cbe 4a13 1fbe
00000390: 4a32 fcbd 1002 18be c537 573c 851a 943c
000003a0: 384a 863e 8d5f b2bc 85a6 80be 6672 db3c
000003b0: 80a4 053e 9092 27be 035e 203e aefe 863b
000003c0: fd9d aa3d a5ec 35be 78fc 653d ac2a 68bd
000003d0: d091 e2bd d481 9fbd 15f8 25bd c91f a73d
000003e0: 511c 633e c779 3fbe c879 103e 9dcc d43d
000003f0: 56f3 5abe 7687 1e3e dfb9 e63d 996b 273e

sequential/dense_2/MatMul f4 [5, 64]
-0.328815 0.30964845 -0.17132252 -0.021676425 0.18715191 -0.3156355 -0.4485993 0.2488092
0.070932575 -0.43282828 0.17799452 -0.454416 0.33115786 -0.36630723 0.054908805 -0.2624007
-0.22278346 -0.12531178 -0.32313228 -0.16478597 0.20405829 0.31582332 0.23754492 0.056695372
0.31414926 0.12211192 -0.4964317 0.42405325 0.06142263 -0.13697293 0.12574123 -0.2530868
-0.2838729 -0.18521398 0.3591083 0.26574922 0.06388643 -0.51871455 0.005375849 0.17882866
-0.41394666 -0.201731 0.1357065 0.1571732 -0.1037236 0.15622765 0.35474604 -0.5365496
-0.3126505 0.0031044185 -0.48574066 0.31227577 0.23387411 0.26839766 0.27186316 0.15442106
-0.19701326 0.292151 -0.34429058 -0.18361564 -0.20240988 -0.4167291 0.030882543 0.25594318
0.28010127 -0.39240614 0.21088022 -0.05239199 0.1883925 0.38488415 0.35354325 0.34749675
-0.10272864 -0.1252241 0.16996725 0.31964523 0.20490263 0.0889439 0.13501357 -0.13979876
-0.2088926 0.14732029 -0.35474044 -0.42554855 -0.48935696 -0.2640529 0.38372543 -0.35361654
-0.19939606 -0.38962737 0.22326452 -0.26207235 -0.30012596 0.20944276 0.29178628 0.24352928
0.1514388 0.17548132 -0.19894215 0.17656161 0.1655057 -0.39866033 0.34829926 -0.48334596
0.11448665 -0.21992734 -0.4022391 0.14872637 -0.3129485 0.10915692 -0.18137991 -0.44573525
0.37182468 -0.27988386 0.007979649 0.09719305 0.26322335 -0.2895902 -0.31536025 0.20085563
-0.13533501 -0.3681086 0.16452162 -0.163351 0.14210287 0.11516031 -0.025138421 -0.32966653
0.15860645 -0.18816599 -0.17590064 -0.034637067 -0.35382292 -0.17988911 0.3009112 -0.28337014
0.29841688 0.4673695 -0.28452623 -0.06913363 -0.36480078 0.12829211 -0.17484605 -0.30579636
0.041664634 0.11585419 -0.012133079 0.31627792 -0.3626287 -0.1999862 -0.05869496 0.051756687
0.3046685 0.14148572 -0.24168797 -0.023096345 -0.56658834 0.40730146 -0.071852595 0.1540998
-0.013825447 -0.11532242 0.09143369 -0.28007993 -0.21421996 0.26442966 0.3078776 0.21335411
-0.258219 -0.30067852 0.1747688 -0.399219 0.3915329 0.27572772 0.11255835 0.088048495
-0.36331606 0.46448314 -0.5042268 -0.3711777 -0.043922264 -0.41188607 -0.22948317 -0.18502453
-0.04258408 0.3067241 -0.29625067 0.27138492 0.32900354 0.15019606 -0.11971357 -0.22246969
-0.09017398 0.24307518 -0.25312275 0.11272716 0.28006142 -0.34913775 0.1764345 0.1823127
-0.30480856 -0.22433151 -0.42258787 0.21198067 -0.14845906 -0.35076162 -0.41312546 0.34773692
0.084841296 -0.036861327 -0.0023659428 -0.025496801 -0.08410925 -0.25860173 -0.33726922 0.10969945
-0.010435419 -0.38841778 -0.31612125 -0.103863165 0.31932566 -0.1553921 -0.2323249 -0.43100238
0.23066121 0.008839685 -0.36228293 0.17673112 -0.43073466 -0.4686277 -0.19488706 0.25712982
0.18310207 0.0565078 -0.14881706 -0.42250872 0.03665971 -0.32312965 -0.42727774 0.22058494
-0.3270652 -0.1366064 0.29070017 -0.079189196 0.1639083 0.36505306 0.33062628 -0.44091251
-0.22800604 -0.38509414 0.24088317 0.2831917 0.31983903 0.07112726 -0.11662641 0.12832324
00000000: 715a a8be 3e8a 9e3e 2c6f 2fbe c292 b1bc
00000010: c0a4 3f3e fa9a a1be cfae e5be d7c7 7e3e
00000020: 1945 913d ab9b ddbe 3244 363e 37a9 e8be
00000030: 868d a93e 9f8c bbbe 0ee8 603d 6259 86be
00000040: 5921 64be bb51 00be 9871 a5be a7bd 28be
00000050: a8f4 503e 98b3 a13e fa3e 733e 6839 683d
00000060: 2cd8 a03e d015 fa3d 4c2c febe 821d d93e
00000070: 4c96 7b3d a242 0cbe 4fc2 003e 9894 81be
00000080: ca57 91be bca8 3dbe 0bdd b73e 4810 883e
00000090: e3d6 823d 7aca 04bf e427 b03b dc1e 373e
000000a0: d1f0 d3be 9292 4ebe a5f6 0a3e 03f2 203e
000000b0: 0a6d d4bd 24fa 1f3e 46a1 b53e 515b 09bf
000000c0: ba13 a0be 8073 4b3b 00b3 f8be 9ce2 9f3e
000000d0: b27c 6f3e 6b6b 893e a631 8b3e 8e20 1e3e
000000e0: d8bd 49be d194 953e db46 b0be bd05 3cbe
000000f0: 8944 4fbe 845d d5be 63fd fc3c fc0a 833e
00000100: 6f69 8f3e 75e9 c8be fcf0 573e fc98 56bd
00000110: f7e9 403e 890f c53e 9f03 b53e 18eb b13e
00000120: 6563 d2bd bf3a 00be e50b 2e3e 8aa8 a33e
00000130: ffd1 513e 3828 b63d ff40 0a3e 6827 0fbe
00000140: f1e7 55be 21db 163e 8aa0 b5be 80e1 d9be
00000150: ff8c fabe f131 87be a977 c43e 3a0d b5be
00000160: 7b2e 4cbe 3d7d c7be 749f 643e 592e 86be
00000170: 1caa 99be 2a78 563e 0365 953e bd5f 793e
00000180: c612 1b3e 60b1 333e 7eb7 4bbe 91cc 343e
00000190: 547a 293e 351d ccbe 4854 b23e 1f79 f7be
000001a0: fa77 ea3d a234 61be 49f2 cdbe ba4b 183e
000001b0: c93a a0be aa8d df3d a8bb 39be 6937 e4be
000001c0: ce5f be3e f04c 8fbe 13bd 023c 260d c73d
000001d0: 36c5 863e 2b45 94be e676 a1be 19ad 4d3e
000001e0: 4395 0abe bb78 bcbe 5b78 283e 7c45 27be
000001f0: 6a83 113e 2bd9 eb3d 17ef cdbc 0dca a8be
00000200: bb69 223e 96ae 40be 4c1f 34be 99df 0dbd
00000210: 4728 b5be da34 38be 0811 9a3e e415 91be
00000220: 19ca 983e 0e4b ef3e 6cad 91be ef95 8dbd
00000230: 2bc7 babe 025f 033e d80a 33be 5791 9cbe
00000240: 89a8 2a3d f644 ed3d d2c9 46bc 2eef a13e
00000250: 78aa b9be 2fc9 4cbe 206a 70bd d2fe 533d
00000260: 82fd 9b3e a2e1 103e 0d7d 77be 8c34 bdbc
00000270: ef0b 11bf d189 d03e 7427 93bd 57cc 1d3e
00000280: 2184 62bc 292e ecbd 9641 bb3d a366 8fbe
00000290: 7a5c 5bbe 5363 873e 22a2 9d3e 8079 5a3e
000002a0: 4835 84be 89f2 99be 98f6 323e 6f66 ccbe
000002b0: 0077 c83e 2f2c 8d3e fe84 e63d c552 b43d
000002c0: 9004 babe bcd0 ed3e 0215 01bf 010b bebe
000002d0: d5e7 33bd bbe2 d2be a3fd 6abe 1277 3dbe
000002e0: a56c 2ebd f10a 9d3e 2bae 97be f7f2 8a3e
000002f0: 2773 a83e ffcc 193e 632c f5bd 18cf 63be
00000300: 23ad b8bd b3e8 783e 4e99 81be 7fdd e63d
00000310: 3664 8f3e 2fc2 b2be 3fab 343e 2eb0 3a3e
00000320: de0f 9cbe 29b7 65be 705d d8be 7611 593e
00000330: a705 18be 0797 b3be 2e85 d3be 930a b23e
00000340: 46c1 ad3d e7fb 16bd ef0d 1bbb abde d0bc
00000350: 7841 acbd 7267 84be 8dae acbe 1baa e03d
00000360: 52f9 2abc b2de c6be a5da a1be 36b6 d4bd
00000370: a77e a33e 1b1f 1fbe 94e6 6dbe 58ac dcbe
00000380: 7432 6c3e 53d4 103c 267d b9be 01f9 343e
00000390: 4189 dcbe f8ef efbe 7990 47be 85a6 833e
000003a0: 1c7f 3b3e b974 673d 8063 18be 1053 d8be
000003b0: 7e28 163d 4071 a5be 26c4 dabe 05e1 613e
000003c0: 1775 a7be 8ce2 0bbe a7d6 943e f22d a2bd
000003d0: 94d7 273e 3ce8 ba3e d947 a93e 49bf e1be
000003e0: 6a7a 69be 0f2b c5be 14aa 763e 81fe 903e
000003f0: f1c1 a33e 2bab 913d d4d9 eebd 2b67 033e
