assets/modelo_ventanas.tflite (tflite, 236364 bytes, 7 tensors)

sequential/embedding/embedding_lookup f4 [256, 64]
-0.027005017 -0.030472457 0.013401773 -0.03049314 0.0023154505 0.0242954 0.03152423 -0.038684346
0.039062034 0.02815869 0.037538957 0.010593653 0.021880295 0.033408407 -0.02863437 0.048773084
-0.0032114014 0.011328686 0.041797366 -0.0084289685 -0.03989017 -0.039134443 0.00662297 -0.015187778
0.032084677 0.024470378 -0.022589529 -0.02964865 -0.017223407 0.021290626 -0.022544075 -0.021547997
0.017256942 0.009687066 -0.033699468 -0.008175444 -0.0061031207 0.021835078 -0.003304053 0.021275092
0.038769964 0.047115315 -0.008317839 -0.018752027 0.023976926 0.045207884 0.035943184 -0.020338213
-0.04250274 -0.0037739761 -0.01991198 -0.021748913 -0.0071804523 0.046666894 -0.012856029 0.04904646
-0.0065172315 0.0013828278 0.0073323734 0.04466096 -0.0463984 0.02770039 0.04559057 0.031877946
0.023418393 0.049766067 0.021321837 0.017391328 0.03806882 -0.008946884 0.0026092902 -0.002167534
0.0060808435 0.047961537 -0.021856666 -0.022734845 0.0132199265 0.02839246 -0.008057546 0.040739182
0.007852148 -0.019512761 -0.008609187 -0.0323475 -0.025482869 -0.030429149 -0.033957735 0.020834196
0.041033838 -0.035447717 0.041845564 -0.02380141 0.0008222349 0.018121209 -0.0360265 0.006414246
-0.023349285 -0.034198835 -0.0028615221 0.03389502 0.03578179 0.013945308 -0.016358625 0.024066556
-0.029522194 0.025058534 -0.023098636 0.032566857 0.018046211 -0.012541294 0.03329957 0.0026983134
0.02700809 -0.019997334 0.035785403 0.027004931 -0.027129197 0.037076805 -8.431822e-05 -0.047970153
-0.0035871752 -0.01943922 0.02846909 0.037320625 0.010570049 -0.048337426 -0.02375636 0.0015024543
-0.036669668 -0.027477166 0.041761793 -0.07294781 0.017111938 0.025732353 -0.0878399 0.11504892
0.06191486 0.093899086 -0.011484139 -0.0833424 -0.066155754 -0.091485925 0.103159115 0.011608633
0.049433798 0.08632413 -0.07602082 0.07042895 -0.0860363 0.081386805 0.10104991 0.0037284207
-0.059328772 0.042918906 0.08364789 -0.030177815 -0.046233505 -0.07972474 -0.058897693 -0.009204034
-0.036752265 0.095475055 0.10161509 -0.04727686 0.039721224 -0.05073171 0.10261946 0.03062968
0.02937568 -0.013853752 -0.041293085 -0.0967743 -0.07900873 0.0022812493 0.09381836 -0.06841845
-0.059291836 0.052800342 0.026203854 0.0877928 0.063254 -0.034615904 -0.107165486 0.055966783
0.0974748 -0.072584465 -0.09037448 0.027529327 0.049211126 -0.0075959815 -0.026309071 -0.06533445
-0.1042426 -0.09662654 0.090934195 -0.051385023 -0.11501554 0.097339325 0.049183693 -0.092217095
0.089024425 0.027581366 -0.13171564 0.058872998 0.021678744 -0.092782594 -0.11012815 0.016924942
-0.11231851 -0.036936052 0.010855489 -0.094620265 -0.10716315 0.12438731 -0.02577117 0.07227721
0.049001224 0.07616204 -0.086826384 0.01682828 0.051988374 0.110612184 0.050169427 -0.009194073
0.09353519 -0.032478873 0.079433106 0.057991754 0.08467833 0.08270402 0.04154184 -0.103952274
-0.07000779 0.10374154 -0.108989276 0.042257536 -0.062331356 0.106703 0.07655563 0.098829225
-0.08967068 0.10446026 -0.09951195 -0.09645128 0.13558562 -0.028017633 -0.07545187 -0.008737725
-0.100889735 0.07346461 0.07049922 -0.10500961 0.06282762 0.0016908711 -0.071510054 0.103769064
00000000: a039 ddbc 60a1 f9bc 1c93 5b3c c0cc f9bc
00000010: d0be 173b 2607 c73c 8d1f 013d 7a73 1ebd
00000020: 83ff 1f3d 0ead e63c 73c2 193d 0091 2d3c
00000030: 4e3e b33c 41d7 083d a092 eabc 49c6 473d
00000040: 6076 52bb f49b 393c b733 2b3d a819 0abc
00000050: e063 23bd 704b 20bd 8005 d93b 28d6 78bc
00000060: 396b 033d 1a76 c83c ad0d b9bc bae1 f2bc
00000070: 1a18 8dbc ae69 ae3c 5aae b8bc 6d85 b0bc
00000080: 6e5e 8d3c 80b6 1e3c 7408 0abd 4cf2 05bc
00000090: b0fc c7bb 7adf b23c d088 58bb 1a49 ae3c
000000a0: 41cd 1e3d fdfb 403d 8c47 08bc da9d 99bc
000000b0: 426b c43c e72b 393d 2939 133d 539c a6bc
000000c0: 5a17 2ebd d054 77bb 731e a3bc c72a b2bc
000000d0: 004a ebbb c925 3f3d 18a2 52bc f1e4 483d
000000e0: 808e d5bb 0040 b53a 6844 f03b 69ee 363d
000000f0: 400c 3ebd eeeb e23c 2dbd 3a3d 7392 023d
00000100: eed7 bf3c 81d7 4b3d 22ab ae3c 4278 8e3c
00000110: 0dee 1b3d f495 12bc a000 2b3b 300d 0ebb
00000120: d041 c73b 5173 443d c00c b3bc 6d3e babc
00000130: 6498 583c 4e97 e83c cc03 04bc 21de 263d
00000140: 4ca6 003c 3ad9 9fbc 8c0d 0dbc d07e 04bd
00000150: 73c1 d0bc 8d46 f9bc 4417 0bbd 7aac aa3c
00000160: 1913 283d a031 11bd 4166 2b3d 2dfb c2bc
00000170: 408b 573a ee72 943c 8690 13bd 982e d23b
00000180: 0047 bfbc 1414 0cbd 6088 3bbb 81d5 0a3d
00000190: ed8f 123d dc7a 643c 8602 86bc 3a27 c53c
000001a0: 87d8 f1bc 8e47 cd3c 5a39 bdbc d364 053d
000001b0: a6d5 933c 007a 4dbc 2165 083d 30d6 303b
000001c0: 1240 dd3c 73d1 a3bc b793 123d 7239 dd3c
000001d0: 0d3e debc d9dd 173d 00d4 b0b8 5a7c 44bd
000001e0: d016 6bbb 003f 9fbc 0238 e93c 83dd 183d
000001f0: 002e 2d3c 77fd 45bd b39c c2bc 00ee c43a
00000200: ef32 16bd cb17 e1bc 6a0e 2b3d a965 95bd
00000210: 562e 8c3c a8cc d23c 68e5 b3bd c59e eb3d
00000220: 709a 7d3d 2a4e c03d f827 3cbc 6caf aabd
00000230: ab7c 87bd f95c bbbd 1645 d33d 2332 3e3c
00000240: 187b 4a3d b5ca b03d ceb0 9bbd 0e3d 903d
00000250: cd33 b0bd 20ae a63d 41f3 ce3d 8558 743b
00000260: ba02 73bd bccb 2f3d 964f ab3d 7737 f7bc
00000270: 585f 3dbd b946 a3bd b53e 71bd 84cc 16bc
00000280: 8b89 16bd 6d88 c33d 931b d03d 61a5 41bd
00000290: b9b2 223d 0ecc 4fbd 272a d23d 18eb fa3c
000002a0: 44a5 f03c d9fa 62bc f022 29bd 9b31 c6bd
000002b0: 54cf a1bd 0381 153b d723 c03d f91e 8cbd
000002c0: ffdb 72bd 2c45 583d 77a9 d63c b6cc b33d
000002d0: 508b 813d 68c9 0dbd 9479 dbbd 6d3d 653d
000002e0: dea0 c73d 2aa7 94bd 4116 b9bd 2f85 e13c
000002f0: 9b91 493d b6e7 f8bb 1f86 d7bc 11ce 85bd
00000300: 257d d5bd 23e4 c5bd b53b ba3d 1a79 52bd
00000310: 448d ebbd d759 c73d d774 493d 51dc bcbd
00000320: 7052 b63d 51f2 e13c 77e0 06be d024 713d
00000330: 9f97 b13c cd04 bebd de8a e1bd 2da6 8a3c
00000340: 3f07 e6bd 424a 17bd 39db 313c 45c8 c1bd
00000350: 5b78 dbbd c6be fe3d 101e d3bc 1306 943d
00000360: 82b5 483d d8fa 9b3d 08d2 b1bd 76db 893c
00000370: c3f1 543d a488 e23d 757e 4d3d bda2 16bc
00000380: 618f bf3d 9108 05bd d3ad a23d c388 6d3d
00000390: d56b ad3d ba60 a93d c727 2a3d eee4 d4bd
000003a0: 3f60 8fbd 7276 d43d c535 dfbd 3d16 2d3d
000003b0: 2a4f 7fbd 1a87 da3d 33c9 9c3d fa66 ca3d
000003c0: 43a5 b7bd 43ef d53d eccc cbbd 4088 c5bd
000003d0: f5d6 0a3e 3c85 e5bc 8386 9abd ad28 0fbc
000003e0: 479f cebd 9d74 963d e561 903d 470f d7bd
000003f0: c4ab 803d 38a0 dd3a dd73 92bd e084 d43d

sequential/dense/BiasAdd/ReadVariableOp f4 [128]
0.06784138 0.098845534 0.06315973 0.06174493 0.052306585 0.049325455 0.0609866 0.03984919
0.06046261 0.06107427 0.053657893 0.028822478 0.06310457 0.060299046 0.068506576 0.055232905
0.050694164 0.05864035 0.03157421 0.028172929 0.07019519 0.055452734 0.052026905 0.049333483
0.019643156 0.022302665 0.08068819 0.04277036 0.06832342 0.08542014 0.04845448 0.05764889
0.067687005 0.07716042 0.03422411 0.027266098 0.06992522 0.063087255 0.059004482 0.056677476
0.025242567 0.05467323 0.058962017 0.04290732 0.06884892 0.05387628 0.054130275 0.03911487
0.076338544 0.04731052 0.03472954 0.051289767 0.039006513 0.070500806 0.071153924 0.07370261
0.07901171 0.041859 0.06899167 0.065068014 0.049693864 0.057224195 0.067631595 0.060806856
0.058114465 0.054343108 0.056465365 0.053256594 0.06601508 0.078451246 0.074024074 0.014600877
0.054860298 0.068233915 0.020783203 0.030740455 -0.032859482 0.058666743 0.051775232 -0.006029283
0.04090997 0.058193013 0.07807424 0.0511323 0.07114449 0.07101395 0.049708996 0.04379471
0.054677136 0.051775336 0.07065749 0.064239055 0.07475659 0.038438328 0.048909076 0.068120174
0.06251385 0.049728937 0.065762654 0.04114309 0.0732444 0.018731255 0.0601134 0.043804254
0.055571996 0.029438596 0.050108433 0.015522934 0.07825125 0.028729308 0.070157774 0.04094071
0.076952435 0.048789937 0.079687275 0.0452782 0.07265639 0.060026027 0.053363495 0.065250926
0.072509885 0.043641955 0.05437137 0.058684304 0.01100244 0.025133284 0.023615189 0.054469414
00000000: 6cf0 8a3d 876f ca3d e359 813d 40e8 7c3d
00000010: 6e3f 563d 7d09 4a3d 16cd 793d e738 233d
00000020: a4a7 773d 0429 7a3d 61c8 5b3d 1e1d ec3c
00000030: f83c 813d 22fc 763d 2d4d 8c3d e63b 623d
00000040: afa4 4f3d dd30 703d f553 013d eaca e63c
00000050: 7fc2 8f3d 6822 633d 2a1a 553d e811 4a3d
00000060: afea a03c 14b4 b63c da3f a53d f92f 2f3d
00000070: 26ed 8b3d c1f0 ae3d 3478 463d 3e21 6c3d
00000080: 7c9f 8a3d 4806 9e3d 952e 0c3d 275d df3c
00000090: f434 8f3d e433 813d afae 713d a426 683d
000000a0: 80c9 ce3c 09f1 5f3d 2882 713d 96bf 2f3d
000000b0: aa00 8d3d 60ad 5c3d b5b7 5d3d ea36 203d
000000c0: 6257 9c3d adc8 413d 9040 0e3d 3815 523d
000000d0: 4bc5 1f3d ba62 903d 26b9 913d 65f1 963d
000000e0: e4d0 a13d 5874 2b3d 814b 8d3d 6142 853d
000000f0: cb8b 4b3d eb63 6a3d 6f82 8a3d 9c10 793d
00000100: 6f09 6e3d e196 5e3d 3a48 673d 9623 5a3d
00000110: ea32 873d 0cab a03d ef99 973d 8438 6f3c
00000120: 31b5 603d 39be 8b3d 8941 aa3c 68d3 fb3c
00000130: aa97 06bd 8a4c 703d 4412 543d 4b91 c5bb
00000140: 3691 273d cc5b 6e3d 63e5 9f3d 1a70 513d
00000150: 34b4 913d c36f 913d a99b 4b3d 1562 333d
00000160: 22f5 5f3d 6012 543d e0b4 903d c48f 833d
00000170: fc19 993d 8271 1d3d e254 483d 9782 8b3d
00000180: 4307 803d 92b0 4b3d 92ae 863d a885 283d
00000190: 2901 963d 4a72 993c 7839 763d 176c 333d
000001a0: 769f 633d 3629 f13c 803e 4d3d e753 7e3c
000001b0: 3142 a03d ba59 eb3c e1ae 8f3d 72b1 273d
000001c0: 3d99 9d3d f5d7 473d 1533 a33d a275 393d
000001d0: e0cc 943d dadd 753d ae93 5a3d 47a2 853d
000001e0: 1080 943d e8c1 323d 83b4 5e3d f45e 703d
000001f0: 9443 343c 51e4 cd3c a474 c13c 521b 5f3d

sequential/dense_2/BiasAdd/ReadVariableOp f4 [6]
0.020087121 -0.0016948392 0.03067014 -0.014934719 -0.03455895 -0.03287759
00000000: bf8d a43c 5e25 deba f23f fb3c c0b0 74bc
00000010: b08d 0dbd a7aa 06bd

sequential/dense_1/BiasAdd/ReadVariableOp f4 [128]
0.041785114 0.022063468 0.037369445 -0.00015953243 0.028179977 0.0362007 0.024847008 -0.02004137
0.042637963 0.018277848 0.025412155 0.031358145 0.004984612 0.060900826 0.051922556 0.01156893
0.037482515 0.02353658 0.034036204 0.023794692 0.026080685 0.008697133 0.04337396 0.04010013
0.027349614 0.022305373 0.0053761853 0.020211607 0.047933362 0.024544377 0.02955067 0.027665135
-0.021575354 0.012614663 0.029198982 0.053159244 -0.013900287 0.029605094 0.04157268 0.0143056605
0.031816248 0.037882112 0.048547205 0.021441912 0.032463208 0.03839626 0.034420785 0.025810909
0.053691786 0.00454733 0.023203151 0.031453535 0.02565518 -0.02129826 0.034183208 0.04014695
0.032407016 0.030072706 0.05832808 0.0390294 0.033662554 0.05735111 0.020811928 0.023164643
0.0361823 0.054465074 -0.01987209 0.036572468 0.025563644 0.031231614 0.024490809 -0.031961635
-0.017726934 0.022265662 -9.9065066e-05 0.010562167 0.016991392 0.05695938 0.031950783 0.024541344
-0.017511869 0.03862442 -0.0181389 -0.015512818 0.013641658 0.019240705 0.0011763695 0.022287553
-0.007814124 0.023218904 0.024588292 0.046472326 0.029560093 0.041366506 0.035569895 0.035682242
0.007606796 0.039265018 -0.01131785 0.00825238 0.026521293 0.058271676 0.027892487 -0.016658727
0.04362706 0.01850618 0.027072841 0.02554357 0.028104873 0.009534888 0.026823869 0.042429246
0.022346381 0.02830089 0.027369441 0.02391332 0.04362248 0.021900713 0.03341965 0.029993009
0.04132446 -0.014662891 0.039101366 -0.0064403764 0.012791693 0.03439465 0.036404353 0.023636052
00000000: de26 2b3d 72be b43c b410 193d 2948 27b9
00000010: b2d9 e63c 2f47 143d f48b cb3c cd2d a4bc
00000020: 25a5 2e3d 6dbb 953c 272d d03c 6671 003d
00000030: f555 a33b 2573 793d bfac 543d 9c8b 3d3c
00000040: 4487 193d c9cf c03c 8c69 0b3d 16ed c23c
00000050: 29a7 d53c 6b7e 0e3c e5a8 313d 0940 243d
00000060: 4c0c e03c c2b9 b63c b62a b03b d092 a53c
00000070: c655 443d 4a11 c93c 3f14 f23c fea1 e23c
00000080: ccbe b0bc bbad 4e3c b432 ef3c 82bd 593d
00000090: 08be 63bc 6286 f23c 1d48 2a3d 4a62 6a3c
000000a0: c151 023d 462a 1b3d 6fd9 463d f3a6 af3c
000000b0: 24f8 043d 6645 1d3d cffc 0c3d 6671 d33c
000000c0: ebeb 5b3d c501 953b 8914 be3c 6cd5 003d
000000d0: d02a d23c b079 aebc b103 0c3d 2171 243d
000000e0: 38bd 043d 095b f63c 6de9 6e3d 4bdd 1f3d
000000f0: bfe1 093d ffe8 6a3d c77d aa3c c7c3 bd3c
00000100: e433 143d c516 5f3d cbca a2bc 03cd 153d
00000110: d96a d13c 71d9 ff3c f3a0 c83c 34ea 02bd
00000120: 1338 91bc 7a66 b63c 27c1 cfb8 f00c 2d3c
00000130: 8831 8b3c 3d4e 693d d3de 023d ee0a c93c
00000140: 0d75 8fbc a434 1e3d 0898 94bc 7929 7ebc
00000150: 4381 5f3c af9e 9d3c 6930 9a3a 6394 b63c
00000160: d006 00bc 9235 be3c 636d c93c c459 3e3d
00000170: 0228 f23c ed6f 293d bdb1 113d 8b27 123d
00000180: 6e42 f93b 5bd4 203d 816e 39bc fe34 073c
00000190: 2f43 d93c 48ae 6e3d c97e e43c e277 88bc
000001a0: 4ab2 323d 469a 973c ddc7 dd3c c040 d13c
000001b0: 313c e63c 3838 1c3c bbbd db3c 4aca 2d3d
000001c0: c20f b73c 45d7 e73c e135 e03c dee5 c33c
000001d0: 7cad 323d 2069 b33c 0be3 083d e6b3 f53c
000001e0: d643 293d 9f3c 70bc c128 203d cb09 d3bb
000001f0: 4094 513c 68e1 0c3d bb1c 153d 65a0 c13c

sequential/dense/MatMul f4 [128, 192]
-0.07467153 -0.10770173 0.16517751 -0.06096221 -0.28579634 0.067529544 0.01803486 -0.0377662
0.09523814 -0.07226674 -0.14361171 -0.074662544 -0.10105112 -0.015850065 0.19068319 0.059561837
0.09894827 0.014538135 -0.07590972 0.16754624 -0.1175475 0.0061702644 0.1356645 0.09286919
-0.058576964 -0.028186155 0.19947511 -0.12754607 -0.009976059 0.059195057 -0.12495918 0.07102442
-0.006871248 -0.0014909302 -0.09326329 -0.15957966 0.028555488 -0.08528996 -0.0670968 -0.033727888
-0.012512715 0.08802514 0.1511649 -0.017983496 0.09682243 -0.07505287 0.25036946 0.08210098
-0.18938413 0.13813011 -0.06596854 0.087833636 0.09111567 -0.01777886 -0.029513132 0.055425234
0.0400183 0.05203908 -0.08519469 0.09488367 0.034692697 -0.068586804 0.066648915 -0.047661006
0.010725316 0.03555769 0.16309412 0.13319176 0.058592718 -0.07704724 -0.13935298 -0.21093118
0.17330857 0.101570055 0.036658723 -0.071027435 -0.049676836 -0.07122816 -0.07783707 -0.05940332
0.12552479 -0.15963724 0.025323411 0.08683777 0.058339577 0.069551714 -0.021916682 -0.08305146
-0.112236895 -0.09148717 0.016248785 -0.18665032 -0.009951754 0.08376961 -0.024849724 0.08276341
0.0028903435 -0.14741984 -0.15150622 0.059337314 0.12191215 0.07016564 0.10297041 -0.084498025
-0.17034207 -0.06790702 -0.17169784 -0.1493349 0.06504673 -0.07417865 -0.024819724 -0.034518365
-0.14888455 0.122172326 0.010768636 -0.031393852 -0.05607442 -0.044849392 -0.10696686 0.19570754
-0.12534323 0.07356566 0.18603113 -0.10369748 -0.19216289 -0.13360931 -0.16806246 0.070760846
-0.11266599 -0.09509888 0.13754852 -0.027505925 0.0774099 0.028331386 -0.0107423095 -0.16835843
0.03163907 0.020645823 -0.0008665009 0.028982813 -0.010172014 -0.10322556 -0.038772654 -0.05888365
-0.12181971 -0.021758495 -0.014700409 0.05799527 -0.060888946 0.10907189 -0.093777165 -0.19863136
-0.092885725 0.11123275 -0.0027045358 0.065818794 0.02581713 -0.0049374676 -0.130615 -0.13502386
0.05610988 -0.071010776 0.029972704 0.076280035 0.15470566 -0.1105662 -0.061299175 -0.067696646
-0.08296629 -0.036014877 -0.16318434 -0.097050875 0.12087708 -0.087377794 -0.03728074 -0.007469482
-0.08114785 -0.045149446 -0.055835385 -0.025533793 0.040168148 -0.15623285 0.11634508 0.10747313
0.1251067 -0.05170213 0.043275647 -0.032806758 -0.013167939 -0.12911744 0.08532135 -0.0031281153
0.024488294 0.06633408 -0.01652978 0.019499607 -0.17137234 0.07962511 -0.094140664 0.15584615
0.192017 0.086425595 -0.0010795096 0.048535734 -0.03555795 0.015407015 0.0454689 0.2269435
0.16198254 0.11736054 -0.002320975 0.012561021 0.0132813845 -0.038924694 -0.007652511 0.025529996
-0.2478923 0.14624146 0.19053434 0.08387203 0.07999129 0.033390578 -0.12196348 0.13909508
0.0005940231 -0.09051794 -0.05161819 -0.018596925 0.00019001926 -0.020916184 0.17157699 -0.020843027
-0.1411931 -0.13268225 0.028983243 -0.08116823 -0.013156384 -0.19707172 0.22486551 -0.02738706
-0.06156167 0.14352457 -0.044631407 -0.0067896303 0.023101268 -0.014375196 -0.04373262 0.065786265
0.14222482 0.15015474 -0.048462205 0.12252185 0.072991066 0.013496817 0.13405773 0.092634484
00000000: 63ed 98bd ba92 dcbd 4b24 293e 83b3 79bd
00000010: e653 92be ee4c 8a3d d8bd 933c bbb0 1abd
00000020: 370c c33d 9600 94bd f30e 13be ade8 98bd
00000030: e4f3 cebd ffd7 81bc 7442 433e 1df7 733d
00000040: 64a5 ca3d 5c31 6e3c 8e76 9bbd 3e91 2b3e
00000050: bebc f0bd ee2f ca3b a2eb 0a3e 3432 be3d
00000060: 66ee 6fbd a7e6 e6bc 3443 4c3e 709b 02be
00000070: a072 23bc 8476 723d 99ea ffbd 4075 913d
00000080: 3528 e1bb 516b c3ba d300 bfbd da68 23be
00000090: 33ed e93c 81ac aebd 0c6a 89bd 4126 0abd
000000a0: 2102 4dbc 8646 b43d f9ca 1a3e 2052 93bc
000000b0: d74a c63d 52b5 99bd 6d30 803e 8f24 a83d
000000c0: eaed 41be fb71 0d3e 841a 87bd 1fe2 b33d
000000d0: da9a ba3d f9a4 91bc 86c5 f1bc 9205 633d
000000e0: 3bea 233d ee26 553d 8e7a aebd 5f52 c23d
000000f0: ee19 0e3d 3d77 8cbd 3a7f 883d 3038 43bd
00000100: 3cb9 2f3c f1a4 113d 2502 273e 6c63 083e
00000110: ebfe 6f3d f2ca 9dbd 8cb2 0ebe 58fe 57be
00000120: cd77 313e f603 d03d 7527 163d d576 91bd
00000130: f079 4bbd 12e0 91bd 0b69 9fbd e550 73bd
00000140: 9289 003e f277 23be 0b73 cf3c 00d8 b13d
00000150: 7bf5 6e3d 2171 8e3d 9d8a b3bc e216 aabd
00000160: 75dc e5bd a05d bbbd 2c1c 853c 4321 3fbe
00000170: ae0c 23bc 678f ab3d a691 cbbc dd7f a93d
00000180: eb6b 3d3b 3af5 16be 7224 1bbe af0b 733d
00000190: 14ad f93d 01b3 8f3d 26e2 d23d 4d0d adbd
000001a0: 276e 2ebe d612 8bbd 8fd1 2fbe 3feb 18be
000001b0: 3837 853d faea 97bd bc52 cbbc 2163 0dbd
000001c0: 3175 18be 7c35 fa3d ef6e 303c d796 00bd
000001d0: 4bae 65bd ffb3 37bd 7111 dbbd 8f67 483e
000001e0: fa59 00be 98a9 963d f27e 3e3e 585f d4bd
000001f0: 59c6 44be e1d0 08be 9118 2cbe 10eb 903d
00000200: 6dbd e6bd 34c3 c2bd 85d9 0c3e 1b54 e1bc
00000210: 1589 9e3d 3917 e83c 8300 30bc 2766 2cbe
00000220: f897 013d 6e21 a93c e425 63ba 5d6d ed3c
00000230: 85a8 26bc ec67 d3bd 13d0 1ebd fb2f 71bd
00000240: 9d7c f9bd df3e b2bc fcd9 70bc 738c 6d3d
00000250: b066 79bd 1561 df3d 3e0e c0bd 0566 4bbe
00000260: df3a bebd ffcd e33d 953e 31bb 01cc 863d
00000270: 727e d33c 7bca a1bb f0bf 05be b243 0abe
00000280: 79d3 653d 196e 91bd 5189 f53c b538 9c3d
00000290: 296b 1e3e 8870 e2bd d814 7bbd 8aa4 8abd
000002a0: 3bea a9bd 5684 13bd cc19 27be 9cc2 c6bd
000002b0: 678e f73d 21f3 b2bd b0b3 18bd 8ec2 f4bb
000002c0: d830 a6bd a0ee 38bd a5b3 64bd 3f2c d1bc
000002d0: 5b87 243d 81fb 1fbe 5446 ee3d df1a dc3d
000002e0: f91b 003e 9dc5 53bd ce41 313d 6160 06bd
000002f0: 57be 57bc 5d37 04be f6bc ae3d 1101 4dbb
00000300: ad9b c83c 2ada 873d 7669 87bc a4bd 9f3c
00000310: 3b7c 2fbe 7d12 a33d d2cc c0bd 2296 1f3e
00000320: 1ba0 443e e7ff b03d 557e 8dba 68cd 463d
00000330: 37a5 11bd b46d 7c3c 993d 3a3d e063 683e
00000340: c0de 253e b95a f03d 801b 18bb becc 4d3c
00000350: 2a9a 593c 806f 1fbd eac1 fabb 4824 d13c
00000360: 7bd7 7dbe 52c0 153e 6f1b 433e 19c5 ab3d
00000370: 79d2 a33d 8fc4 083d fdc7 f9bd f16e 0e3e
00000380: 37b8 1b3a 7861 b9bd 986d 53bd 9458 98bc
00000390: e83f 4739 6b58 abbc e1b1 2f3e ffbe aabc
000003a0: ed94 10be dbdd 07be 446e ed3c 873b a6bd
000003b0: e08d 57bc 2bcd 49be 2543 663e d45a e0bc
000003c0: 1728 7cbd 1bf8 123e 6ccf 36bd 8c7b debb
000003d0: df3e bd3c f185 6bbc fa20 33bd f3ba 863d
000003e0: 62a3 113e 2ac2 193e 4e80 46bd bcec fa3d
000003f0: 577c 953d c121 5d3c 6e46 093e 26b7 bd3d

sequential/dense_1/MatMul f4 [128, 128]
0.22323811 0.12781893 -0.11298069 0.009175627 0.1062907 0.073966876 -0.062005237 0.017538654
-0.056285296 0.0766531 0.14720647 0.11148448 -0.16166185 0.14878595 -0.04346059 -0.104737
0.03341755 0.066423826 0.09534244 -0.06266594 0.105987325 0.13618952 -0.117341645 0.08868285
0.28153336 0.051314272 0.1590064 0.12689015 0.23647738 0.011427995 0.023596752 0.15904169
-0.07798005 -0.15803196 -0.066965915 0.13704857 0.14176685 0.1678644 0.22045815 0.097764924
-0.03819943 0.17306139 0.11111997 0.035774134 -0.0028068533 0.058644954 -0.0967893 -0.005456156
-0.12015801 -0.18356402 0.08962293 0.050048683 -0.0996905 0.17850323 -0.043466587 0.2880633
0.10512135 0.16055442 0.15171234 0.05219029 0.20690769 -0.07327097 0.18325326 0.07651294
0.118364096 -0.04796482 0.07501297 0.15132214 0.036605816 0.15785411 0.082531646 0.08534901
0.08606153 0.040256277 -0.22328022 -2.7942104e-05 0.13778228 0.10486104 -0.045019962 0.06296737
0.27884784 -0.0370948 0.053895473 -0.18637101 0.21828327 0.19939807 0.21489553 0.21126479
0.086892344 0.035984203 0.12752461 -0.0164703 -0.015373738 0.09522941 -0.06802073 -0.016771825
0.12055205 0.1412171 0.15169728 -0.071396165 0.043956526 0.19932227 0.13978265 0.119067825
-0.025919791 0.02818444 -0.069643065 -0.105327 0.10579325 -0.03825736 -0.1176784 -0.08783849
-0.014418005 -0.093778364 0.117526844 0.18461196 0.18968399 0.030796941 0.02419862 0.12783313
0.23087461 0.16431524 0.15466142 0.08837994 -0.2290472 0.19030905 -0.00756525 0.011402005
0.0068253237 0.12836345 -0.0595223 0.11007919 0.08798283 0.15623319 -0.14304978 0.14903334
0.15920527 0.20415121 0.04742725 -0.026253968 -0.14359623 0.12958288 0.14650558 0.1788511
-0.029838525 0.19373262 -0.15038191 -0.19812544 0.1393445 0.10599481 0.07245952 -0.19921072
0.069875844 -0.095842436 0.06440454 0.103785284 0.06328736 -0.035366725 0.096950434 0.1584688
0.026827447 -0.038744155 0.017401537 0.11012052 0.0101079615 0.15712981 0.072302185 0.12878205
-0.040018965 -0.17603754 -0.0424489 0.039146177 -0.060423836 0.072690316 0.10880018 0.02210631
-0.2109755 0.16683897 0.03344123 0.05625175 0.016461687 -0.00074380904 0.06466836 0.09539711
-0.09135895 -0.012755333 -0.0068149413 -0.074798994 0.026987014 -0.14712456 -0.07090386 0.014547401
0.19768372 0.18185946 0.13022725 -0.046524078 0.09764662 0.023506561 0.005949751 -0.008002714
-0.010544958 0.19334273 0.07947842 -0.028042903 -0.07306689 0.0033920256 -0.0064317263 -0.14933355
-0.06425859 0.14839451 -0.16886678 -0.12949504 0.17694655 0.031054445 -0.09521624 -0.019440887
0.19188905 0.048113197 0.07483212 0.13734545 0.04723884 0.10849667 0.05141284 0.054769885
-0.14070654 0.07990971 -0.14178413 0.081339434 -0.05235621 -0.07314395 0.12449831 -0.059301335
0.12286759 -0.10686829 -0.15034065 -0.12791921 0.168861 -0.091386825 -0.16340186 0.07809737
0.067697115 0.0778572 -0.16998577 0.08685781 -0.08543666 0.12446617 -0.18457107 0.16544123
0.005310786 0.18323433 0.1212177 0.16205943 0.010462633 -0.12378028 0.039400585 -0.22835335
00000000: 8898 643e f7e2 023e 6c62 e7bd 5e55 163c
00000010: f0ae d93d f27b 973d 34f9 7dbd 39ad 8f3c
00000020: 698b 66bd 4dfc 9c3d 4bbd 163e fa51 e43d
00000030: af8a 25be 585b 183e bb03 32bd 5a80 d6bd
00000040: d7e0 083d 3709 883d e642 c33d 0057 80bd
00000050: e20f d93d 4475 0b3e d150 f0bd 5b9f b53d
00000060: 2425 903e ea2e 523d 93d2 223e 7eef 013e
00000070: 2027 723e 7c3c 3b3c fa4d c13c d3db 223e
00000080: 01b4 9fbd 21d3 21be 6d25 89bd 7656 0c3e
00000090: 542b 113e a5e4 2b3e c8bf 613e fa38 c83d
000000a0: 0177 1cbd 0137 313e de92 e33d e687 123d
000000b0: 2ff3 37bb b135 703d 7839 c6bd 8ec9 b2bb
000000c0: 6715 f6bd 35f8 3bbe 3a8c b73d d9ff 4c3d
000000d0: 882a ccbd 8dc9 363e 050a 32bd 087d 933e
000000e0: dd49 d73d 6168 243e 7b5a 1b3e 7cc5 553d
000000f0: 9cdf 533e 170f 96bd bea6 3b3e d1b2 9c3d
00000100: e068 f23d c276 44bd 66a0 993d 31f4 1a3e
00000110: fbef 153d 82a4 213e 5a06 a93d 76cb ae3d
00000120: 0741 b03d c4e3 243d 92a3 64be 3665 eab7
00000130: cc16 0d3e 63c1 d63d da66 38bd 09f5 803d
00000140: 25c5 8e3e b8f0 17bd 80c1 5c3d 0bd8 3ebe
00000150: a685 5f3e 022f 4c3e 930d 5c3e cc55 583e
00000160: 9df4 b13d 2c64 133d d095 023e b9ec 86bc
00000170: 21e2 7bbc a307 c33d 744e 8bbd 1165 89bc
00000180: fee3 f63d 379b 103e 8856 1b3e 2738 92bd
00000190: c20b 343d 231b 4c3e 2f23 0f3e d5d9 f33d
000001a0: be55 d4bc 0ee3 e63c 06a1 8ebd afb5 d7bd
000001b0: 22aa d83d c0b3 1cbd 5f01 f1bd abe4 b3bd
000001c0: 7f39 6cbc df0e c0bd eab1 f03d eb0a 3d3e
000001d0: 853c 423e de49 fc3c 2f3c c63c b0e6 023e
000001e0: 656a 6c3e 4142 283e 905f 1e3e 8b00 b53d
000001f0: 598b 6abe 60e0 423e ebe5 f7bb 7acf 3a3c
00000200: f7a6 df3b b571 033e a8cd 73bd 3371 e13d
00000210: 5830 b43d 98fb 1f3e a47b 12be 329c 183e
00000220: b506 233e 040d 513e 1343 423d 9012 d7bc
00000230: e40a 13be 60b1 043e 8f05 163e be24 373e
00000240: ec6f f4bc d861 463e b7fd 19be 65e1 4abe
00000250: 53b0 0e3e cf13 d93d a865 943d e5fd 4bbe
00000260: 111b 8f3d 0a49 c4bd 87e6 833d 618d d43d
00000270: ce9c 813d b3dc 10bd f38d c63d a545 223e
00000280: 3cc5 db3c 31b2 1ebd ab8d 8e3c de86 e13d
00000290: dd9b 253c a3e6 203e 2b13 943d 71df 033e
000002a0: edea 23bd 2f43 34be e6de 2dbd be57 203d
000002b0: fc7e 77bd a9de 943d a1d2 de3d 4b18 b53c
000002c0: f609 58be d6d7 2a3e acf9 083d 3c68 663d
000002d0: a9da 863c 2efc 42ba d870 843d 8f5f c33d
000002e0: 671a bbbd bffb 50bc df4f dfbb 3730 99bd
000002f0: df13 dd3c d2a7 16be 0b36 91bd 3958 6e3c
00000300: 9a6d 4a3e 5e39 3a3e 4b5a 053e 0890 3ebd
00000310: f3fa c73d d590 c03c 21f6 c23b d11d 03bc
00000320: c2c4 2cbc a3fb 453e 95c5 a23d 3bba e5bc
00000330: 18a4 95bd bf4c 5e3b 3bc1 d2bb e5ea 18be
00000340: 029a 83bd bbf4 173e 6aeb 2cbe 599a 04be
00000350: 7a31 353e e465 fe3c bb00 c3bd 7f42 9fbc
00000360: 907e 443e 5812 453d 9541 993d 49a4 0c3e
00000370: 847d 413d 8133 de3d 4596 523d 6356 603d
00000380: 6015 10be b4a7 a33d dc2f 11be 4a95 a63d
00000390: 7773 56bd 7fcc 95bd f8f8 fe3d f5e5 72bd
000003a0: 01a2 fb3d c3dd dabd e6f2 19be 41fd 02be
000003b0: e6e9 2c3e 0429 bbbd d152 27be 84f1 9f3d
000003c0: c9a4 8a3d 9873 9f3d c010 2ebe 82e2 b13d
000003d0: 6af9 aebd 1fe8 fe3d 3300 3dbe 6d69 293e
000003e0: 1a06 ae3b c8a1 3b3e fc40 f83d e8f2 253e
000003f0: 776b 2b3c 8480 fdbd 8262 213d 76d5 69be

sequential/dense_2/MatMul f4 [6, 128]
0.08236154 0.26029053 0.22091967 -0.31872022 -0.11808262 0.12666656 -0.049945354 -0.14346707
-0.25688887 0.23448041 0.028159266 -0.33042684 -0.20708601 -0.21500678 0.15991262 -0.32029065
0.21384044 0.22546718 0.16963519 0.26291668 -0.20122445 0.095404446 0.06707842 -0.24688034
0.036380094 -0.14795227 -0.14336012 0.06046863 0.055621922 -0.0023947777 -0.021972122 -0.13962393
-0.0753924 -0.20094149 0.22052906 0.085375436 -0.16668727 -0.25615978 -0.2664989 0.100505956
0.15006763 -0.063508056 0.23422053 0.16479467 0.13385299 -0.24396126 -0.08585958 -0.34335175
-0.26109913 -0.2726577 0.114217 0.24978256 0.25886345 -0.13515702 0.085560106 -0.19325796
-0.19386643 -0.22834635 -0.3297659 0.12367535 -0.10770747 0.14904495 0.07303954 0.06633112
0.17947163 0.07609495 -0.18603915 -0.29613337 0.19856896 0.23195095 0.17134014 -0.03115188
-0.1628185 -0.21720041 0.1495242 0.11567977 -0.08659753 -0.09246699 -0.23119982 -0.3162442
-0.119862765 -0.2591656 -0.19469978 -0.16660109 -0.35257715 0.067525774 -0.08034713 0.1567262
-0.12443936 0.16478428 0.08974528 0.04308435 0.0008509283 -0.2476305 -0.07390304 -0.20248306
-0.40515983 -0.26275083 -0.13645446 -0.12920175 0.20101714 -0.106063 0.27427927 -0.12070014
-0.37143272 -0.36532137 0.20081457 0.22558782 -0.2337564 -0.2010771 0.19092475 -0.26092502
-0.1673458 0.2307603 -0.25822735 0.23600616 -0.1664439 -0.27212086 -0.2459163 0.13790193
-0.34173208 -0.12459699 -0.03289183 0.031255726 -0.20627467 0.18818791 0.18317789 0.22974722
0.14120947 -0.29498005 -0.14923501 -0.11425738 -0.17480057 0.2759907 0.13709356 -0.053347226
-0.24168064 -0.1942657 0.0995563 0.23901458 -0.32894695 -0.27064887 -0.1704648 0.18001856
0.21621946 0.18030027 -0.123547494 0.22266412 0.108076185 0.08832825 -0.19116434 -0.20528477
0.19396837 0.04151752 -0.32129034 -0.33109024 -0.31358603 0.17794876 0.14002351 -0.30831257
-0.1299198 0.22581446 -0.05945102 -0.039437067 -0.03284448 -0.005780848 0.21179116 -0.27203348
-0.24210776 -0.3563163 0.07681485 -0.13897318 0.15234426 0.17332663 -0.37554523 0.052658085
0.1030834 0.23753776 0.017220918 -0.14380866 -0.20312728 -0.006794474 -0.15428701 -0.17323674
0.30702388 0.26428455 -0.040203888 -0.3178792 0.19840258 -0.094033875 -0.16615008 0.11834688
-0.12258903 -0.15640898 -0.14169937 0.089355476 -0.09155599 0.08710926 0.22636013 -0.0645515
-0.05256622 0.23274353 -0.14554745 0.12298419 -0.27355585 0.0036880858 -0.15523519 -0.33120933
-0.0694952 -0.11123159 -0.14440203 -0.11181425 -0.24573512 0.0858382 -0.18099445 0.22395559
-0.27280605 0.23864685 0.09547915 0.20859362 0.31427452 -0.13142549 -0.2512698 0.022076651
-0.12704703 0.144267 -0.13031247 -0.26483524 0.16802756 -0.33025712 0.19257319 -0.12852871
-0.06261766 -0.32251498 -0.22393852 -0.21164793 -0.10011457 -0.2034552 0.19933091 0.2333459
0.249615 0.1230995 0.255847 -0.072502606 0.069612175 -0.27182224 0.117261514 0.18818285
0.032125708 -0.17452104 -0.2965469 -0.13210897 0.04187762 -0.07063552 0.015324199 -0.24660477
00000000: 2bad a83d cd44 853e c438 623e 4c2f a3be
00000010: 4dd5 f1bd e1b4 013e 8093 4cbd 08e9 12be
00000020: f086 83be a21b 703e 43ae e63c b52d a9be
00000030: 5b0e 54be bd2a 5cbe 22c0 233e 23fd a3be
00000040: fdf8 5a3e dee0 663e d9b4 2d3e 049d 863e
00000050: c80d 4ebe 6863 c33d 6960 893d 33ce 7cbe
00000060: 4b03 153d cd80 17be ffcc 12be f4ad 773d
00000070: d0d3 633d b4f1 1cbb e1fe b3bc 93f9 0ebe
00000080: 5567 9abd 9bc3 4dbe 5fd2 613e 51d9 ae3d
00000090: 11b0 2abe 6027 83be 8b72 88be 11d6 cd3d
000000a0: 54ab 193e 8310 82bd 82d7 6f3e efbf 283e
000000b0: c210 093e fbd0 79be 26d7 afbd cdcb afbe
000000c0: c9ae 85be ca99 8bbe 9aea e93d 00c7 7f3e
000000d0: c089 843e 9a66 0abe 233a af3d 6ae5 45be
000000e0: ec84 46be a0d3 69be 13d7 a8be 8049 fd3d
000000f0: bc95 dcbd 3d9f 183e c195 953d 9cd8 873d
00000100: 69c7 373e abd7 9b3d 0c81 3ebe cb9e 97be
00000110: a955 4b3e 8d84 6d3e ca73 2f3e 3a32 ffbc
00000120: e5b9 26be c969 5ebe df1c 193e 84e9 ec3d
00000130: 0c5a b1bd 555f bdbd a5bf 6cbe c3ea a1be
00000140: 9c7a f5bd 5bb1 84be 615f 47be 7a99 2abe
00000150: fe84 b4be f44a 8a3d 098d a4bd d57c 203e
00000160: 10da febd 36bd 283e 60cc b73d 3779 303d
00000170: d510 5f3a da92 7dbe 7a5a 97bd b857 4fbe
00000180: 1c71 cfbe 4787 86be b8ba 0bbe 774d 04be
00000190: 70d7 4d3e 8f37 d9bd 556e 8c3e a331 f7bd
000001a0: 6e2c bebe 670b bbbe 56a2 4d3e 7e00 673e
000001b0: d65d 6fbe 28e7 4dbe c781 433e f797 85be
000001c0: b35c 2bbe 6e4c 6c3e 6036 84be 99ab 713e
000001d0: 4570 2abe 6d53 8bbe 7cd1 7bbe 2a36 0d3e
000001e0: 82f7 aebe b52c ffbd 95b9 06bd 0106 003d
000001f0: ab39 53be 55b4 403e fc92 3b3e db42 6b3e
00000200: 3799 103e a007 97be 10d1 18be c6ff e9bd
00000210: ecfe 32be a74e 8d3e 4162 0c3e 9f82 5abd
00000220: 217b 77be 96ed 46be 2ce4 cb3d 3dc0 743e
00000230: bc6b a8be 7d92 8abe 538e 2ebe c956 383e
00000240: a268 5d3e a2a0 383e 7806 fdbd 1002 643e
00000250: 0c57 dd3d 71e5 b43d 96c0 43be 2c36 52be
00000260: a59f 463e 460e 2a3d 2b80 a4be a984 a9be
00000270: 598e a0be 3338 363e 5362 0f3e 25db 9dbe
00000280: b209 05be e83b 673e ea82 73bd c388 21bd
00000290: ef87 06bd 456d bdbb c8df 583e f947 8bbe
000002a0: 19eb 77be 176f b6be 1b51 9d3d fc4e 0ebe
000002b0: 2200 1c3e 897c 313e 7747 c0be 01b0 573d
000002c0: 641d d33d 193d 733e e212 8d3c 9442 13be
000002d0: 9900 50be 2ea4 debb 6afd 1dbe f964 31be
000002e0: 3c32 9d3e 4e50 873e d5ac 24bd 10c1 a2be
000002f0: 0c2a 4b3e d594 c0bd 3f23 2abe d95f f23d
00000300: f50f fbbd ad29 20be a419 11be 0100 b73d
00000310: b581 bbbd 5766 b23d f3ca 673e 9433 84bd
00000320: ad4f 57bd 5254 6e3e 640a 15be 23df fb3d
00000330: 830f 8cbe d0b3 713b f9f5 1ebe 4594 a9be
00000340: 8053 8ebd 63cd e3bd 20de 13be dffe e4bd
00000350: fda1 7bbe f0cb af3d 9c56 39be 9d54 653e
00000360: 3cad 8bbe d75f 743e 938a c33d 9199 553e
00000370: 97e8 a03e 6794 06be 6fa6 80be 18da b43c
00000380: 9e18 02be baba 133e a270 05be 7c98 87be
00000390: 6b0f 2c3e 7617 a9be e831 453e 089d 03be
000003a0: b03d 80bd af20 a5be 2450 65be 3cba 58be
000003b0: de08 cdbd 8f56 50be 671d 4c3e 3af2 6e3e
000003c0: 139b 7f3e 971b fc3d 61fe 823e 3f7c 94bd
000003d0: d490 8e3d 492c 8bbe ce26 f03d 01b3 403e
000003e0: 3f96 033d a5b5 32be ffd4 97be 9347 07be
000003f0: de87 2b3d 5ba9 90bd 5912 7b3c f685 7cbe
