assets/modelo_intents.tflite (tflite, 758096 bytes, 7 tensors)

sequential/embedding/embedding_lookup f4 [500, 64]
0	0x3cec01a8	0.028809384
1	0x3aa49ce8	0.0012558969
2	0x3c99847a	0.018739928
3	0xbd605dfa	-0.054777123
4	0x3d27dbe1	0.040981177
5	0x3ab1c846	0.0013563714
6	0x3c88d932	0.01670513
7	0xbd87df29	-0.06634361
8	0x3d184b54	0.037181213
9	0xbcd69b3d	-0.02619707
10	0xbab9e5d8	-0.0014182879
11	0xbcd95ba2	-0.026532952
12	0xbcf2d953	-0.029644644
13	0xbc2d0e23	-0.0105624525
14	0xbd5fe684	-0.054663196
15	0xbd9dd8e9	-0.07707388
16	0x3d11ca55	0.03559335
17	0x3b5aee35	0.0033406143
18	0xbd071c99	-0.032986257
19	0xbd578077	-0.052612748
20	0x3d2fd64c	0.04292898
21	0x3d422a15	0.047403414
22	0x3d352e37	0.044233527
23	0x3cad23e5	0.02113528
24	0xbd2f92f5	-0.04286476
25	0xbca89274	-0.020577647
26	0x3d17e4ef	0.037083562
27	0x3ccbacc5	0.024862656
28	0xbd9c8fa3	-0.07644584
29	0xbcc564e0	-0.024095953
30	0x3d898d9e	0.067164645
31	0x3cb627f7	0.022235854
32	0xbd2f38b5	-0.04277869
33	0x3d60a6ce	0.054846577
34	0x3ca3ef23	0.02001149
35	0xbd822dae	-0.06356369
36	0x3da5fe26	0.081051156
37	0x3c73eaf7	0.014887563
38	0xbc2aac05	-0.010416989
39	0x3b890800	0.004181862
40	0xbd79e138	-0.0610058
41	0x3c37dcd8	0.011222087
42	0x3d859715	0.06522957
43	0xbd88af4e	-0.06674062
44	0xbcff1fcf	-0.031143097
45	0xba8d953e	-0.0010801924
46	0xbcaa193c	-0.020763986
47	0xbc817baf	-0.015806047
48	0xbd47f0c4	-0.048813596
49	0x3c874369	0.016511636
50	0x3d3afe15	0.045652468
51	0xbd3174b0	-0.043324172
52	0xbd495ef7	-0.04916283
53	0x3d152475	0.03641172
54	0x3d1cb201	0.038255695
55	0xbc8d640a	-0.017259616
56	0xbc49b3e1	-0.012310953
57	0xbcffd567	-0.031229688
58	0x3b6418f3	0.003480491
59	0xbcb03f71	-0.021514626
60	0xbd97ee78	-0.07418531
61	0xbdc69fed	-0.09698472
62	0x3ceb960f	0.028758077
63	0xbd1a505a	-0.037674285
64	0xbd1ae7cd	-0.03781872
65	0xbd3a6dfd	-0.04551505
66	0x3c8c2e22	0.017111842
67	0x3cd04e86	0.025428068
68	0x3d1cb4d3	0.038258385
69	0xbccf1fcd	-0.025283718
70	0xbd068806	-0.032844566
71	0x3bada3e8	0.00529908
72	0x3d0db0e7	0.034592535
73	0xb93ef300	-0.00018210337
74	0x3c86758e	0.016413476
75	0xbc9954f4	-0.018717267
76	0x3ca05c1a	0.019575167
77	0x3d4b6bad	0.049663235
78	0xbd3295d7	-0.04359993
79	0x3d0c2349	0.034213338
80	0x3cfc2852	0.030780945
81	0xbd003714	-0.031302527
82	0x3aeb0260	0.0017929785
83	0xbc9ff847	-0.019527568
84	0x3d449b79	0.047999833
85	0x3d002741	0.031287435
86	0xbc923cba	-0.017851222
87	0x3ca05e46	0.019576203
88	0xbcb9d36d	-0.022683823
89	0xbbbd0630	-0.00576856
90	0xbbe47b68	-0.006972719
91	0xbd01ee1d	-0.031721223
92	0xbb9edd00	-0.0048481226
93	0x3bcae0b0	0.0061913356
94	0x3cb1a8c6	0.021686923
95	0x3ccf1066	0.025276374
96	0x3b77fc30	0.0037839524
97	0x3cd131c6	0.02553643
98	0xbaf73c00	-0.0018862486
99	0xbc958ad4	-0.018254675
100	0xbd227546	-0.039662622
101	0xbc2cf400	-0.010556221
102	0x3d095ae3	0.033533942
103	0x3d2883ed	0.04114144
104	0xbc4813a8	-0.012211718
105	0x3d2b3a17	0.041803446
106	0xbcebc02d	-0.02877816
107	0x3d375557	0.04475912
108	0x3c827cf2	0.01592872
109	0xbcc8de87	-0.024520172
110	0xbc470a98	-0.012148522
111	0x3d2fa10d	0.0428782
112	0x3b371ad0	0.0027939565
113	0xbd1a0836	-0.037605487
114	0x3d40807d	0.046997536
115	0x3d143a09	0.03618816
116	0x3aae4fa0	0.0013298877
117	0x3d35d6ad	0.044394184
118	0xbc9255d4	-0.017863192
119	0xbd392d97	-0.045209493
120	0xbc9d175a	-0.019176174
121	0x3cc3b8c2	0.02389181
122	0x3cb6218e	0.022232797
123	0xbcd743d3	-0.026277458
124	0xbcfa4b5a	-0.030553509
125	0x3cab43a6	0.02090628
126	0xbcae5547	-0.021280898
127	0x3c4abc28	0.0123739615
128	0xbcb6e985	-0.022328148
129	0xbda1c928	-0.07899696
130	0xbd02e1e6	-0.031953715
131	0xbb9d55ba	-0.004801479
132	0xbdb2d8ac	-0.08732733
133	0x3d17d622	0.037069447
134	0xbdbfe384	-0.09369567
135	0x3b7557ae	0.0037436294
136	0x3d608548	0.054814607
137	0x3b913a8b	0.0044320277
138	0xbd70b390	-0.058764994
139	0xbd95e3ab	-0.07318815
140	0xbde1cbee	-0.110252246
141	0x3cfec720	0.03110081
142	0xbd73bd1e	-0.059506528
143	0x3dc366d3	0.095410965
144	0xbd27e754	-0.040992096
145	0x3c545383	0.012959364
146	0x3da45441	0.08023883
147	0x3d38c1a4	0.045106545
148	0xbcde5813	-0.027141606
149	0x3d9ecd70	0.07754028
150	0x3db0718d	0.08615408
151	0x3ab7b000	0.0014014244
152	0x3d871dfd	0.06597517
153	0xbdac1264	-0.08401945
154	0x3d96d264	0.073643476
155	0x3c65f7df	0.014036148
156	0x3ca4c2f7	0.020112498
157	0x3dec3e0a	0.115352705
158	0x3c3a14ef	0.01135753
159	0x3d1e9cc4	0.038723722
160	0xbda55bcb	-0.08074149
161	0x3db8bd79	0.09020514
162	0x3d6a6766	0.057227515
163	0x3dc3bcd7	0.09557503
164	0x3d18fbed	0.03734963
165	0xbd6c1d77	-0.057645287
166	0xbca58fa7	-0.0202101
167	0x3d80e94f	0.062945
168	0x3d2b1210	0.041765273
169	0x3ccde765	0.025134752
170	0xbd6b1054	-0.05738862
171	0xbdad8ae7	-0.08473759
172	0x3cc68840	0.024234891
173	0x3c8340aa	0.016022045
174	0xbd8d7a98	-0.069081485
175	0xbc642420	-0.0139246285
176	0x3d4f213d	0.050568808
177	0xbd91ab41	-0.07112742
178	0x3ca0c55e	0.019625362
179	0xbdaa4df5	-0.083156504
180	0x3d83f03f	0.06442308
181	0x3d539e8e	0.05166488
182	0xbd810221	-0.06299234
183	0x3d1fb3e0	0.0389899
184	0x3d7d9107	0.061905887
185	0x3d64bbc3	0.055843126
186	0x3db7c032	0.08972205
187	0xbda1d19b	-0.07901307
188	0xbdcb91b6	-0.099399015
189	0x3c8e41df	0.017365394
190	0xbd70351a	-0.05864439
191	0xbdbcfb52	-0.09227623
192	0x3d4d9ed2	0.05020029
193	0xbdd4c8e1	-0.10389877
194	0xbd3cdaa6	-0.046106957
195	0x3d9f25cf	0.07770883
196	0x3d8085fe	0.06275557
197	0xb910522b	-0.0001376352
198	0x3d7fb1e2	0.0624255
199	0x3af60925	0.0018771036
200	0x3db79514	0.08963981
201	0xbdea25c8	-0.114329875
202	0x3d36dc91	0.044643942
203	0x3c326eb5	0.010890652
204	0xbe19ddbd	-0.15025993
205	0x3d52dd10	0.051480353
206	0x3c33a9cb	0.010965775
207	0xbce7257d	-0.028216118
208	0x3d6b58fb	0.057457905
209	0x3da7be73	0.08190622
210	0x3c5ac1f0	0.013351902
211	0x3de6c069	0.11267168
212	0xbe04208d	-0.12903042
213	0xbc18f1b8	-0.009334974
214	0xbddabcbe	-0.10680531
215	0x3df7d217	0.12100618
216	0xbd89c2ea	-0.0672663
217	0xbded5c12	-0.11589827
218	0xbe00b346	-0.12568387
219	0xbcac9f6f	-0.021072118
220	0xbaae815f	-0.0013313702
221	0x3de02e06	0.10946278
222	0xbe0dc9b9	-0.13846482
223	0xbe061a09	-0.13095869
224	0x3e0a1502	0.13484576
225	0xbda987eb	-0.082778774
226	0x3dcb0cfb	0.09914585
227	0x3d0e311f	0.034714814
228	0x3c9d3107	0.019188417
229	0x3d17ee74	0.03709264
230	0x3cb43764	0.021999069
231	0x3dd989cb	0.10621985
232	0x3beec7dc	0.0072870087
233	0x3d5936c8	0.05303076
234	0xbc7dc858	-0.01548966
235	0xbda8b694	-0.08237949
236	0x3dba0ec0	0.090848446
237	0x3e0012f7	0.12507235
238	0xbcee7630	-0.02910909
239	0xbd658805	-0.05603792
240	0x3d333e7e	0.04376077
241	0xbe0bbdd0	-0.13646626
242	0x3c7aaf78	0.015300624
243	0x3e121cd8	0.14268816
244	0xbcd9308b	-0.026512405
245	0x3d815d33	0.063166045
246	0xbdadaad0	-0.084798455
247	0xbb4f21b7	-0.003160579
248	0x3e22634f	0.15858196
249	0x3db5d4e0	0.08878493
250	0xbda25df9	-0.0792808
251	0x3d184835	0.037178237
252	0xbd775b59	-0.06038985
253	0x3d9a5fbf	0.07537793
254	0xbdde905e	-0.108673796
255	0x3def94f1	0.1169833

sequential/dense/BiasAdd/ReadVariableOp f4 [128]
0	0x3c1a14de	0.009404389
1	0x3c5d7c56	0.0135184135
2	0x3cb85ef6	0.022506218
3	0x3ce45c87	0.027876152
4	0x386e616a	5.6834346e-05
5	0x3cd84965	0.026402185
6	0x3ca571bf	0.02019584
7	0x3ca0f61e	0.019648608
8	0xbc2f9c5d	-0.010718432
9	0x3cb1f5b0	0.021723598
10	0x3c867724	0.016414233
11	0x3ccc240f	0.024919538
12	0x3c973f56	0.018462818
13	0x3ce72009	0.028213518
14	0xbc486a5c	-0.012232389
15	0x3c76276b	0.015024046
16	0x3c9dd80b	0.019268056
17	0x3c3b4bd1	0.01143165
18	0x3c57b811	0.013166443
19	0xbc1a9cf1	-0.009436832
20	0x3c9b3fc1	0.018951299
21	0xbb01c20f	-0.0019799506
22	0xbc4c7c7a	-0.012480849
23	0x3cb8ac5c	0.022543125
24	0x3c40a91e	0.011759071
25	0x3bc27c60	0.005935237
26	0x3d0dfb69	0.03466359
27	0x3cc74d87	0.02432896
28	0x3c865785	0.016399154
29	0x3c43e883	0.011957291
30	0x3c8aa4f5	0.01692436
31	0xbb11fe0d	-0.002227667
32	0x3c988d41	0.018622043
33	0x3cc40697	0.023928924
34	0x3cba73e0	0.022760332
35	0x3c328c83	0.010897758
36	0xbc33b5b7	-0.010968617
37	0x3cfe0d33	0.031012153
38	0x3cd66d1f	0.02617508
39	0x3cd93a51	0.026517065
40	0x3c5a6976	0.013330808
41	0x3c9926f7	0.018695338
42	0x3cce8853	0.025211489
43	0x3c7c28d4	0.015390594
44	0x3ca458f7	0.020061953
45	0x3d199e12	0.037504263
46	0x3c6e0218	0.014526866
47	0x3bb4faf1	0.0055230786
48	0x3c58fb71	0.013243542
49	0xbb9e92c3	-0.0048392727
50	0x3c9e3d1e	0.019316252
51	0x3c21ecea	0.009883145
52	0x3ce64fc3	0.028114205
53	0x3c6812fd	0.014164683
54	0x3ce41fb3	0.027847147
55	0x3d037808	0.032096893
56	0xbc58e6c9	-0.013238617
57	0xbc08600a	-0.008323679
58	0x3c854386	0.01626755
59	0x3d0e78be	0.034783117
60	0x3c0f24eb	0.008736829
61	0x3cd93f4b	0.026519438
62	0x3bc2799d	0.0059349076
63	0x3cb8abeb	0.022542914
64	0x3cdfffcc	0.027343653
65	0x3c883f47	0.016631735
66	0x3cafd849	0.021465437
67	0x3d009ed6	0.031401478
68	0x3c93a2e7	0.018022014
69	0xbbe42e40	-0.0069635212
70	0x3c497531	0.012296007
71	0x3cb2594c	0.021771096
72	0xbc69edb4	-0.014277864
73	0xbc2251af	-0.00990717
74	0x3d07cd9b	0.033155065
75	0x3c769f2a	0.015052596
76	0x3c822432	0.0158864
77	0xbc8285cd	-0.015932942
78	0xbc09d08b	-0.008411537
79	0x3caf81f1	0.021424266
80	0x3d1b255c	0.037877426
81	0x3cabdefa	0.020980347
82	0x3ced1b28	0.028943613
83	0x3d189454	0.03725083
84	0x3ceca377	0.02888654
85	0x3c7a16fe	0.015264271
86	0x3c9ec05a	0.01937883
87	0xbbf8add4	-0.0075890813
88	0xbc4df4c5	-0.012570565
89	0x3ca99256	0.020699661
90	0x3b8d9296	0.004320453
91	0x3cbb6497	0.022875113
92	0x3b9c3263	0.0047667488
93	0x3bf087ff	0.0073404307
94	0x3c708de4	0.014682267
95	0x3d01b6ac	0.03166835
96	0x3c38467a	0.011247272
97	0x3cbb3ce6	0.022856187
98	0x3c59cf4c	0.013294052
99	0xbc16a3ef	-0.009194358
100	0x3c576992	0.0131477285
101	0x3ca2196e	0.019787516
102	0x3cbdf892	0.023189817
103	0x3baadaad	0.0052140565
104	0xbc0e6ad0	-0.008692458
105	0x3c817b39	0.015805827
106	0x3cda4525	0.026644299
107	0x3d011926	0.031518124
108	0x3cad94fa	0.021189202
109	0x3d040b29	0.032237206
110	0x3ca30546	0.019899976
111	0x3c609fd9	0.013709986
112	0xbc2d6a1a	-0.010584379
113	0x3c90b1ca	0.017662901
114	0x3bf39276	0.007433231
115	0x3ce32815	0.027729074
116	0x3cbb8646	0.022891175
117	0x3c50f783	0.012754324
118	0xbc14373e	-0.009046374
119	0x3c67ec88	0.014155515
120	0xbbf329c0	-0.0074207485
121	0xbc47c1dc	-0.012192216
122	0x3ccd3589	0.025049942
123	0x3cf73b56	0.03017966
124	0x3b26da87	0.0025459842
125	0x3ca64490	0.020296365
126	0xbbdc776e	-0.0067281043
127	0x3cdc6a84	0.02690626

sequential/dense_2/BiasAdd/ReadVariableOp f4 [7]
0	0x3b80af24	0.0039271284
1	0xbbb9f361	-0.005674765
2	0xbba33910	-0.0049811676
3	0x3b877744	0.0041340906
4	0xbc5d1d7c	-0.013495799
5	0xbbe107b2	-0.0068673724
6	0x3b3c50ec	0.0028734757

sequential/dense_1/BiasAdd/ReadVariableOp f4 [128]
0	0x3c5cd4fe	0.013478516
1	0x3b1b6f10	0.0023717321
2	0x3ce5a82a	0.028034288
3	0x3c8db0b9	0.017296182
4	0xbc4026cf	-0.011728003
5	0x3c9c04a8	0.019045189
6	0xbaafde9b	-0.0013417782
7	0x3c587742	0.013212027
8	0xbc306276	-0.010765662
9	0x3ccdd0da	0.025124002
10	0x3c8fcf42	0.017554883
11	0x3c298ea1	0.010348947
12	0xbbcd826f	-0.0062716524
13	0xbc4187d7	-0.011812172
14	0x3c0c2dfc	0.008555885
15	0x3c06904b	0.008213113
16	0x3c4e4c17	0.012591383
17	0x3c69e467	0.014275647
18	0xbc70615f	-0.014671653
19	0xbc027fc0	-0.007965028
20	0x3c902f4a	0.017600674
21	0x3c1db2d7	0.009625158
22	0xbbc805a1	-0.0061041866
23	0x3c275f10	0.010215536
24	0x3cc0b834	0.023525335
25	0xbbebd5cb	-0.007197117
26	0xbbb4bb46	-0.005515489
27	0x3cb18a2c	0.02167233
28	0xbc4e2035	-0.012580921
29	0x3cb95223	0.022622174
30	0x3cb5aaff	0.022176264
31	0x3bf37500	0.007429719
32	0x3d1aef5b	0.037825923
33	0x3b57d245	0.0032931727
34	0x3c879b20	0.016553462
35	0xbc67116e	-0.014103277
36	0xbc343572	-0.0109990705
37	0x3c3c5933	0.011495876
38	0x3c96653e	0.018358823
39	0x3c357367	0.011074877
40	0x3c134281	0.008988024
41	0x3d1352c4	0.035967603
42	0x3be26fae	0.006910286
43	0xbb3378ac	-0.0027385158
44	0x3bda6655	0.006665031
45	0x3a1314dc	0.0005610713
46	0xbc1dff3a	-0.00964337
47	0x3b47ad6d	0.003046836
48	0x3c45b6de	0.012067525
49	0xb9b2ad1d	-0.00034079785
50	0x3c3e3398	0.011608981
51	0x3baffa7c	0.0053704362
52	0x3c0f94d2	0.008763509
53	0x3a6fef06	0.0009152744
54	0x3c7f2850	0.015573576
55	0x3c6ab3c9	0.014325091
56	0x3c2e9e32	0.010657834
57	0x3b4d8c05	0.0031363976
58	0x3c9b818b	0.01898267
59	0x3c65e7bf	0.014032303
60	0x3b108cdf	0.0022056622
61	0x3d089f68	0.033355147
62	0xbc15a0f9	-0.009132617
63	0xbc92b9ff	-0.017910955
64	0x3c7093d7	0.014683685
65	0x3d281230	0.04103297
66	0xbc27652c	-0.010216992
67	0x3d12a5a4	0.0358025
68	0x3b231fb4	0.0024890723
69	0x3c858a62	0.016301338
70	0x3c2c6da9	0.010524192
71	0xbb61ed11	-0.0034473578
72	0x3caf1457	0.021372003
73	0xb9c16d35	-0.00036893194
74	0x3c42600b	0.011863719
75	0x3cb23cec	0.021757565
76	0x3bc4ac2b	0.0060019693
77	0x394fd8d6	0.00019821836
78	0x3c94e49d	0.018175418
79	0x3bf53b03	0.0074838414
80	0x3c80d191	0.015724929
81	0xbc2a0ffe	-0.010379789
82	0xbaf37752	-0.0018574989
83	0xbc86c4b3	-0.016451215
84	0xbc8fe520	-0.01756531
85	0x3bd59c1b	0.0065188534
86	0xbc315503	-0.010823491
87	0x00000000	0.0
88	0x3c48f443	0.012265268
89	0x3c5df7bc	0.013547834
90	0xbbc4b88a	-0.006003444
91	0x3c9e6867	0.019336892
92	0x3ce5a134	0.02803097
93	0x3c49a15d	0.012306538
94	0x3ba74e0c	0.0051057395
95	0x39799598	0.00023802218
96	0x3c8923c4	0.016740687
97	0x3c8304bd	0.01599347
98	0x3c797424	0.015225444
99	0x3c2ed34f	0.010670497
100	0xbbbbc046	-0.005729708
101	0x3cd2187a	0.025646437
102	0x3cd99a24	0.026562758
103	0xbb3800a9	-0.0028076565
104	0x3ca2bbf0	0.019865006
105	0x3b91cff6	0.0044498397
106	0x3ae76b02	0.0017655792
107	0x3c9cf9e1	0.01916212
108	0x3c98a0d4	0.018631376
109	0x3c2d655c	0.010583248
110	0x3cacaad0	0.021077543
111	0x3be39913	0.006945738
112	0xbc6d47b1	-0.014482425
113	0x3c986ad4	0.018605627
114	0xbbeb3a5c	-0.007178588
115	0x3c106ecb	0.008815478
116	0x3b2f71ee	0.0026770788
117	0x3bd7ad80	0.006581962
118	0x3c8a5145	0.016884455
119	0x3c8a75b9	0.016901838
120	0x3c37e3da	0.011223758
121	0x3c220218	0.0098881945
122	0x3ca25c23	0.019819325
123	0x3bea07e5	0.0071420544
124	0x3d05a8a0	0.032631516
125	0xbc33a860	-0.010965437
126	0xbb061ac4	-0.002046273
127	0x3c074898	0.008257054

sequential/dense/MatMul f4 [128, 1088]
0	0xbd424293	-0.04742677
1	0x3dd46315	0.10370461
2	0xbe56a4db	-0.20961325
3	0x3d4e81a9	0.050416622
4	0x3bc0e5bc	0.0058867615
5	0xbdbff26d	-0.09372411
6	0xbda7f921	-0.082018144
7	0xbda9950d	-0.08280382
8	0xbca77416	-0.020441096
9	0x3d873aad	0.066029884
10	0x3d885620	0.06657052
11	0x3d7a2b63	0.061076533
12	0xbe58f562	-0.21187356
13	0xbe25a622	-0.16176656
14	0x3d8305e5	0.06397609
15	0x3c154069	0.009109595
16	0x3e15a6e1	0.1461444
17	0xbc78c4d5	-0.015183647
18	0x3cfddc39	0.0309888
19	0xbe2e9d44	-0.1705218
20	0xbe1b99f5	-0.15195449
21	0xbcfdc249	-0.030976431
22	0x3debbc6f	0.1151055
23	0xbcce3ee1	-0.025176467
24	0xbe03185b	-0.1280226
25	0xbd89bc8a	-0.06725414
26	0xbd7431a9	-0.059617672
27	0xbdba216d	-0.09088407
28	0x3c62a574	0.013833392
29	0x3e0bcb6b	0.13651817
30	0xbe211716	-0.15731463
31	0xbd1b00ce	-0.037842564
32	0x3d99999f	0.07500004
33	0x3e2d6dbe	0.16936395
34	0x3e07cfb6	0.13262829
35	0x3e3917fa	0.18075553
36	0xbd0012dd	-0.03126799
37	0x3d04bad3	0.032404732
38	0x3e2665c2	0.16249755
39	0xbe1b88b2	-0.15188864
40	0x3deb843e	0.114998326
41	0xbdb1142a	-0.08646424
42	0xbd89d06f	-0.06729209
43	0xbd5530f7	-0.05204865
44	0xbcac3edb	-0.021026066
45	0xbda52b71	-0.080649264
46	0x3c0ddadc	0.008658137
47	0xbe059510	-0.13045144
48	0x3d9a0048	0.07519585
49	0x3e043577	0.1291102
50	0xbdacd13a	-0.08438344
51	0x3e0b379e	0.13595435
52	0xbe1c97a0	-0.15292215
53	0x3d35e83e	0.044410937
54	0x3dbf9c22	0.09355952
55	0xbd82759c	-0.063700885
56	0xbd5923ed	-0.053012777
57	0xbe1ba2e2	-0.15198854
58	0x3e2000dc	0.15625328
59	0xbbf7fd05	-0.007568004
60	0x3d67071e	0.05640327
61	0x3da9125d	0.08255456
62	0x3e29a590	0.16567063
63	0x3d358234	0.044313625
64	0xbd90fb12	-0.07079138
65	0xbc376942	-0.011194529
66	0xbc5d0f92	-0.013492482
67	0x3e0e951d	0.1392407
68	0x3dc7e109	0.09759719
69	0xbe78394b	-0.24240606
70	0x3b6b1846	0.0035872622
71	0xbda1c7e0	-0.07899451
72	0xbe0791f6	-0.13239273
73	0xbddb08cb	-0.106950365
74	0x3e3b51b5	0.18292888
75	0x3c817f0a	0.015807647
76	0xbde9d211	-0.1141702
77	0x3ded8277	0.1159715
78	0xbd7e8f3f	-0.06214833
79	0x3d7b5d0e	0.06136804
80	0x3d266e6c	0.04063265
81	0x3dffb016	0.124847576
82	0x3d5c1c2e	0.05373781
83	0xbe1d42cd	-0.15357514
84	0xbdc1bdde	-0.094600424
85	0x3dadc516	0.08484857
86	0xbde2f2c6	-0.110814616
87	0x3daf2c5c	0.08553383
88	0xbd1498b9	-0.03627846
89	0x3db30f67	0.08743172
90	0x3dbddab5	0.09270231
91	0xbc936b71	-0.017995568
92	0x3dbdcd0f	0.092676274
93	0x3dcb8f0a	0.09939392
94	0xbdf2f475	-0.11863033
95	0xbda48f3f	-0.080351345
96	0x3d117edc	0.035521373
97	0x3db663c6	0.08905749
98	0x3e26f3e3	0.16303973
99	0x3bb10524	0.005402224
100	0xbb4effb5	-0.0031585519
101	0x3db135f2	0.086528674
102	0xbc3acc8c	-0.011401307
103	0x3c632cf1	0.013865695
104	0x3d94e062	0.0726936
105	0x3dad599d	0.08464358
106	0x3bd68a38	0.0065472387
107	0x3cb0b1c7	0.021569146
108	0x3c03d689	0.008046755
109	0xbd9f5135	-0.07779161
110	0xbe3ef436	-0.18647847
111	0xbd5c011c	-0.053711995
112	0x3de5efe6	0.112273976
113	0x3cc3040c	0.02380564
114	0xbe5809ea	-0.21097532
115	0x3e4903c1	0.19630338
116	0xbd7c1932	-0.061547466
117	0x3c35c085	0.0110932635
118	0x3e16db55	0.14732106
119	0x3dca2423	0.09870174
120	0xbdd45e51	-0.10369552
121	0x3db3e0eb	0.08783134
122	0x3e33b8c1	0.17550947
123	0x3dc1a3d5	0.094550766
124	0x3dc48212	0.095951214
125	0x3ddc1f35	0.1074814
126	0x3d144499	0.036198232
127	0x3d72b088	0.059250385
128	0xbcbbce66	-0.022925567
129	0xbe07996d	-0.13242121
130	0xbd70406b	-0.058655184
131	0x3d359b84	0.044337764
132	0x3d849f09	0.06475646
133	0xbe239523	-0.1597486
134	0xbde0afe6	-0.1097105
135	0xba2b2525	-0.0006528667
136	0x3c674e85	0.014117842
137	0x3d27976a	0.040915884
138	0x3dc3001b	0.095215045
139	0x3d943ef3	0.07238569
140	0xbd80eb11	-0.06294835
141	0xbdc07d48	-0.093988955
142	0xbc8e9477	-0.017404778
143	0xbd128701	-0.03577328
144	0x3d0cf673	0.03441472
145	0x3af5bea2	0.001874883
146	0xbafaa425	-0.0019122405
147	0xbe29eb86	-0.16593751
148	0xbc9e6b0e	-0.019338157
149	0x3d63ddf2	0.055631585
150	0x3e0a4546	0.13502988
151	0xbd7cbe16	-0.061704718
152	0xbd2a245e	-0.04153859
153	0x3da8450c	0.08216295
154	0xbe09c93a	-0.13455668
155	0x3d4b476f	0.04962867
156	0x3e1a208f	0.15051483
157	0x3d9b19bf	0.0757327
158	0xbd9ad801	-0.07560731
159	0x3df88999	0.1213562
160	0x3c753580	0.014966369
161	0x3cef1c1e	0.029188212
162	0x3d7a670a	0.061133422
163	0x3d35b818	0.04436502
164	0x3d80b582	0.0628462
165	0x3cc5b438	0.024133787
166	0x3dd33a55	0.1031386
167	0xbda779c9	-0.081775256
168	0x3d9e0dfe	0.077175125
169	0x3d21c227	0.0394918
170	0x3d4cfa98	0.050043672
171	0xbb3e1e02	-0.0029009585
172	0xbd6fb8d0	-0.05852586
173	0xbbbe2f0d	-0.0058039487
174	0xbe453e73	-0.19262104
175	0x3c28285f	0.0102635315
176	0xbd2be06d	-0.041962076
177	0x3d388d94	0.045056894
178	0xbe382d92	-0.17986134
179	0x3db533fd	0.088478066
180	0xbd8b0600	-0.06788254
181	0xbd64106c	-0.055679724
182	0x3de444ea	0.11145957
183	0xbe146924	-0.14493233
184	0xbd9ab87e	-0.0755472
185	0xbd9e9ea2	-0.077451006
186	0x3df47b68	0.119376004
187	0x3d3ac3b5	0.045596797
188	0x3df145dd	0.117809035
189	0x3bd8476d	0.0066003115
190	0x3e20e2c2	0.15711501
191	0xbd87355b	-0.066019736
192	0xbd9e6dcd	-0.077357866
193	0xbdba2c3c	-0.09090468
194	0x3df42bff	0.11922454
195	0xbbb59789	-0.005541746
196	0x3d48a777	0.048987832
197	0xbd2dbe6f	-0.04241794
198	0x3cf23376	0.029565554
199	0xbd45ad59	-0.04826102
200	0x3d8e3848	0.069443285
201	0xbdcea92e	-0.10090862
202	0x3e2b7e08	0.16747296
203	0x3dc2f47d	0.09519289
204	0xbc4be729	-0.01244525
205	0xbcc20e3c	-0.023688428
206	0x39065ae2	0.00012813092
207	0x3d0c75bb	0.034291964
208	0xbda40f22	-0.08010699
209	0x3db0a2a4	0.08624771
210	0x3d6f31f6	0.058397256
211	0xbcda2764	-0.026630111
212	0xbd232402	-0.03982926
213	0x3c15f124	0.009151731
214	0xbd1a109c	-0.037613496
215	0xbce40f4e	-0.02783933
216	0x3d17759a	0.036977388
217	0x3c2fee45	0.01073796
218	0xbd756fa0	-0.059920907
219	0x3dc6b707	0.097028784
220	0xbcc605c7	-0.024172677
221	0xbcc839c2	-0.024441604
222	0xbac6f17e	-0.0015178171
223	0x3a804f01	0.000978917
224	0xbd25d1ec	-0.0404834
225	0xbd422309	-0.047396693
226	0x3c5b5a22	0.013388189
227	0x3c175c45	0.009238307
228	0x3d8d24b1	0.06891764
229	0xbd25dcf9	-0.04049394
230	0x3d4aa490	0.049473345
231	0x3d382e41	0.044965986
232	0xbcc879cc	-0.02447214
233	0x3df8ca35	0.12147943
234	0xbd642bf2	-0.055705972
235	0xbb6f4539	-0.0036509766
236	0x3e074af4	0.13212186
237	0x3cefd7f8	0.029277787
238	0xbd6599f1	-0.056055013
239	0x3ce54e53	0.02799145
240	0x3dc72aae	0.097249374
241	0xbce82793	-0.028339183
242	0xbe03860d	-0.12844105
243	0x3dcebde0	0.100948095
244	0x3cfae6fe	0.030627724
245	0x3d7ca801	0.06168366
246	0x3c31319b	0.0108150495
247	0xbb9b86b1	-0.004746281
248	0x3d2d9f12	0.04238803
249	0xbb4b6cec	-0.0031040264
250	0xbdbbfc82	-0.091790214
251	0x3dab1338	0.08353275
252	0x3d87e1f2	0.066348925
253	0x3d3309ad	0.0437104
254	0x3dd0929a	0.10184212
255	0x3c39810b	0.01132227

sequential/dense_1/MatMul f4 [128, 128]
0	0xbdd2463c	-0.102673024
1	0x3cd6f0b8	0.02623783
2	0x3da7e4a0	0.08197904
3	0x3e30596a	0.17221609
4	0x3db62488	0.088936865
5	0x3d8f73d6	0.07004516
6	0x3d03cd0d	0.032177974
7	0xbdf0a029	-0.11749298
8	0x3dfc5176	0.12320225
9	0xbe07e5c6	-0.13271245
10	0xbdfab655	-0.12241808
11	0x3dc35eb6	0.09539549
12	0x3c092b78	0.00837218
13	0x3e130e6f	0.14360975
14	0xbe124992	-0.14285877
15	0x3d06cf1c	0.03291236
16	0xbd9c4c13	-0.076316975
17	0xbcde4b97	-0.027135653
18	0x3e675a2a	0.22592989
19	0xbd1e6cbf	-0.038677927
20	0xbc43748c	-0.011929642
21	0x3d7fdba5	0.06246533
22	0x3d28687c	0.04111527
23	0x3e89f31c	0.2694329
24	0xbc2fbeeb	-0.010726671
25	0x3defa8c3	0.117021106
26	0xbe01594d	-0.12631722
27	0x3e1a1db4	0.15050393
28	0x3da52ecd	0.08065567
29	0xbdd3a588	-0.10334307
30	0x3d8dcfcf	0.06924402
31	0x3d6176cb	0.05504493
32	0xbd86037c	-0.06543633
33	0x3dbbc1b1	0.09167803
34	0xbc7f65fc	-0.01558828
35	0x3db1a373	0.086737536
36	0x3a64768b	0.0008715174
37	0xbd8a14f1	-0.067422755
38	0x3d48a1b1	0.048982326
39	0xbd91afb2	-0.07113589
40	0x3e3a28be	0.18179604
41	0xbd4ef822	-0.050529607
42	0x3e03ae66	0.12859496
43	0x3dc22e26	0.09481458
44	0x3df05c51	0.11736358
45	0xbcd47a22	-0.025937144
46	0x3cf63b1b	0.03005748
47	0xbd924d64	-0.07143667
48	0x3ddd870a	0.10816772
49	0x3c836b68	0.016042426
50	0x3d8154fe	0.06315039
51	0xbd1370f5	-0.035996396
52	0x3e155dbd	0.1458654
53	0x3e3d2cc3	0.18474106
54	0xbd4f6021	-0.050628785
55	0x3dc2cdc3	0.09511902
56	0x3d6d04f9	0.05786607
57	0xbce862c4	-0.028367408
58	0x3e71d50d	0.23616429
59	0x3c2c1037	0.010501913
60	0x3e1cecd5	0.15324719
61	0x3cbfb614	0.023402251
62	0x3dc19d03	0.09453776
63	0x3d675ea8	0.056486756
64	0xbc8eb179	-0.01741861
65	0x3d914754	0.07093683
66	0x3d086c8c	0.033306643
67	0x3ddd8eae	0.108182296
68	0xbe08abbf	-0.13346766
69	0xbd5fc766	-0.05463352
70	0x3d79a588	0.06094888
71	0xbdfea30a	-0.12433441
72	0xbe13cad1	-0.14432837
73	0x3e07647d	0.13221927
74	0x3da5d660	0.080975294
75	0xbddcf3c8	-0.10788685
76	0xbe169e03	-0.14708714
77	0xbd654d18	-0.055981725
78	0xbd05aa1d	-0.032632936
79	0xbe2b8deb	-0.16753356
80	0x3bd77a0f	0.00657583
81	0xbe12a043	-0.14318947
82	0x3d5712f4	0.05250831
83	0x3d81fce6	0.06347065
84	0x3d488038	0.048950404
85	0x3e46bb08	0.19407284
86	0x3c835c5d	0.016035253
87	0x3d47155e	0.04860436
88	0x3dec11dc	0.11526844
89	0x3cf2642c	0.029588781
90	0x3e72d289	0.23713125
91	0xbc8a3d4c	-0.016874932
92	0x3d91ba07	0.0711556
93	0xbcf92077	-0.030410988
94	0x3e4f6c49	0.20256151
95	0xbc8097a1	-0.015697302
96	0x3d6fa568	0.058507353
97	0x3de078eb	0.10960563
98	0x3d306bd4	0.043071583
99	0xbe0884eb	-0.13331954
100	0x3d8febb6	0.0702738
101	0x3dbccbd4	0.09218565
102	0x3e4e783c	0.20163053
103	0xbd527453	-0.051380467
104	0x3d4f7608	0.050649673
105	0x3e2eb43b	0.1706094
106	0xbe0c4584	-0.13698393
107	0xbc655f3b	-0.0139997555
108	0x3deb4b7b	0.11489006
109	0x3c811a50	0.015759617
110	0xbe2bee27	-0.16790067
111	0xbdc1c2d0	-0.09460986
112	0xbcdb4083	-0.02676416
113	0xbd888434	-0.06665841
114	0x3e39350d	0.18086644
115	0x3e132c56	0.14372382
116	0xbe00841c	-0.12550396
117	0xbd97d60b	-0.07413872
118	0xbd7c0e55	-0.061537106
119	0xbdfc82e7	-0.12329655
120	0x3dc1df30	0.09466398
121	0x3cba1c36	0.02271853
122	0x3e763602	0.2404404
123	0x3d16d2e8	0.03682223
124	0xbd55f44d	-0.052234937
125	0xbe087393	-0.13325338
126	0xbdaaec4b	-0.083458506
127	0x3c3e2bc0	0.0116071105
128	0x3e012fcd	0.12615891
129	0xbe124267	-0.14283143
130	0x38270972	3.98247e-05
131	0x3d6d7747	0.05797508
132	0xbe296a0c	-0.1654436
133	0xbdf42d45	-0.11922697
134	0x3e18fc36	0.14939961
135	0x3dc047db	0.09388705
136	0x3e133e47	0.14379226
137	0xbd6bcbd6	-0.05756744
138	0xbd2f628b	-0.042818587
139	0x3a7c5d03	0.0009626897
140	0xbdbebd64	-0.09313467
141	0xbd81c781	-0.063368805
142	0x3d7975e3	0.06090344
143	0x3da21b51	0.079153664
144	0x3db2e185	0.08734421
145	0x3dc3f7b5	0.09568731
146	0xbe5d97ab	-0.21639888
147	0xbdf0ffbb	-0.11767527
148	0xbe1c5629	-0.15267242
149	0x3df7d0de	0.12100385
150	0x3e23f18f	0.16010116
151	0xbd1f89f1	-0.03894991
152	0x3cf29a5a	0.029614616
153	0xbe0af32b	-0.13569324
154	0xbd32bf16	-0.043639265
155	0xbd716f88	-0.058944255
156	0x3bebab69	0.0071920645
157	0x3db742f0	0.08948314
158	0xbe6c046e	-0.23048565
159	0xbda5f370	-0.08103073
160	0x3d872b8c	0.06600103
161	0x3dbf4968	0.09340173
162	0xbdf2368a	-0.11826809
163	0xbdeddcc9	-0.11614377
164	0xbd1a3cb9	-0.037655566
165	0x3e41a4e8	0.18910563
166	0x3e189944	0.14902216
167	0xbd073f7e	-0.033019535
168	0x3e1ada89	0.15122427
169	0x3d974c7b	0.07387634
170	0xbe228601	-0.15871431
171	0x3dbea0ca	0.09308012
172	0xbe02bf95	-0.12768395
173	0x3d303b91	0.043025557
174	0xbe769e26	-0.24083766
175	0xbe187ba5	-0.14890917
176	0xbdbc429f	-0.091923945
177	0xbbaff708	-0.0053700246
178	0x3e18382f	0.14865182
179	0x3e382023	0.17981009
180	0xbe2e1da9	-0.17003502
181	0x3de07615	0.10960022
182	0xbdb01c7a	-0.085991815
183	0xbd96a983	-0.073565505
184	0x3ddd5486	0.10807137
185	0xbd36c18e	-0.044618182
186	0x3da2216a	0.079165295
187	0x3e114ad4	0.14188701
188	0xbe09fde5	-0.1347576
189	0xbc962404	-0.01832772
190	0xbdbd6cad	-0.09249244
191	0xbe5ecd3a	-0.21757975
192	0xbdc65123	-0.09683444
193	0x3c885557	0.016642256
194	0x3cb851ee	0.022500005
195	0xbae6fe72	-0.0017623438
196	0x3d8d0c8c	0.06887159
197	0x3e05a56a	0.13051382
198	0xbdbaf9a9	-0.0912965
199	0xbcfea4af	-0.031084387
200	0xbd6ab5a2	-0.057302125
201	0x3e2de2ec	0.16981095
202	0x3ccb08f8	0.02478455
203	0xbd040dbc	-0.03223966
204	0x3e09470c	0.13406008
205	0xbcf7e84d	-0.030262137
206	0x3daf981d	0.08573935
207	0xbcfb5b60	-0.03068322
208	0xbe5700dd	-0.20996423
209	0x3d27745e	0.04088246
210	0xbdfb4296	-0.1226856
211	0x3df2f64c	0.11863384
212	0xbd4c9451	-0.049946133
213	0x3d9f082a	0.07765229
214	0x3cbe9c5c	0.023267917
215	0x3d8315a1	0.0640061
216	0x3e15f39b	0.1464371
217	0xbd97df77	-0.074156694
218	0xbd116d3e	-0.035504572
219	0x3d911d29	0.0708564
220	0x3d98573b	0.07438513
221	0xbe09b4c5	-0.13447864
222	0xbe0017be	-0.12509057
223	0x3defef8b	0.11715611
224	0x3dd5a0fe	0.104310974
225	0xbc03ede2	-0.008052321
226	0x3daaa6c9	0.08332593
227	0xbcff3a92	-0.031155858
228	0xbc9d9f96	-0.019241136
229	0x3cd12f1e	0.025535163
230	0xbd0712e7	-0.03297701
231	0xbdc9b294	-0.09848514
232	0xbe0262e3	-0.12733035
233	0xbe495db9	-0.19664659
234	0x3dfec296	0.12439458
235	0xbc50b37f	-0.012738108
236	0x3c623e74	0.013808835
237	0xbdfa3116	-0.12216394
238	0xba710b08	-0.0009195064
239	0x3d35a1cb	0.04434375
240	0x3d99482a	0.07484467
241	0xbc90c47c	-0.017671816
242	0x3ba09915	0.0049010613
243	0x3c39e29a	0.01134553
244	0x3c851ce0	0.01624912
245	0x3e28a293	0.16468267
246	0xbd9e3590	-0.0772506
247	0x3e271ec9	0.16320337
248	0x3db86a74	0.09004679
249	0x3ccfc3e0	0.025361955
250	0x3d73a62b	0.059484642
251	0xbdd81ea9	-0.10552723
252	0xbcf1a8ec	-0.029499494
253	0x3caed132	0.021339986
254	0xbcc8c815	-0.024509469
255	0x3dfcedc3	0.12350037

sequential/dense_2/MatMul f4 [7, 128]
0	0x3df6eccf	0.120568864
1	0xbe00f6a5	-0.12594087
2	0x3dca9fd6	0.098937675
3	0xbe4f3ef6	-0.20238861
4	0xbe065368	-0.13117754
5	0xbe9a0292	-0.30080086
6	0x3e0bcfe7	0.13653527
7	0x3e0756c2	0.13216689
8	0xbdd78c61	-0.10524822
9	0x3ddf54e6	0.10904865
10	0x3e0ff628	0.14058745
11	0x3daf300c	0.08554086
12	0xbe7e60df	-0.24841641
13	0xbd980cb9	-0.07424302
14	0x3e6a7ad5	0.22898419
15	0xbd96d807	-0.07365423
16	0xbe69f75d	-0.22848268
17	0xbe331ad9	-0.1749071
18	0xbe07442a	-0.13209596
19	0x3dca543c	0.09879348
20	0x3c0dbf3c	0.008651551
21	0xbe2ed466	-0.17073211
22	0xbe937b0c	-0.28804815
23	0x3d802bd8	0.062583625
24	0xbe8b0804	-0.27154553
25	0xbe40eb58	-0.18839777
26	0x3e541bdb	0.20713751
27	0x3c8d222e	0.017228212
28	0xbde84820	-0.11341882
29	0x3dc81618	0.09769839
30	0xbb68b668	-0.0035509113
31	0x3e26345f	0.16230915
32	0xbdf9aad3	-0.12190785
33	0x3e4d4cd1	0.20048834
34	0xbe267335	-0.16254885
35	0xbe2de48f	-0.1698172
36	0xbe2eb9e9	-0.17063107
37	0x3e37b48a	0.17939964
38	0x3dff3aab	0.12462362
39	0xbe6695c8	-0.22518075
40	0x3e0776b8	0.13228881
41	0x3c8304bc	0.015993468
42	0x3d975654	0.07389513
43	0xbe8d85aa	-0.2764104
44	0xbe18ea6a	-0.14933172
45	0x3e5d071a	0.2158474
46	0x3c7a3403	0.01527119
47	0xbe2ed1f7	-0.17072283
48	0x3e3b2fac	0.18279904
49	0x3e8f8af6	0.28035706
50	0x3e441c38	0.1915139
51	0xbdd914bc	-0.10599658
52	0x3c754402	0.014969828
53	0xbc9a9048	-0.018867627
54	0x3e099865	0.1343704
55	0xbd152bb9	-0.03641865
56	0x3e3cf712	0.18453625
57	0xbde47232	-0.111545935
58	0xbe2d887c	-0.16946596
59	0xbe267c24	-0.16258293
60	0x3d8d8fcb	0.06912192
61	0xbe8e8538	-0.27836013
62	0x3daaae5b	0.08334037
63	0xbce2d090	-0.027687341
64	0xbd49873d	-0.04920124
65	0x3d1f2bae	0.038860016
66	0xbe22072d	-0.1582305
67	0x3e168520	0.1469922
68	0xbe845869	-0.25848702
69	0xbea134f8	-0.31485724
70	0x3dad6023	0.08465602
71	0x3c83452a	0.016024191
72	0x3d6ffbed	0.058589865
73	0xbdc92aaa	-0.09822591
74	0xbdb77ceb	-0.08959373
75	0x3e6e6016	0.23278841
76	0x3d583c6b	0.052791994
77	0xbe4dd601	-0.20101167
78	0x3e47eda9	0.19524254
79	0x3de26557	0.11054485
80	0xbd8bb4d2	-0.06821598
81	0xbe4e78c6	-0.20163259
82	0xbe1a7d5f	-0.15086888
83	0xbe272cfa	-0.16325751
84	0xbe31f83f	-0.17379855
85	0xbe97257f	-0.29520795
86	0x3e1200f6	0.14258179
87	0x3e41f189	0.18939795
88	0x3e054bcd	0.13017197
89	0x3e72ca9b	0.237101
90	0xbe3e7814	-0.18600494
91	0x3dbe44a4	0.09290436
92	0xbe70722b	-0.23481052
93	0xbe912d96	-0.28355092
94	0xbcf49ff2	-0.029861424
95	0xbe4e0e3f	-0.20122622
96	0xbe5efda5	-0.21776445
97	0x3e855c23	0.26046857
98	0x3e453609	0.19258894
99	0xbdf90951	-0.1215998
100	0xbca68566	-0.020327281
101	0xbe162d49	-0.14665712
102	0x3dbabb07	0.09117704
103	0x3dbd9509	0.09256942
104	0x3d958c06	0.07302098
105	0xbdf7e9c9	-0.12105138
106	0x3e70a222	0.23499349
107	0x3da4929e	0.080357775
108	0x3e2345be	0.15944573
109	0xbe3125d8	-0.17299592
110	0x3c7c10db	0.015384878
111	0x3d8fd3be	0.070228085
112	0xbcc8403f	-0.024444697
113	0xbe8f6164	-0.2800399
114	0xbd8aa789	-0.06770236
115	0x3dc41b5f	0.09575533
116	0xbe858fc5	-0.2608625
117	0xbd2c0baa	-0.04200331
118	0xbe849516	-0.25894994
119	0x3e3a84a7	0.18214665
120	0xbe669eda	-0.22521535
121	0x3c87a72a	0.016559202
122	0x3e6692f1	0.22516991
123	0x3e1c1c2b	0.1524512
124	0x3e367e49	0.17821611
125	0xbbdde6bc	-0.0067718904
126	0xbe2d761a	-0.16939583
127	0x3de941e8	0.11389524
128	0x3e3dd660	0.18538809
129	0xbe945266	-0.28969115
130	0xbe8cf0e1	-0.27527526
131	0xbd3b0201	-0.045656208
132	0xbda1b034	-0.07894936
133	0xbe297c68	-0.16551363
134	0x3e46cc7f	0.19413947
135	0xbe951465	-0.29117122
136	0xbe4e7c5c	-0.20164627
137	0xbe8a65ea	-0.2703088
138	0xbe99691f	-0.29963014
139	0x3dd39b05	0.10332302
140	0x3e4fd32a	0.20295396
141	0x3dcf8e69	0.101345845
142	0x3e0fb250	0.14032865
143	0xbe2ef899	-0.1708702
144	0x3e45f272	0.19330767
145	0xbea43902	-0.32074744
146	0x3e463bb0	0.19358706
147	0xbdf61781	-0.12016202
148	0xbe2001c0	-0.15625668
149	0x3e61513f	0.22003649
150	0x3e635bf2	0.22203043
151	0xbe2c0243	-0.16797738
152	0x3e0d55d4	0.13802272
153	0x3dae2f51	0.08505119
154	0x3e0d2241	0.13782598
155	0xbdf9d09c	-0.12197992
156	0x3cc48505	0.02398921
157	0xbe93e67f	-0.28886792
158	0x3cc731fe	0.02431583
159	0xbe8649c5	-0.26228157
160	0xbe9ced45	-0.30649772
161	0x3e5ad902	0.21371844
162	0x3e43e6d4	0.19131023
163	0xbdd4009d	-0.103516795
164	0xbde3c34d	-0.11121235
165	0x3e16ebab	0.14738338
166	0xbe05986d	-0.13046427
167	0xbd82bd1e	-0.063837275
168	0x3e3e9774	0.18612462
169	0xbebb4bc4	-0.36581242
170	0x3e3e461a	0.18581429
171	0x3e24d64b	0.16097371
172	0x3d0fc423	0.03509916
173	0x3e1b4794	0.15164024
174	0x3d33d794	0.043906763
175	0x3d5b7bc4	0.05358483
176	0x3e3b2701	0.18276598
177	0xbdf80f66	-0.12112312
178	0x3e19adf9	0.15007772
179	0x3b53754b	0.0032265957
180	0xbd837172	-0.06418122
181	0xbe295f5d	-0.16540284
182	0xbe1e6039	-0.15466394
183	0x3e84a19f	0.25904557
184	0xbe5fa102	-0.21838763
185	0x3e19080b	0.14944474
186	0xbe918364	-0.28420556
187	0xbd5262b4	-0.051363662
188	0x3da8bb7f	0.08238887
189	0xbe4cc9a2	-0.19998792
190	0x3d475de5	0.04867353
191	0xbd3f1bb0	-0.046657264
192	0x3e306277	0.17225061
193	0xbd988660	-0.07447505
194	0xbe3ec980	-0.18631554
195	0xbcc68693	-0.024234092
196	0x3e618934	0.22024995
197	0x3cadf6ad	0.021235788
198	0x3e1f0a49	0.15531267
199	0x3e392a7e	0.18082616
200	0xbe98e40e	-0.29861492
201	0x3e957c06	0.29196185
202	0x3e2f07dc	0.17092842
203	0xbe4a7cc0	-0.19774151
204	0xbe537a8d	-0.20652218
205	0xbe558097	-0.20849834
206	0xbe48e999	-0.1962036
207	0x3c86b83f	0.016445277
208	0x3e3d20ce	0.18469545
209	0xbe5d18b4	-0.21591455
210	0x3e625d30	0.2210586
211	0x3dc21307	0.094762854
212	0xbe363f2f	-0.1779754
213	0xbd920ed3	-0.07131734
214	0xbd595e30	-0.05306834
215	0xbe0bc400	-0.13648987
216	0xbe9641cc	-0.29347074
217	0xbe6282aa	-0.22120157
218	0x3ca6fe54	0.020384945
219	0xbcab4197	-0.0209053
220	0xbe8f51ce	-0.279921
221	0xbdd830e5	-0.10556201
222	0x3e3736e3	0.17892031
223	0x3e24986a	0.16073766
224	0x3d44d32f	0.048052963
225	0xbdd48401	-0.1037674
226	0x3e7ae355	0.24500783
227	0x3c492146	0.012275999
228	0xbdbc862c	-0.09205279
229	0xb9000e0c	-0.00012212264
230	0x3deb2dab	0.1148332
231	0x3e88c4ba	0.2671259
232	0x3e00181e	0.125092
233	0xbe718abe	-0.23588082
234	0x3d97fce0	0.07421279
235	0xbcb3b2e8	-0.021935895
236	0xbc12dddf	-0.008964031
237	0x3db20946	0.08693175
238	0xbea708bc	-0.3262385
239	0xbd03ab80	-0.032145977
240	0xbd050601	-0.03247643
241	0xbe025ce4	-0.12730747
242	0x3b3db268	0.002894545
243	0xbd834379	-0.06409354
244	0xbc294126	-0.010330474
245	0x3e7b180c	0.24520892
246	0x3d391c34	0.045192912
247	0xbe6971a9	-0.22797264
248	0x3d7ec065	0.0621952
249	0xbb90b1d9	-0.0044157323
250	0x3dfceafd	0.12349508
251	0x3e2b0896	0.16702494
252	0xbe11ecc8	-0.14250481
253	0xbdb5d404	-0.088783294
254	0x3dc759c9	0.09733922
255	0x3e789e51	0.24279143
